route_dev/drl-or/model/test/agent7.pth (torch, 211205 bytes, 31 tensors)

base.actor.0.weight f4 [64, 321]
00000000: ba45 593d 874a aebd 26f5 67bd 7516 afbd
00000010: 699c 92bd dc31 a73c a080 c63d 40d3 96bd
00000020: 3ba0 98bd 4d6f 2abe 0f6d 56be 6623 a9bb
00000030: 54ea a73d 8f77 c5ba 3248 0c3e 064e f1bc
00000040: a7e4 b1bd 5f1f ae3d feee 3c3d 02c0 3cbd
00000050: 34f7 1ebd bf6e f6bd 67a8 96bd 7f54 44bb
00000060: 1326 31bb c662 f7bc ee37 673d e0cb 04bd
00000070: 063c eabd c638 a9bd 1b77 863c 540b 323c
00000080: c368 59bd 25d6 f8bb 6788 a33d eefd aa3d
00000090: fbf4 aabd fb39 11bd 151d 07be 9126 8bbd
000000a0: 069c 173e 3345 9abd 4acd a53d dc9f 83bd
000000b0: 125d 48bc ace6 a8bc 24b4 ca3d c11c 8a3c
000000c0: 56fc 46bd 4ad3 5a3d 267e d63d d354 a3ba
000000d0: f0b7 1a3d a506 603d 3c29 023e 1f3c aa3d
000000e0: 3809 e23c 446f fa3d dcd2 0cbe b661 5cbd
000000f0: 9e70 cb3d 9375 51be 3e04 1abc 4428 8dbb
00000100: 639e ef3d 777c bdbd 9654 8cbc b0aa 983c
00000110: 77ac 51bc 9f7d 87bc 69dc bfbd 12a6 943d
00000120: 6b89 2e3e b8ed 033e 2ad3 973c 28de 33bb
00000130: 5f22 d73d d3af 2ebd 65c4 7d3d 90c0 143e
00000140: 1ca2 d93c 33b4 ea3c d25a a1bc 0655 93bd
00000150: c1b6 4bbe 4726 103d 675c 0dbe c853 5b3d
00000160: 25b1 c1bc fc0c cdbc aaa9 c5bd e4eb 823d
00000170: bf78 77bd e7f2 e3bd 3082 05be 09c4 e03d
00000180: 9a8f bfbd d3c4 95bd 4faf 3f3d 0cd7 c73c
00000190: 7922 ad3b 46c7 8e3d 9139 c83d cf1f 1bbd
000001a0: bd12 1abd 5aca d43d 84e3 7ebd 492e 663d
000001b0: a013 29be 0c47 0ebd f549 a93b aa8e 01be
000001c0: 2a94 c63d 088d 33bc 77e5 1fbb 0ea2 15bd
000001d0: 73da 5b3d ea31 403d 8249 7bbd 2064 453d
000001e0: d2f3 913d aad2 4b3d f0aa b5bc aa99 5fbd
000001f0: 46da 2c3d a2fe 82bd 6bf7 8fbc 8d01 a93d
00000200: 0089 8e3d ffed e4bd bc18 063d df59 623d
00000210: 11a7 e5bd 4c51 86bd 299d 88bc 33a2 e2bb
00000220: f734 9fbd 3312 84bd 942c 8abc 7edf 9cbd
00000230: 0d89 19bd 2c27 14be fdbb 643d b43d 68bd
00000240: 398c 52bd 0559 de3d 8fc2 08bd 9121 143c
00000250: 7119 76bd e23f 473d 00c1 12bd b00e ac3d
00000260: 444a d7bd 2a98 223e 1f00 a2bc 93fa b73c
00000270: a873 e33b 1f68 263e 0841 cfbc cf35 afbd
00000280: 539c 67bd 86c4 68bd 41ad 193e ca81 59bb
00000290: 7c4f f1bc 3f86 10bc 99b0 debb ee3e 07be
000002a0: 368e bb3d 5850 2d3c 5250 9dbc f3b3 cfbd
000002b0: 524b 9d3d 9853 62bd b27c 8cbd f6b2 453e
000002c0: 94bf 08bc 6114 d9bd aebb 023e a9a6 033e
000002d0: 794b 4cbd 00ff b2bc de6c 86bd 0334 d5bd
000002e0: b9fc 2e3e 3e6b b63d 9c2b 213d 1c36 1cbe
000002f0: 7a8e c5bc 441a 213c 7fba 9bbd 99c2 e5bd
00000300: 461c 6f3d 6bba b0bd cb58 2e3d f06d a23b
00000310: 237a 13be d383 34bd 6c6c 683d 7a43 28bb
00000320: a6ab d63d 5397 dabd 2671 e33d 65b6 253d
00000330: 1e6b 0fbc 6c75 8dbb d481 d23d 1ecb f53d
00000340: 1b69 05bd 556c 4ebd 3433 a13d 22bc 693c
00000350: d56c 853d cba6 d93b 6985 f13d b859 ecbd
00000360: 915f b1bc 66f4 8abd 6850 66bd 9b50 2b3d
00000370: e8a4 99bd a1c4 a03c 9c60 1f3d 4b4b d0bd
00000380: e0c0 f1bc 3a23 143c 3a87 d13d cc04 113e
00000390: dc84 15bd b77a 133e f568 9f3d dfe6 aa3c
000003a0: 947a 913d f970 1abd 9c96 cdbc 51de b4bb
000003b0: 7a62 debd b0af 59ba af82 f5bc e377 f43c
000003c0: ae87 57bc 8718 5ebd 5b12 b73d b7dc b7bd
000003d0: c17b 92bb 8ed4 b1bc 527d b13d 7f0f ba3d
000003e0: b7b0 a43c adf1 de3c 7f0f a03d 5cb9 8fbd
000003f0: 813f 1ebc 9557 b83c 3f59 60bd bc3b 49bc
0.053045012 -0.08510309 -0.056630276 -0.08549205 -0.07158739 0.020409517 0.09692502 -0.073645115
-0.074524365 -0.1664402 -0.2094004 -0.0051616905 0.081989914 -0.0015065538 0.13699415 -0.02945615
-0.0868619 0.08502077 0.04612636 -0.04608155 -0.03880997 -0.12032842 -0.07356339 -0.002995759
-0.002703075 -0.030198466 0.056449823 -0.032420993 -0.1143723 -0.08262782 0.016414216 0.010866959
-0.053078424 -0.0075938874 0.07985001 0.083492145 -0.083475076 -0.035455685 -0.13194688 -0.06794465
0.14805612 -0.0753273 0.080957964 -0.06426975 -0.012229221 -0.020617805 0.0989764 0.016859414
-0.04858049 0.053424157 0.1047328 -0.0012461193 0.037773073 0.054693837 0.12711042 0.083122484
0.027592286 0.122282535 -0.13752311 -0.053804122 0.099335894 -0.20455007 -0.0094004255 -0.0043077786
0.11700132 -0.092522554 -0.017130177 0.018636078 -0.0127974665 -0.016539393 -0.09368212 0.07258238
0.17044608 0.12883651 0.018533308 -0.0027445648 0.10504603 -0.042648148 0.061954875 0.14526582
0.026566558 0.028650379 -0.019696627 -0.07193951 -0.19893934 0.035192754 -0.1380478 0.053546697
-0.02364404 -0.025030605 -0.096515015 0.06392649 -0.060417887 -0.11130314 -0.13037944 0.10974891
-0.09353562 -0.07312932 0.046798047 0.024394535 0.0052836505 0.06971602 0.09776605 -0.037872132
-0.037615526 0.10390158 -0.062228695 0.056196485 -0.16511393 -0.034735724 0.005166287 -0.12652078
0.09696229 -0.010958917 -0.0024398246 -0.0365315 0.053675126 0.0469226 -0.0613494 0.04819119
0.07126583 0.04976145 -0.022176236 -0.054589905 0.04220035 -0.063962236 -0.017574033 0.08252249
0.069597244 -0.11178207 0.032738432 0.05526149 -0.11213506 -0.06558475 -0.016676502 -0.0069163083
-0.07773774 -0.06448784 -0.01686696 -0.07659815 -0.037484217 -0.14468068 0.055843342 -0.05669947
-0.051403258 0.10856823 -0.03338867 0.009041206 -0.060082857 0.048644908 -0.03582859 0.08401239
-0.10512212 0.15878358 -0.019775448 0.02245835 0.0069412775 0.16250657 -0.025299564 -0.08555185
-0.056545567 -0.056828044 0.15007497 -0.0033188933 -0.029456846 -0.008821069 -0.0067959544 -0.132076
0.09157984 0.0105782375 -0.019203339 -0.101417445 0.07680382 -0.055255502 -0.06859721 0.1930655
-0.008346457 -0.1059959 0.12766907 0.12856545 -0.049876664 -0.02185011 -0.065637335 -0.10410311
0.17088594 0.089071736 0.03934823 -0.15255016 -0.02411579 0.009832922 -0.07603931 -0.11218757
0.058376573 -0.086293064 0.04256515 0.004956953 -0.1440206 -0.04407103 0.056744024 -0.0025674985
0.10481958 -0.10673394 0.11105566 0.040457148 -0.008753566 -0.0043169763 0.10278669 0.12001632
-0.03257094 -0.050396282 0.07871094 0.014266046 0.06514899 0.0066421977 0.11793024 -0.1154055
-0.021652015 -0.067848966 -0.056229025 0.04182492 -0.075021565 0.01962501 0.038910493 -0.10170611
-0.029510915 0.009041602 0.102308705 0.14161986 -0.036503658 0.14402281 0.07783691 0.020862041
0.07103458 -0.037705395 -0.02509623 -0.0055196662 -0.10858627 -0.00083040725 -0.029969541 0.029842323
-0.013154907 -0.05422261 0.08939048 -0.08977645 -0.004470319 -0.0217078 0.08666481 0.09084987
0.020103795 0.02721485 0.07815456 -0.07017776 -0.009658695 0.0225027 -0.05477261 -0.012282308

base.actor.0.bias f4 [64]
00000000: 0000 0000 0000 0000 0000 0000 0000 0000
00000010: 0000 0000 0000 0000 0000 0000 0000 0000
00000020: 0000 0000 0000 0000 0000 0000 0000 0000
00000030: 0000 0000 0000 0000 0000 0000 0000 0000
00000040: 0000 0000 0000 0000 0000 0000 0000 0000
00000050: 0000 0000 0000 0000 0000 0000 0000 0000
00000060: 0000 0000 0000 0000 0000 0000 0000 0000
00000070: 0000 0000 0000 0000 0000 0000 0000 0000
00000080: 0000 0000 0000 0000 0000 0000 0000 0000
00000090: 0000 0000 0000 0000 0000 0000 0000 0000
000000a0: 0000 0000 0000 0000 0000 0000 0000 0000
000000b0: 0000 0000 0000 0000 0000 0000 0000 0000
000000c0: 0000 0000 0000 0000 0000 0000 0000 0000
000000d0: 0000 0000 0000 0000 0000 0000 0000 0000
000000e0: 0000 0000 0000 0000 0000 0000 0000 0000
000000f0: 0000 0000 0000 0000 0000 0000 0000 0000
0.0 0.0 0.0 0.0 0.0 0.0 0.0 0.0
0.0 0.0 0.0 0.0 0.0 0.0 0.0 0.0
0.0 0.0 0.0 0.0 0.0 0.0 0.0 0.0
0.0 0.0 0.0 0.0 0.0 0.0 0.0 0.0
0.0 0.0 0.0 0.0 0.0 0.0 0.0 0.0
0.0 0.0 0.0 0.0 0.0 0.0 0.0 0.0
0.0 0.0 0.0 0.0 0.0 0.0 0.0 0.0
0.0 0.0 0.0 0.0 0.0 0.0 0.0 0.0

base.actor.2.weight f4 [64, 64]
00000000: 9992 7ebd ee29 97bc a6c0 c3be c479 593d
00000010: 8379 673e 0833 bfbc 7792 c6be 9e8c 71be
00000020: da5b a3be e0f3 b63e d1f9 80be 0bba 073e
00000030: f664 72be 1c20 c63d fa4e 87be c81e fcbc
00000040: 0a18 a83c 99bb cabd dc39 3d3e 59fc 0f3e
00000050: 62bb 8abd 1b37 4e3e f7f3 9cbd cb46 b9be
00000060: 09d8 9b3e 4052 fb3d f630 45bd 3686 08bd
00000070: 5d38 8c3d cfa1 0abe 5f47 553e 4638 d23d
00000080: 7174 c73d 6687 d03d 3ca6 e9bc 7a5c 063e
00000090: 2fa6 90bd 2bef a33d 8bbe 28be c4f5 fd3d
000000a0: a83e 213e df29 073e 07b8 11be 40fa e63c
000000b0: 554b 2c3e 3fea 13be 53ce 6cbd 0ac8 773e
000000c0: c605 03bf ffd8 a3bd 59eb 2fbd 42d6 9dbd
000000d0: e906 363d 5bfb f1bd 7268 003a a2e5 afbd
000000e0: f7f5 74be 8136 42be 924b 98be 4e6c 26be
000000f0: 1ec9 b9bd 6a83 c53d f975 c13d bb2c 183d
00000100: 2c92 893e eef3 1ebe e538 5a3e a89d 043e
00000110: d453 0d3e e3fb 0e3d fb3b c13e af76 463e
00000120: 58b4 ffbd 1168 7c3e 2c8f d5bb a5ca 76be
00000130: a8f4 9b3e 1b19 8b3d c995 973e e89a aa3c
00000140: 1bfc 4fbe 7735 99bd 9d5e fd3d a285 0bbe
00000150: 7827 093d d696 07be 4e1b 703e dd31 e5be
00000160: c9dd e8bd 4162 433e 18fa 913e 0f38 aa3d
00000170: 2f11 dd3d 78ea 86be 76a5 923e 80a6 6f3e
00000180: 7f5d e1bd 56ab 28bd c840 07be aadb 093e
00000190: 0eba 543e d365 8c3d 2d48 dabd 5e83 133d
000001a0: c3b0 273e cde8 0abd 8990 4a3e 31be 96bd
000001b0: e62d 99be 9cc7 fc3c a3ab 6fbb f20c 6fbd
000001c0: 9113 353e 3778 243e c742 cabd c2d6 933c
000001d0: 7df9 57be 92c1 513e 7076 223e 164c 173b
000001e0: 74ee 0abe fa8c e8bc c174 c3be c1a2 5b3d
000001f0: 198b e73c 09b8 393d c657 013e 3915 2e3e
00000200: fe6d 73be 9f4d 8bbe a132 05be 2156 f03e
00000210: b0c7 7d3e b609 483e 01a8 abbc 9895 133d
00000220: 9c31 b53d 1648 12be 6f3d b9bd d9db 03be
00000230: 781a 9a3c a3e3 363e 7842 403d 630e 223e
00000240: 5091 5dbd c34e a53e aaca 273d 263c 54be
00000250: 0992 0e3e cbc5 a5bc ff78 cfbe 337a 97be
00000260: 4366 d3bd 6b60 6dbd 8cd9 7abd 612d 5a3e
00000270: 17dd 263e e8c6 133e fb7b 8e3e f97b 8cbe
00000280: ef7d 3c3e 27fb 143e 2548 36bd fcda 34be
00000290: c83d 153e 85c9 8d3e 4256 053e 7328 f63d
000002a0: e991 cfbe a9a0 01be 8080 2ebd 7a1e 053e
000002b0: bdc8 d8bd 5996 e6bc f320 b43d 8233 07bd
000002c0: 2be6 ad3e 7609 f5bd c7c7 a63e bed4 043e
000002d0: e5f0 c53d bb38 213c 3fcc 08be 2d1c cb3c
000002e0: b530 d0bd abe2 4abe 7f09 963c 1228 483d
000002f0: 3117 22be 8226 2cbd e6e3 06bd 19dd 983d
00000300: aa07 f6bd f777 f33d b36c 253e e690 bebe
00000310: f046 f2bd 2a03 adbd a2a4 afbe 52e7 4c3e
00000320: 824d 9e3d 62a0 d8be 781e f33c e990 8dbb
00000330: eaa0 09bd 768f 943e 5279 d8bd 1a94 9b3d
00000340: 39f8 4fbc cc6f 99bd 896f 6dbe 963c aabd
00000350: a99f 073c 1577 01be 0bf9 263d 2756 793d
00000360: 3af5 e6bd e13f 0f3d 36c7 8a3e 4640 ebbd
00000370: 260c be3e a0a5 9a3d 15f3 5a3c fb45 6b3e
00000380: 622c 823e a718 013e 8a58 d9bd f8ca 463e
00000390: 1832 d53d e772 31be ebd8 2ebe d5be 143d
000003a0: 2ba0 05be fe44 3a3e c485 aa3e 8ef7 933d
000003b0: 26f4 223d 87ec 8cbe 9e59 aebe f5d3 023e
000003c0: a630 bdbd ba9a fe3d 9ec4 523e 8214 0abe
000003d0: 3815 d03c 4881 853d 9633 143e d65b a4bd
000003e0: b43f c8be 6ad1 c3be 5368 953d 0f91 02bd
000003f0: e009 dbbd f04f 95bc 8994 91bd ad55 893d
-0.062151525 -0.01845261 -0.38232917 0.05309464 0.22604947 -0.023339763 -0.3878362 -0.23588797
-0.31906015 0.35732937 -0.25190595 0.13254564 -0.23671326 0.09674093 -0.26427442 -0.030776396
0.020519275 -0.09899063 0.18479103 0.14061107 -0.06774022 0.20138209 -0.0766372 -0.36186823
0.3043826 0.12271547 -0.048142396 -0.03333112 0.06846688 -0.13538288 0.20828007 0.102646396
0.09739006 0.10182075 -0.02852165 0.13121215 -0.07062947 0.08004602 -0.16478936 0.12400392
0.15746558 0.13199566 -0.14230357 0.0281955 0.16825612 -0.14444827 -0.057813954 0.24197403
-0.51180685 -0.08000373 -0.042949054 -0.07706882 0.044440184 -0.118155204 0.0004898376 -0.08588721
-0.23921953 -0.18966104 -0.29745156 -0.16252252 -0.09071563 0.09644206 0.094463296 0.037152033
0.26869333 -0.1552274 0.21310766 0.12950766 0.13801509 0.034908187 0.37741074 0.19381212
-0.1248557 0.24649073 -0.0065173116 -0.2410074 0.30460095 0.06791898 0.29606465 0.020825818
-0.20311014 -0.07480901 0.12371562 -0.13625196 0.033484906 -0.13241133 0.23447916 -0.44764605
-0.11370427 0.1908045 0.2851112 0.083114736 0.10794293 -0.2635076 0.28641862 0.23403358
-0.11004161 -0.041179024 -0.13208306 0.13462701 0.20774099 0.06855359 -0.10658298 0.036013953
0.16376023 -0.033913422 0.19781698 -0.07360495 -0.2991783 0.0308569 -0.003657081 -0.058361955
0.17683245 0.16061483 -0.09876018 0.01804674 -0.21091266 0.20483997 0.15865493 0.0023086122
-0.13567525 -0.028387535 -0.38175014 0.05362201 0.02826457 0.045341525 0.12631139 0.17000283
-0.23772427 -0.27207658 -0.13007595 0.4694071 0.24783206 0.19534954 -0.020954134 0.036031336
0.08847353 -0.14285311 -0.09044921 -0.12876834 0.01881145 0.17860274 0.04693839 0.158258
-0.05409366 0.32286653 0.04096476 -0.2072607 0.13922895 -0.020235917 -0.40522 -0.29585418
-0.10322239 -0.05795328 -0.061242625 0.21306373 0.16295277 0.14431345 0.27828965 -0.27438334
0.18407415 0.14548932 -0.044502396 -0.17661661 0.14574349 0.2769281 0.13021186 0.12019434
-0.40541008 -0.12658943 -0.042603016 0.12999907 -0.10585163 -0.028147863 0.08795347 -0.033008106
0.33964667 -0.11964695 0.32574293 0.1297178 0.096650876 0.009840186 -0.13359164 0.024793709
-0.1016554 -0.1981303 0.018315075 0.04886634 -0.1582916 -0.04202891 -0.032932185 0.07464046
-0.120131806 0.11888116 0.16154747 -0.37219924 -0.118299365 -0.08447869 -0.34305292 0.20010117
0.07729627 -0.42309862 0.029677615 -0.004320253 -0.033600725 0.29015702 -0.10570015 0.075966075
-0.012693458 -0.07492027 -0.23187079 -0.08312337 0.008277812 -0.12643082 0.04076485 0.060873177
-0.11277242 0.03497303 0.2710511 -0.114868686 0.37118644 0.07551122 0.013363619 0.22975914
0.25424486 0.1260706 -0.106125906 0.19413364 0.10409945 -0.17328988 -0.17074935 0.036314804
-0.1304938 0.18190381 0.3330518 0.07224952 0.03978362 -0.27524206 -0.34052747 0.12776168
-0.092377946 0.124318555 0.20582816 -0.13484386 0.025400743 0.06518799 0.14472803 -0.08025329
-0.39111102 -0.38245708 0.07295289 -0.03187662 -0.10695243 -0.018226594 -0.07108409 0.067057945

base.actor.2.bias f4 [64]
00000000: 1951 28bd 94d4 5d3c b5bd ac3c 3a93 9ebc
00000010: 49ba 7d3c f811 38bd 2880 433c cb14 8c3c
00000020: 1b00 88bc 21ea 98bc 8220 07bd d06c 9cbc
00000030: 9701 dbbc fcd0 adbc 84ea e1bb b432 ac39
00000040: 307a 03bd 38d7 ad3c 2525 963c d855 45bc
00000050: 9088 d8bc 5b23 47bc 0f87 f1bc d583 85bc
00000060: 2ba4 7dbc 1cec 05bd 3dd9 813c cfe0 32bd
00000070: cb91 5bbc 47a6 523c 7d4b 4bbc fa5b 82bc
00000080: c546 e1bc e2de 953c 0f94 293d 5cac 163d
00000090: 0c53 ce3c 5622 ad3c 7c7f 043d 428b b73c
000000a0: 8066 bf3c 247c 97bc c966 a5bc 5951 d8bc
000000b0: 0db7 9c3c d121 0d3d c880 88bc 6572 05bd
000000c0: e474 e73c 1a8c 1ebd ea40 0ebd ea20 2f3d
000000d0: d6b4 b73b 2a40 853c 0a05 5d3c af07 20bd
000000e0: a0df 403d 9c17 a03c cb62 94bc 3c22 2f3d
000000f0: 7f3c 26bd aecc 103d 2d66 513c ac79 32bd
-0.041092966 0.013539452 0.021086553 -0.019357312 0.015486308 -0.04493901 0.01193241 0.017099759
-0.016601613 -0.018666329 -0.032989986 -0.019094855 -0.026734157 -0.021217816 -0.0068944115 0.00032844173
-0.03209895 0.021220788 0.018328259 -0.0120443925 -0.026432306 -0.0121544255 -0.029483346 -0.016298214
-0.015481035 -0.032695875 0.015850658 -0.043671425 -0.013401459 0.012857026 -0.0124081345 -0.015912998
-0.027499566 0.018294755 0.041400965 0.03678547 0.025186084 0.021134537 0.03234814 0.02240527
0.023364305 -0.018491812 -0.020190613 -0.026405977 0.019130254 0.034456078 -0.01666297 -0.0325798
0.02825398 -0.03870783 -0.034729876 0.042756 0.005606274 0.016265947 0.013489971 -0.039069828
0.047088265 0.019542508 -0.018113514 0.042757258 -0.040585037 0.035351448 0.012780708 -0.043573067

base.critic.0.weight f4 [64, 310]
00000000: 655a 0c3d b42d 62bd 6e2d f2bc 2549 3e3e
00000010: d125 c23c 267b 2fbd 1ee3 cabc a67e 003d
00000020: 0bda bbbd 3bef 54bd ec6d 00bd 6660 143d
00000030: 9421 cc3d 83ed 0b3c 388a acbd 4584 55bd
00000040: ca54 06be 895c a4bd 6f59 08bd e680 b93c
00000050: fde8 c0bc 3215 04be 4c81 523c f9dc 583e
00000060: df7d b5bc 7a84 d53c b1e3 54bd f0df a53c
00000070: 74db e8bd e4a7 2ebd f749 72be 76f0 073d
00000080: 3250 11bd 16f7 b1bd 78d6 8f3d e638 87bc
00000090: 36ca 173d 1dc4 58bd eca0 113e 9fe9 2fbd
000000a0: 76ce c13d 92c5 b83c 6fcb 7dbc c842 31be
000000b0: a52c febd 5019 053c db7e f33d b427 ba3d
000000c0: 95ee 903c 2f7c 2e3e e16f 98bc fb79 00bd
000000d0: dec0 9c3d 9674 613d 9a85 58bc 89b9 983d
000000e0: a1a3 71bd f79b 823d 252b 9cbc 797d cebc
000000f0: 02c2 f43c d0af 06be 394f 04bd 556c 56bd
00000100: 1358 003e 211a c3bc 7a7b 023d 77a6 e0bd
00000110: afa6 8d3c 1cf7 c1bb 802a 9abd 45e7 2e3e
00000120: bb20 91bd 315d e4bd 8268 d93d 38d1 be3d
00000130: 8389 893d 1472 65bd 3659 3a3c add2 1abc
00000140: a5da 1f3e 4317 5e3d 76f9 79bd 3313 81bd
00000150: 9f8b b73d 370a 08bd d540 1abd 4860 033d
00000160: 4e1e 83bd a853 82bd 109c 4d3d 32c6 c03c
00000170: 7312 aebd 8783 e3bc 7a3a d03d 27ce d53c
00000180: 9362 36bd bcb4 a53c 0bbe c4bc 6b30 bd3d
00000190: 4224 093e 0c80 7a3d 9183 273d f885 e1bd
000001a0: 4bc9 a3bd 8149 0ebd db4d 9a3d 3bdb af3d
000001b0: 7cc5 213e 1034 a53c e0ef 3dbd eff0 bf3d
000001c0: 0e15 573c 9677 e9bc f070 bbbc 4665 533d
000001d0: 579b 99bc 095a 1a3e 8c31 edbc df19 103d
000001e0: 4a43 adbc 2ba0 13bd c1a6 febd 9de3 783d
000001f0: f655 bebc e144 f7bd f436 13b9 ef5c 0e3e
00000200: 9c1d f1bb 0b0e 3a3e 7a81 fe3c 8dc8 16be
00000210: 3766 4fbd 13d6 0b3d cf9a 573c 92a6 d1bd
00000220: 27e5 773e 40ea a23a ea1d 0abd b40d f93b
00000230: 638a 263e f875 d23d 77f0 db3d aac6 2c3d
00000240: f69e a4bc 66a3 0abe 6c61 37bd dce9 da3b
00000250: 3284 e03d fb58 93bb 8530 a8bd 51de 6cbd
00000260: 2eef d0bd 1c9e f1bd f53c 57bc bc8a 70bc
00000270: cf3a 5a3d 8c0d 4d3d ac82 f8bd 56a8 aa3b
00000280: c711 793d 1b89 ab3c 152f c03d 2aac 78bc
00000290: 4463 ccbb 2489 3e3d 970e 373e 19c3 413e
000002a0: b7bb a6bc 09ec 1e3c 1b0c 6b3d 9b8b d6bd
000002b0: ca91 a93d 4f77 d2bc 5a47 8ebc 42f6 a5bc
000002c0: e6c0 343d 8977 e9bc e7ff 0ebd a2f7 313d
000002d0: ca76 d1bd 79cf 32bd f426 10b9 6dc9 94bd
000002e0: 7411 8e3d bce0 853c 814a e73d ce82 7dbd
000002f0: d33c e43d f63e b4bb 464c 643d ab47 2cbc
00000300: 702b 3b3d e4cd 2a3d aa42 bc3b d920 27bd
00000310: cd55 423d fc64 7c3d 0e27 b4bd 7f9f a03d
00000320: 5e7d 483e 4840 003e 510d 9fbd 6446 e5bd
00000330: d6c6 833d cab0 b2bc 5a3e c93d dea0 a4bd
00000340: ce90 fcbb 2f1d d63d eda0 083e 4f16 4e3d
00000350: 6818 913d 9970 443d 4ffe 94bd 47f8 9cbc
00000360: 1f98 9f3d 853e d6bc 137f 0e3d c46e 9d3c
00000370: cc89 4e3d 07d8 003d 0196 c8bd 1e12 2ebd
00000380: b5d7 523d 2f85 ed3c bebf b63d 2565 e6bc
00000390: c21d c33d 9c0c 70bc 17dd 9e3d b1cb a73d
000003a0: c349 3b3c f05c 52bd c9db 9ebd df12 c63d
000003b0: 989d 083d b998 2c3e d5e4 b83d 19fa c1bc
000003c0: e1a3 86bd 30eb 583c b3f0 10bd 83e8 5c3d
000003d0: 30b6 aa3d a5be 983d 9f97 2e3e dfc2 d83d
000003e0: 4b95 c6bd 6cdc d73d 3fee b43d 902d 103e
000003f0: e504 e43d 14e9 97bd ad55 de3c 4a98 0e3e
0.034265894 -0.055219367 -0.029562678 0.1858259 0.023699673 -0.042842053 -0.024766501 0.03137078
-0.09172448 -0.05198596 -0.03135483 0.036224745 0.09967342 0.008540514 -0.08424801 -0.052128095
-0.13118282 -0.08025462 -0.033288416 0.022644471 -0.023548597 -0.1289871 0.01284821 0.21178044
-0.022154747 0.026064146 -0.051974956 0.020248383 -0.11369982 -0.04264058 -0.23661028 0.033188306
-0.03547687 -0.08689706 0.070233285 -0.016506623 0.037058078 -0.052921403 0.14221543 -0.042947408
0.094632074 0.022555146 -0.015490397 -0.17310631 -0.12410859 0.008123711 0.1188943 0.09089604
0.01769189 0.1703956 -0.018608036 -0.03136633 0.07653974 0.055042826 -0.013215447 0.07457263
-0.05899394 0.06377404 -0.019063542 -0.025206314 0.029877666 -0.13153005 -0.032302115 -0.052349407
0.12533598 -0.02381617 0.031856038 -0.10969251 0.017291395 -0.0059193503 -0.075276375 0.1708041
-0.07086321 -0.11150587 0.106156364 0.09317249 0.067156814 -0.056016997 0.011373809 -0.009449643
0.1561075 0.054221403 -0.06102892 -0.0630249 0.089621775 -0.033212867 -0.037659485 0.032074243
-0.064022645 -0.063636124 0.05019766 0.023532007 -0.08499613 -0.027772678 0.101674035 0.026099278
-0.0445276 0.020227782 -0.0240164 0.092377506 0.13392738 0.06115727 0.040896956 -0.11011881
-0.07997378 -0.034738068 0.07534381 0.08586737 0.1579799 0.020166427 -0.04637134 0.09372126
0.013127578 -0.028499406 -0.022881001 0.051610254 -0.01875083 0.15073408 -0.02895429 0.035180923
-0.02115025 -0.03604142 -0.124341495 0.060763944 -0.023234349 -0.120736845 -0.00014039484 0.13902639
-0.007358266 0.1816942 0.031067599 -0.14724942 -0.05063459 0.034139704 0.013159468 -0.10236849
0.24208508 0.0012429431 -0.033719935 0.0076005105 0.16263728 0.10276407 0.107392244 0.04218165
-0.02009533 -0.13538894 -0.044770643 0.0066807102 0.10962714 -0.0044966913 -0.08212379 -0.057829205
-0.1020187 -0.11797735 -0.013137092 -0.014681514 0.05327874 0.050061747 -0.12134299 0.0052080555
0.06080797 0.0209394 0.0938398 -0.015177766 -0.0062374193 0.046517506 0.1787666 0.1892208
-0.020353181 0.00969983 0.05738459 -0.104758464 0.0827976 -0.025691656 -0.017368007 -0.020259026
0.044129275 -0.028499382 -0.034912016 0.04344905 -0.10227735 -0.043654893 -0.00013747421 -0.072649814
0.06936923 0.016342513 0.11293507 -0.061892323 0.11144414 -0.0055006696 0.055736803 -0.010515134
0.045695722 0.04170026 0.0057452517 -0.04080281 0.047445107 0.061619744 -0.087965116 0.078429215
0.19579074 0.12524521 -0.07766212 -0.111950666 0.06434409 -0.021812815 0.09826346 -0.080384955
-0.0077076918 0.10454785 0.13342638 0.050314244 0.07084733 0.047958944 -0.07275068 -0.019161357
0.07792687 -0.026152859 0.034789156 0.019217856 0.050424382 0.03145602 -0.09794236 -0.042497747
0.051475246 0.028994171 0.08923291 -0.028124401 0.0952716 -0.014651444 0.07757013 0.08193148
0.01143116 -0.051358163 -0.077567644 0.09671568 0.033353418 0.16855134 0.09028021 -0.023678826
-0.06574226 0.013239667 -0.0353858 0.053932678 0.08335531 0.074582376 0.17050026 0.10584044
-0.09696444 0.10540089 0.08834504 0.1407988 0.11133746 -0.07417503 0.027140463 0.13925281

base.critic.0.bias f4 [64]
00000000: 0000 0000 0000 0000 0000 0000 0000 0000
00000010: 0000 0000 0000 0000 0000 0000 0000 0000
00000020: 0000 0000 0000 0000 0000 0000 0000 0000
00000030: 0000 0000 0000 0000 0000 0000 0000 0000
00000040: 0000 0000 0000 0000 0000 0000 0000 0000
00000050: 0000 0000 0000 0000 0000 0000 0000 0000
00000060: 0000 0000 0000 0000 0000 0000 0000 0000
00000070: 5a23 1ab9 0000 0000 0000 0000 0000 0000
00000080: 0000 0000 0000 0000 0000 0000 0000 0000
00000090: 0000 0000 0000 0000 0000 0000 0000 0000
000000a0: 0000 0000 0000 0000 0000 0000 0000 0000
000000b0: 0000 0000 0000 0000 0000 0000 0000 0000
000000c0: 0000 0000 0000 0000 0000 0000 0000 0000
000000d0: 0000 0000 0000 0000 0000 0000 0000 0000
000000e0: 0000 0000 0000 0000 0000 0000 0000 0000
000000f0: 0000 0000 0000 0000 0000 0000 0000 0000
0.0 0.0 0.0 0.0 0.0 0.0 0.0 0.0
0.0 0.0 0.0 0.0 0.0 0.0 0.0 0.0
0.0 0.0 0.0 0.0 0.0 0.0 0.0 0.0
0.0 0.0 0.0 0.0 -0.00014699754 0.0 0.0 0.0
0.0 0.0 0.0 0.0 0.0 0.0 0.0 0.0
0.0 0.0 0.0 0.0 0.0 0.0 0.0 0.0
0.0 0.0 0.0 0.0 0.0 0.0 0.0 0.0
0.0 0.0 0.0 0.0 0.0 0.0 0.0 0.0

base.critic.2.weight f4 [64, 64]
00000000: fb58 9b3c 783b ac3b 09c2 423e e822 22be
00000010: 38f0 13be 4f89 823e cc55 d43d 8ed7 933d
00000020: 2171 113e 5319 bcbd 6bba d3be 61ad 64be
00000030: e849 ac3e d923 e53e 1b16 81bc 56e9 01be
00000040: bcb9 cb3d aa2a debd 3736 7c3d 347a 5c3e
00000050: a37c 4a3e 17ad 413c a395 a1be 3a95 d83d
00000060: cbe4 76bd e667 243e bf16 ffbd d63e 1abe
00000070: 8bc4 90be d704 57bd 4f28 e8ba 850d 7fbc
00000080: 2bae bbbd 153d 543c fcd2 b3bd 118a e1ba
00000090: 1cb9 b0be 8ff5 5abe 1797 073d 11fa 96be
000000a0: f761 ad3e f6b3 e3bc 15fb b43d 3e33 a23d
000000b0: c3bc 973d 2457 2d3e fbed 323c 5604 ad3d
000000c0: f6d8 8b3e 0e9b 983d f4e8 90bc 4398 103d
000000d0: d146 823e db89 153e e955 6ebe 81b9 85be
000000e0: 5ab9 843e 7dee 473d fc15 fabd c908 dabd
000000f0: fb6e 84be 8d0e 51bd ad95 3dbd 16f7 c23d
00000100: 57c7 afbd 3a38 adbe e78e 11be 733a 48be
00000110: f3a8 0d3d 6c05 68be 9b6e 89bd f16e 333e
00000120: 7a49 b63d f1e1 543e c13a 31bd af5a 91bd
00000130: 0dce 84be 738b 63be 3865 1cbd 5869 20be
00000140: 7409 dc3d ba15 80bd 58a4 3e3d 00b9 2e3e
00000150: 5836 933d 070b 033e aa45 0b3e 0212 38be
00000160: 6732 f93d d78b 4d3d 4a4d 36bd f907 07bc
00000170: adc5 6a3e 733d c9bd 879c 813e 5820 743e
00000180: 018d 953e 4bee e03d e9ca 97bd 574e 41bc
00000190: 98c8 96be 7c0a febc e586 903d 869a f4bd
000001a0: 0316 8abd 5195 723e 780b 4a3e b8a2 39be
000001b0: a655 8d3e d9ff bdbc 46a0 093e c32b e8bd
000001c0: 94ab ac3d 0f7e 2ebe 0003 073e 94cb 2a3e
000001d0: a64f 823e 20d7 cdbe 0923 ebbd 79c5 e1bd
000001e0: 9d5d 993d f620 56be 65fa f53d 613c 36be
000001f0: 8cb2 97be fa62 55be e835 5ebd f774 e6be
00000200: fc2d 143e 1f01 333e cac8 dcbd 11ae 223e
00000210: 2eec 523e 7574 333e fad8 ae3d 60e2 013e
00000220: f9c1 043e 706d eb3c eeab af3c d653 1b3a
00000230: 05ef 863d 9885 a4be 3239 bd3e ec41 89be
00000240: d28d bc3d 3bdd cd3d e950 49be ffab fd3e
00000250: 932f 19bd c55a 0ebd a529 6b3e ff87 173c
00000260: 1c3b b6be ea26 98bc 5f80 83be ec08 9ebe
00000270: f17b 983d 80e4 06be fe9d 423e 89ca 9e3d
00000280: 25fd 2abe a708 473e cf6f f0bd b3b7 923e
00000290: 234d 9e3e 9339 7bbc 841a 98bd 20d4 babc
000002a0: c340 f7bd be33 733c 3d0a 733d 0cb1 723e
000002b0: c8d9 49be 909e e7bd 7388 3b3d fbd9 5d3d
000002c0: bccf ebbd 9540 43be 5f1c 193e 65af 723d
000002d0: 433e 7f3d 87ef 083d d927 c2be af2f f83a
000002e0: 609c 783e ee24 8ebd f121 71be 2832 d6bb
000002f0: cddc 643e a906 233d 91b1 2e3e ac53 be3c
00000300: b74e 713e e3c3 a13c 9221 50be 9c22 b23e
00000310: 56b6 07bd 5f81 8e3a 22fa 5ebe 00a3 f0bd
00000320: 3347 09bc ff81 8bbc b1ae 58be c4b0 abbd
00000330: 28cc 88be 2745 5dbe 40ce 17be dc85 a7be
00000340: 824a fc3d d9e9 f63d 408c 60be ef29 973d
00000350: f9ab 29be f356 98ba 38a2 6dbe 82c1 4bbd
00000360: 4bf8 ca3d 750c af3d e47b 423e d1e4 70bd
00000370: 6ae8 71bd 402a 753c 23a6 013e 7557 82bd
00000380: 17b9 9abe 21ce f93d 87de 943c 367c d3bd
00000390: df1f 02be cb6d f3be a8d5 813e 8595 c93d
000003a0: cfde 42be b456 6fbe 70c9 923e bb4f 28bd
000003b0: dd45 1e3e dd02 1e3c 675a 233d e5f9 9f3c
000003c0: 4692 b53d 61d8 5fbe e9e9 eabe b737 14be
000003d0: 6045 aabe 37e9 94bd fae3 1d3e ad2a eebc
000003e0: a948 673d d900 b7bd a24f 073c da08 60bd
000003f0: 4bb8 2fbe 844a 033e c054 2e3e dc9e 583e
0.018963328 0.0052561127 0.19019331 -0.15833628 -0.14447105 0.25495383 0.10367927 0.07218848
0.14203312 -0.09184518 -0.41353163 -0.22331764 0.33650136 0.44753912 -0.015757611 -0.12686667
0.099475354 -0.10847981 0.06157514 0.21530992 0.19774108 0.011821053 -0.31559476 0.10575338
-0.060276788 0.16055259 -0.1245551 -0.15063033 -0.2827495 -0.05249485 -0.0017712208 -0.015567188
-0.09164079 0.012954016 -0.087804765 -0.0017207285 -0.34516227 -0.21382736 0.033103075 -0.2948766
0.33863804 -0.027795773 0.088369526 0.0791993 0.0740905 0.16927773 0.010920997 0.08448093
0.27313966 0.07451449 -0.017689206 0.035301458 0.25444654 0.14603369 -0.2327496 -0.2611809
0.25922662 0.048811425 -0.122112244 -0.10646207 -0.2586592 -0.051039267 -0.04628532 0.09519784
-0.08582943 -0.3383196 -0.14214669 -0.19553547 0.03458495 -0.22658318 -0.067105494 0.1752279
0.08900733 0.20789315 -0.043268923 -0.07097375 -0.25938454 -0.22221164 -0.038182467 -0.15665185
0.107439905 -0.06254144 0.04654345 0.1706276 0.071880996 0.12797175 0.13600793 -0.1797562
0.121678166 0.05018219 -0.044507302 -0.008241647 0.2292697 -0.09826174 0.25314733 0.23840463
0.2920914 0.10982951 -0.07411749 -0.011798463 -0.29449916 -0.031010859 0.07056979 -0.119435355
-0.0674248 0.23689772 0.19730937 -0.18128479 0.27604407 -0.023193287 0.13440046 -0.11336472
0.084311634 -0.17040275 0.13184738 0.16679221 0.25451392 -0.4020319 -0.11481292 -0.11023993
0.074885584 -0.20911011 0.120106496 -0.1779647 -0.29628408 -0.20838538 -0.054250628 -0.45011112
0.14470667 0.17480896 -0.10780485 0.15886714 0.20597908 0.17524894 0.08537479 0.12684011
0.1296462 0.028738707 0.021444287 0.0005925273 0.06588558 -0.32133174 0.369577 -0.26808107
0.092067376 0.10051962 -0.19659771 0.49545285 -0.037398886 -0.034754533 0.22965105 0.009248733
-0.35591972 -0.018573243 -0.25683877 -0.30866182 0.07445515 -0.13173103 0.19005582 0.07753474
-0.1669813 0.19436894 -0.11740076 0.28655776 0.30918226 -0.015333551 -0.074269325 -0.022806227
-0.12072899 0.014843879 0.059335936 0.2370035 -0.19711983 -0.1130954 0.045784425 0.05416296
-0.115142316 -0.19067605 0.14952229 0.0592493 0.062315237 0.033431556 -0.37921026 0.0018935109
0.24278402 -0.069406375 -0.23548104 -0.006536741 0.22349854 0.039801273 0.17059924 0.023233257
0.23565184 0.019746726 -0.20325306 0.3479203 -0.033132873 0.0010872296 -0.21775106 -0.1174984
-0.008378792 -0.01702976 -0.2116039 -0.08383325 -0.2671826 -0.21608411 -0.14824772 -0.32719314
0.12318899 0.12056322 -0.21928501 0.07381045 -0.16569509 -0.0011622593 -0.23206413 -0.04974509
0.099106394 0.08547298 0.18992573 -0.058811966 -0.059059538 0.0149636865 0.12661032 -0.06364337
-0.30219337 0.12197519 0.018172516 -0.10326426 -0.1270747 -0.47544703 0.2535832 0.09842972
-0.19030307 -0.23372918 0.2866931 -0.041091662 0.15456338 0.009644237 0.039881136 0.019528339
0.0886579 -0.21859886 -0.45881584 -0.14474379 -0.33256054 -0.07271045 0.15418997 -0.029073084
0.05646578 -0.089357086 0.008258732 -0.05469594 -0.17160146 0.12821394 0.17024517 0.2115435

base.critic.2.bias f4 [64]
00000000: 9542 e13b 5cdc e23b e8c9 24bc bfcd fcbb
00000010: b6b2 05bc 2b90 e5bb 0d51 ec3b e3d2 023c
00000020: b2bc 49bc b361 293c 90e2 c1bb 491b 173c
00000030: 6592 073c b2a7 febb 3e62 273b a406 113c
00000040: c52e 0bbc 517b 18bb 6012 0d3c 7332 acbb
00000050: 1729 0a3c 338a 913b 4258 5dbc 14dd 26bb
00000060: ec9f 10bc 7f51 04bc 803f ddbb 1119 143c
00000070: 863b e1bb 6825 3ebc 0856 ba3b db7f 063c
00000080: 7b76 cfba fa37 12bc c4f4 3dbc 2ae2 3fbc
00000090: 8a09 41bc 738a 033c b498 f13b 90a3 473a
000000a0: 0dee 3bbc d688 45bc 4fd6 61bb 0e94 69bc
000000b0: 08aa 5b3b 13ac 5dbb 157f 07bc e928 f93b
000000c0: a7a0 1f3c 75f6 fcba 559c d73a 3010 eabb
000000d0: 00ce 163c cf73 d5ba cf52 30bc aa10 a3bc
000000e0: 3a99 f7bb f933 f4bb 2b15 913b c393 0c3c
000000f0: 1001 5a3c 378b 08bc eb1e 753b 358a fabb
0.0068743923 0.0069232415 -0.010057904 -0.0077149565 -0.008160284 -0.0070057116 0.0072118104 0.00798485
-0.012313055 0.010338235 -0.005916901 0.009222814 0.008274649 -0.0077714557 0.0025540735 0.008851681
-0.008495037 -0.0023266862 0.008610338 -0.0052550375 0.008432648 0.0044415235 -0.013509812 -0.0025461363
-0.008827191 -0.008076071 -0.0067519546 0.009039179 -0.006873551 -0.011605598 0.0056865253 0.008209194
-0.0015828157 -0.008924479 -0.011594001 -0.011711637 -0.011782059 0.008028614 0.00737294 0.000761562
-0.01147033 -0.01205655 -0.0034460013 -0.01425649 0.0033518095 -0.0033824488 -0.008270045 0.007603754
0.009742892 -0.0019299524 0.0016449789 -0.007143043 0.009204388 -0.0016285124 -0.010761931 -0.019905407
-0.007556108 -0.0074524847 0.0044275722 0.008580151 0.013305917 -0.008333973 0.0037402462 -0.00764587

base.critic_linear.weight f4 [1, 64]
00000000: d556 b2bd 01b0 c735 93e0 253e 28b7 bebd
00000010: 7dac 3bbe ae21 a43c 8466 923a 14bd 3f3e
00000020: 64d3 2d3e 844e 99bd be5b 953c adf6 a4bd
00000030: aa0a 933e 4d1a ddbd dddd a83e 1ec7 49bd
00000040: 3444 363e 83ab 17bd 2ff0 bb3e 7552 523d
00000050: 380b 443e e5fe b2bd 77b0 823e 1827 973c
00000060: 8675 493e f3cb 1c3e 76f3 863d 6e23 923e
00000070: 7773 933c c46f 063e dbdb 4a3e 892c 883e
00000080: c528 8e3c 8535 a6be d4ed 183e adaa c03d
00000090: 924a 453e c492 bf3d 66b5 a4be c2c4 7c3e
000000a0: 77fe 363d 14b1 9b3d fff5 8e3c 35db 853e
000000b0: 91ce ae3c 5c78 233c 65e9 23be ffc3 1e3e
000000c0: 7a20 0fbe 30fb 8c3d e71a 3eb4 b1e4 93bd
000000d0: 3284 dabe e416 df3b 2d81 683d 28b4 d739
000000e0: f1df f1bd a354 2d3e dba1 0dbd ac75 5cbe
000000f0: bd6d a0be 1c5d 033c 7e48 1dbd cbc0 84be
-0.08707968 1.4877879e-06 0.1619895 -0.09312278 -0.18327518 0.020035591 0.0011169468 0.18724471
0.1697517 -0.07485679 0.018232223 -0.08054862 0.28719074 -0.10796032 0.32981768 -0.04926216
0.17799455 -0.0370288 0.36706683 0.05134817 0.19144905 -0.087400235 0.25525257 0.018451259
0.19673738 0.15312175 0.06589405 0.28542656 0.017999394 0.13128573 0.1981043 0.26596478
0.017353425 -0.32462707 0.14934474 0.09407554 0.19266728 0.09354165 -0.32169646 0.24684432
0.04467627 0.07602134 0.017451284 0.26143804 0.021338733 0.009977426 -0.16007002 0.15504454
-0.13977233 0.06883848 -1.7704916e-07 -0.07221354 -0.42678982 0.0068081487 0.056763817 0.00041142222
-0.118102916 0.16926818 -0.034578186 -0.21529263 -0.31333724 0.0080178045 -0.038399212 -0.2592834

dist.dst_type_linears.0.weight f4 [2, 64]
00000000: 541f 853d e3cd 48bd b34d 5fbd af39 613d
00000010: 4af6 4dbd f0a0 853d dd71 f7bc 2c74 3cbd
00000020: d8a9 4e3d b7e1 4c3d 61a5 213d 8a99 483d
00000030: df61 333d cbf6 173d 0363 c83c 2181 a2bc
00000040: 75cc 293d a056 47bd d1f8 49bd 05e5 423d
00000050: fa74 383d f408 463d b761 253d b6c0 5b3d
00000060: 0e9f 593d ac94 1d3d 4b65 46bd 11bd 713d
00000070: 36ff 463d af88 59bd ec7d 1d3d eb0d 493d
00000080: 64c4 2c3d 6570 5ebd 50ad 70bd ca82 02bd
00000090: 879d 2dbd 6aaf 2ebd f4d8 1cbd ff51 1ebd
000000a0: 1692 2dbd 0563 533d ef96 493d 8caa 433d
000000b0: e7fd 48bd 1d99 22bd 15e6 4a3d 5367 263d
000000c0: a932 24bd 3e8d e43c fd04 293d 0699 3ebd
000000d0: 12b8 49bd 39b7 48bd 28f2 4dbd 2aa8 583d
000000e0: b7b7 8fbd cd7b 54bd 41c2 4d3d aa71 41bd
000000f0: 9764 4d3d fccd 32bd cae3 49bd 2d74 783d
00000100: 2c6f 89bd 1f8d 423d eb3d 553d a45c 59bd
00000110: 5382 3c3d 3d84 86bd 2b70 ef3c 9c21 463d
00000120: 1cc8 46bd b73a 4bbd feed 24bd 1cc8 4bbd
00000130: 5cbf 2bbd e408 0ebd c0c0 b9bc 7f15 9c3c
00000140: faff 22bd 8e13 4c3d 5636 573d 85de 41bd
00000150: 2146 37bd e36d 3ebd ed49 22bd 0739 59bd
00000160: 9ce5 5ebd 2300 22bd 7ca2 403d 2cd9 73bd
00000170: 38b9 46bd 3da0 563d da9c 25bd 6243 42bd
00000180: e7ea 2dbd e404 663d 4bf2 723d e0c3 023d
00000190: da13 2d3d 0556 283d 7b6f 303d 62b8 273d
000001a0: b6c0 303d d927 52bd 602f 51bd 7db9 3fbd
000001b0: bd96 413d 8e65 223d b436 4cbd 8b2c 26bd
000001c0: f3ba 223d d777 d4bc 4d73 29bd e40a 423d
000001d0: 360b 433d afe0 4b3d 77bc 463d eb71 48bd
000001e0: e8ba 943d 9609 5e3d 67a9 52bd 20d8 3e3d
000001f0: 11d2 3cbd b8d6 2e3d 0555 433d d864 81bd
0.06500116 -0.049024474 -0.05451746 0.054986652 -0.050283708 0.06524837 -0.030205661 -0.046009228
0.050454944 0.050019946 0.03946436 0.04897455 0.04379451 0.037100594 0.024461275 -0.019836964
0.04145475 -0.048666596 -0.049309555 0.04758169 0.045033433 0.048348382 0.04037639 0.05365058
0.053130202 0.038471863 -0.048436444 0.0590182 0.048583232 -0.053108867 0.038450167 0.04908554
0.04217948 -0.054306407 -0.058759034 -0.03186301 -0.042386558 -0.042647757 -0.03829284 -0.038652416
-0.042375647 0.051608104 0.049216207 0.047770068 -0.049070265 -0.0396968 0.04953583 0.04062588
-0.040087376 0.02789938 0.041264523 -0.046532653 -0.04924781 -0.04900286 -0.050279766 0.05289475
-0.07017463 -0.051875878 0.050234083 -0.04722754 0.050144758 -0.043653473 -0.049289502 0.06065767
-0.067106575 0.047497865 0.052061003 -0.053066865 0.046022724 -0.06568191 0.02922829 0.048371896
-0.048530683 -0.04961654 -0.04026603 -0.049751386 -0.04193054 -0.034676448 -0.022674918 0.019053219
-0.0397949 0.049823336 0.052542053 -0.04733135 -0.044744615 -0.046491515 -0.039621282 -0.0530329
-0.05441819 -0.03955091 0.047029957 -0.059533283 -0.048516482 0.05239891 -0.04043279 -0.047427543
-0.04246035 0.056157008 0.0593131 0.031925082 0.04225526 0.04109766 0.043075066 0.040947326
0.043152533 -0.051307533 -0.05107057 -0.046807755 0.047262896 0.03964763 -0.049856856 -0.040569823
0.03972907 -0.02593605 -0.041369725 0.047373667 0.047618113 0.04977482 0.048519578 -0.048936766
0.07262212 0.05420836 -0.051431086 0.04659283 -0.046098772 0.04268524 0.047688503 -0.063180625

dist.dst_type_linears.0.bias f4 [2]
00000000: f9e4 42bd f9e4 423d
-0.047581647 0.047581647

dist.dst_type_linears.1.weight f4 [2, 64]
00000000: 0463 04bd e9bb 553d fe8c 5e3d d74a 4dbd
00000010: f45e 643d a407 c2bc 9f08 a73b 7561 5b3d
00000020: 1d31 65bd 8d9c 62bd 7fb8 e1bc 62ae 5abd
00000030: 94d6 0cbd 09e4 bfbc ba5f debc e1e5 b23c
00000040: 5ca4 2abd a7bd 5e3d be6a 5f3d f7ae 5bbd
00000050: 073d d0bc c645 55bd c2fd f1bc efdd 41bd
00000060: 9ab7 51bd 3567 e5bc 8c4c 5c3d deb8 6fbb
00000070: 9854 4dbd 753d 533d 7f3f 00bd 2f56 5cbd
00000080: a650 e5bc a17e 4f3d aa43 de3a 328e 583b
00000090: 9a1b d33c f863 cc3c 3dac f13c 2f0c e03c
000000a0: 9a78 c63c 06b1 5abd b957 61bd d5e7 d6bc
000000b0: 1b79 5c3d 653a bebb 31e9 5dbd 54d7 32bd
000000c0: 8683 043d f213 c7bb a99e 48bd abeb e1bb
000000d0: 6c92 663d 5d44 5c3d 83ef 623d fc26 6fbd
000000e0: 3d87 253c 8d6b 603d 9d10 59bd dda8 523d
000000f0: a816 17bd d329 3e3d 99c7 563d 08d8 b1bb
00000100: 2a9e fa3c 5c8b 5ebd a6c5 58bd 67cd 423d
00000110: 30ac 63bd bb71 d93c ab59 ffbb 1415 5bbd
00000120: 87e8 623d f05e 633d b216 ef3c 0a95 623d
00000130: ce14 013d f091 ae3c 0e35 dc3c 7294 a8bc
00000140: d704 2b3d ef74 60bd 1fe0 61bd 7078 593d
00000150: 780b cc3c c6cf 573d 3a7b e83c d35e 3a3d
00000160: daf7 563d 13f9 f53c 01f6 5dbd 51c4 943b
00000170: e5af 603d f185 4bbd efd1 fe3c 758e 5b3d
00000180: 2cdc e83c d73c 57bd af7e 79ba a73a 7cba
00000190: 9722 e5bc 85a5 d7bc 53ed febc c391 ddbc
000001a0: fec8 bebc 2320 613d 1940 5f3d c004 b83c
000001b0: 4832 61bd 287d d83b 29d6 673d 5127 2e3d
000001c0: cc2c 00bd 3bdf a53b 3afe 423d 0cfe ae3b
000001d0: 1b17 64bd 08f6 5bbd d7c3 4ebd 029b 713d
000001e0: 2876 38bc 3ce2 64bd 0257 5b3d 7ab1 57bd
000001f0: 74f8 0b3d 8a3b 49bd 9a12 63bd 9f4a 763b
-0.03232099 0.05218116 0.05433368 -0.0501202 0.055754617 -0.023685284 0.0050974633 0.05355974
-0.05595504 -0.05532508 -0.027553795 -0.05338896 -0.034384325 -0.023424165 -0.027145255 0.02183813
-0.04166065 0.054380085 0.054545157 -0.053633656 -0.025419725 -0.052068494 -0.029539946 -0.047330793
-0.051200487 -0.028003315 0.05378394 -0.0036578695 -0.050129503 0.051572282 -0.031310555 -0.05379313
-0.027992558 0.050657872 0.0016957421 0.003304374 0.025769997 0.024950013 0.029501075 0.02734956
0.02422743 -0.05339148 -0.0550153 -0.026233593 0.053826433 -0.005805301 -0.054177467 -0.043662384
0.032351993 -0.0060753757 -0.048979435 -0.006894549 0.056291983 0.053776134 0.055404197 -0.058386788
0.010103044 0.05479007 -0.05299436 0.05143057 -0.03688684 0.046426605 0.052436445 -0.0054273643
0.030592997 -0.054332122 -0.052922867 0.04755917 -0.055584133 0.026543489 -0.0077926717 -0.0534869
0.055397537 0.05551046 0.029185627 0.055317916 0.03151398 0.021309823 0.026880767 -0.020578597
0.041752663 -0.054799017 -0.05514538 0.053093374 0.024907812 0.052688383 0.028379072 0.045500588
0.052482463 0.030025994 -0.054189686 0.0045400043 0.054855246 -0.049688283 0.031105964 0.053602654
0.028425299 -0.052548256 -0.00095174735 -0.0009621777 -0.027970595 -0.026324043 -0.031119024 -0.027047044
-0.0232892 0.05496229 0.054504488 0.022463202 -0.054979593 0.0066067167 0.056600723 0.042517964
-0.03129272 0.0050620115 0.04760573 0.0053403433 -0.055686098 -0.05370143 -0.050479736 0.058985718
-0.011258639 -0.055879816 0.053549774 -0.05265949 0.03417249 -0.049129046 -0.05543766 0.0037581099

dist.dst_type_linears.1.bias f4 [2]
00000000: a94d 5c3d a74d 5cbd
0.053785 -0.053784993

dist.dst_type_linears.2.weight f4 [2, 64]
00000000: 75e5 27bd ddd9 2a3d 6b3e 0b3d 94b0 0ebd
00000010: 47bf 283d e012 0cbb 8371 da3c 682f 2b3d
00000020: ea0d 2ebd 09e8 24bd 860c 11bd 36a7 22bd
00000030: 222f fcbc 72d4 11bd 2fe7 02bd 17de cf3c
00000040: 2479 01bd 200d 313d f0b3 293d 9870 2ebd
00000050: 58be fcbc b9e8 2cbd c2db febc 9a3a f4bc
00000060: 174e 0ebd 7fa9 07bd 4e33 343d 3eca 0a3c
00000070: be98 2ebd 4a88 093d da4f dabc 0629 36bd
00000080: 5e96 f4bc 8f13 0e3d 7bf7 03bb 4a9d 893c
00000090: ba93 ff3c fdf5 083d f161 0b3d acbd e03c
000000a0: 73cb c13c 447b 21bd 57a6 34bd 9b64 eabc
000000b0: 8800 3a3d e6ca 543b 5798 26bd 980f 04bd
000000c0: dc6d 013d 454e 93bc fb9b 05bd f5e4 bd3a
000000d0: d065 343d 34f7 2c3d 31f4 283d a42b 65bd
000000e0: eeba 0cbc f1ce 173d 381d 21bd 93d6 413d
000000f0: 24cc 8abc f0d1 093d f5ff 293d 3b05 253c
00000100: b867 243d 24d0 26bd 032e 20bd 6178 093d
00000110: 5349 2cbd f747 513a f5c7 c2bc d8ed 2dbd
00000120: 8d47 263d c2e1 263d c4ff 0e3d 2270 283d
00000130: 3748 e53c f3d1 073d c762 f33c 321b c8bc
00000140: 31d6 153d d2e0 35bd 6160 20bd 95f5 2d3d
00000150: edd4 043d 2c56 3a3d 0be9 013d fa90 fa3c
00000160: 9c39 063d 8d43 0c3d dc67 37bd 2400 d9bb
00000170: cad3 323d d404 0cbd d681 d13c 4c5e 293d
00000180: f4ee e33c e392 0dbd ac4b 863b 0070 9bbc
00000190: 8af3 0abd 1b25 0ebd dae8 02bd 04fa e4bc
000001a0: 2f8c c9bc 13e0 1c3d c179 343d f53e f33c
000001b0: ace5 35bd 8fe7 8cbb 5868 293d 4ea8 073d
000001c0: 15be 02bd 9ec2 a53c 503d ff3c c925 37ba
000001d0: b8ff 38bd 6b7c 32bd e9b8 29bd 2967 623d
000001e0: fe45 333c 2cfe 13bd f45f 183d 08d4 44bd
000001f0: f698 793c e13c 0abd cece 33bd 458d 37bc
-0.04099031 0.041711677 0.033995073 -0.034836367 0.04119804 -0.0021373555 0.026665455 0.041793257
-0.04249374 -0.04026035 -0.035412334 -0.039710246 -0.030784193 -0.035602994 -0.031958755 0.025374455
-0.03160967 0.043225408 0.041431367 -0.042587847 -0.030852482 -0.04221413 -0.031110648 -0.0298131
-0.03474244 -0.03312063 0.04399424 0.00847107 -0.042626135 0.03357724 -0.026649404 -0.044472717
-0.029856857 0.03468662 -0.0020136524 0.016798634 0.031198371 0.033437718 0.03402895 0.027434193
0.023656582 -0.039424196 -0.044103947 -0.028612426 0.045410663 0.003246957 -0.040672626 -0.032241434
0.03159891 -0.017981658 -0.032619458 0.001448779 0.04404241 0.04222794 0.041248504 -0.055949822
-0.008589489 0.03706259 -0.039334506 0.047323775 -0.016943045 0.033647478 0.041503865 0.010072048
0.040137976 -0.040725842 -0.03910638 0.033562068 -0.042062115 0.0007983441 -0.023776988 -0.042463154
0.04059558 0.040742643 0.034911886 0.041122563 0.027988536 0.033159208 0.029710187 -0.02442703
0.036581222 -0.04440386 -0.039154414 0.042470533 0.032429624 0.045492336 0.031716388 0.030586708
0.032769784 0.03424411 -0.044776782 -0.006622331 0.04365901 -0.034184292 0.025574606 0.041349694
0.027823903 -0.03456391 0.0040983763 -0.018974304 -0.033923663 -0.034703355 -0.031960346 -0.027951248
-0.024602978 0.03829963 0.044061426 0.029693106 -0.044408485 -0.004300065 0.041359276 0.033119492
-0.031919558 0.020234402 0.031157166 -0.00069865264 -0.045165747 -0.043575685 -0.04143611 0.055274162
0.01094198 -0.03613107 0.037200883 -0.04805377 0.015234223 -0.033749465 -0.043898396 -0.011203115

dist.dst_type_linears.2.bias f4 [2]
00000000: cf9e 323d d39e 32bd
0.043608483 -0.043608498

dist.dst_type_linears.3.weight f4 [2, 64]
00000000: b4c1 583d 24d0 f5bc 829e 11bd 454e 263d
00000010: 1111 e5bc ba5a 213d 8b82 24bd 274e d9bc
00000020: 35f4 e93c e7ec f23c dae3 773d f615 f83c
00000030: 71ee 743d 049a 6c3d 630c 403d ac33 02bd
00000040: df98 793d e4d2 d9bc 670a e0bc 8ff9 d33c
00000050: e99e 693d b4a6 cd3c ef06 743d 6907 233d
00000060: 3574 133d 9ad1 723d f6d5 d4bc 9c05 063d
00000070: 8995 d23c d966 f5bc c791 3f3d d9af c53c
00000080: 3b2b 673d aa11 0bbd c3d6 d7bc ad37 38bd
00000090: f24c 68bd b77d 57bd adab 77bd 531b 79bd
000000a0: f42e 4bbd b2ca 0a3d b403 e33c 50df 753d
000000b0: 5f15 ccbc 1be0 bfbc 7366 003d 12cb 7b3d
000000c0: d7d1 7ebd f335 173d 28a9 803d 62a3 e7bc
000000d0: 8e7f d2bc d3ac e1bc 4d8e e4bc 902f 0a3d
000000e0: 3465 f9bc fbcf 0abd 8be8 133d 1fa3 7abd
000000f0: ef6f 5e3d ae7a 7ebd 7428 d8bc fd11 fb3c
00000100: 931f 58bd b80f db3c 1a31 123d 87a0 25bd
00000110: d2b6 d23c a4cd 2dbd d307 303d 668c d23c
00000120: b353 f1bc 3b79 dabc 4525 78bd b9d1 e5bc
00000130: a965 71bd 59c1 77bd 622a 3dbd a5a5 f83c
00000140: b875 7fbd a775 dc3c a099 e63c 8191 e9bc
00000150: 8d31 68bd abad c3bc 79fb 76bd 802a 26bd
00000160: a339 0ebd 94fb 7dbd 60ff d43c af41 02bd
00000170: 3158 cbbc 94b4 fd3c a4a4 4bbd 7bef debc
00000180: 5aed 70bd ee51 073d d447 e43c 0289 383d
00000190: 74c0 633d 938e 633d 01c7 7b3d 3f8c 763d
000001a0: 9df0 4c3d 3fe4 03bd 052a d3bc 4708 6abd
000001b0: effb d33c 72d2 c03c bb90 efbc 51a7 80bd
000001c0: a64c 723d 45d5 21bd 8eaa 7abd 333e c93c
000001d0: aa37 d73c d311 e13c fd73 f53c 950e 0fbd
000001e0: 050b f13c 4cb4 0c3d 75cb 21bd 1eec 783d
000001f0: e429 5fbd 9149 7d3d eb47 d93c ac65 06bd
0.052919105 -0.030006476 -0.035551555 0.040601987 -0.02796224 0.039393164 -0.040163558 -0.026526524
0.02855883 0.02965398 0.06052003 0.03028391 0.059797708 0.05776407 0.046886813 -0.03178756
0.060936805 -0.026589818 -0.02734871 0.025875835 0.057036314 0.025103904 0.059576925 0.03980199
0.035999496 0.059281923 -0.02598093 0.032720193 0.02570607 -0.029956268 0.046769883 0.024131702
0.056437712 -0.033952393 -0.026347524 -0.04497497 -0.056714006 -0.052610125 -0.060466457 -0.060817074
-0.049605325 0.03388471 0.027711727 0.06002742 -0.024912534 -0.023422292 0.031347703 0.06147296
-0.062211838 0.036916684 0.06282264 -0.02827615 -0.025695588 -0.02754823 -0.027899886 0.033736765
-0.030443765 -0.033889752 0.036110442 -0.06119072 0.054305967 -0.062128715 -0.026386477 0.030648226
-0.052764487 0.026740894 0.03569136 -0.040436294 0.025721941 -0.042432442 0.04297621 0.025701713
-0.029458856 -0.026669135 -0.060582418 -0.028054105 -0.05893484 -0.060487125 -0.046182998 0.030352423
-0.062368125 0.02691157 0.028149426 -0.028511764 -0.05668788 -0.023886522 -0.060298417 -0.040567875
-0.034722935 -0.0620075 0.026000679 -0.031800922 -0.024822326 0.030969895 -0.04971756 -0.027213803
-0.058820106 0.03303712 0.027866282 0.045052536 0.05560346 0.05555589 0.06146908 0.060192343
0.050034154 -0.032200094 -0.025776872 -0.0571368 0.025876967 0.023537848 -0.029243818 -0.06281913
0.05915513 -0.03951003 -0.06119781 0.024565792 0.02627166 0.02747432 0.029962534 -0.034926016
0.0294242 0.034351632 -0.039500672 0.060772054 -0.05448331 0.061837737 0.026523551 -0.032811806

dist.dst_type_linears.3.bias f4 [2]
00000000: e30e cfbc db0e cf3c
-0.025275653 0.025275638

dist.dst_type_linears.4.weight f4 [2, 64]
00000000: 3fff 9abd 1275 343d d53e 453d 1905 42bd
00000010: 0d1a 293d 7642 72bd 16d2 913c 1280 2d3d
00000020: 0bf6 2cbd faad 2bbd 4d04 94bd d0eb 28bd
00000030: 73c5 8ebd bcb4 64bd 5774 cebc 9c9d 663c
00000040: 7cb8 8fbd e604 2b3d df89 2c3d e845 30bd
00000050: 99d5 83bd d44f 25bd 6964 90bd 9a13 3bbd
00000060: a685 3ebd f855 93bd 6ae4 293d eb14 55bd
00000070: c49c 20bd a1e3 2e3d e948 f9bc 6bdd 24bd
00000080: c2bc 84bd fbb5 383d 2808 473d 9cda 0e3d
00000090: ef02 733d 4cec 763d 70f6 913d affe 803d
000000a0: 909a 253d 3d4b 36bd c2da 27bd 39d0 87bd
000000b0: e741 223d 2689 e03c 164d 37bd a08d 8ebd
000000c0: 389a 933d e450 07bd 623e 8dbd 69c0 143d
000000d0: 03f1 1f3d 6f83 253d 0b97 2c3d 529f 61bd
000000e0: c9c1 773d e25c 413d 91ff 41bd 3c35 833d
000000f0: ac4a 59bd 4eaa 8c3d 0793 243d a655 62bd
00000100: d149 983d 578d 2abd f529 34bd 8ed9 403d
00000110: f93f 2bbd 3f37 833d e7c6 78bc 7913 2cbd
00000120: 7e02 2d3d b9e9 303d b7f1 983d f981 2c3d
00000130: cbd8 8f3d 8ada 6a3d e540 c23c cdf5 5bbc
00000140: e9cd 8c3d 41ed 18bd e6f3 2cbd d497 1e3d
00000150: b7d2 823d e75a 213d e9c8 8e3d 73c1 313d
00000160: 7da7 393d d05b 983d 567d 25bd ce51 5b3d
00000170: c45f 253d 00a1 2ebd f541 013d 74f8 263d
00000180: fb77 843d eb6a 35bd f428 45bd 368c 13bd
00000190: d38e 79bd 69fd 72bd 1f40 97bd c374 7fbd
000001a0: 3538 1abd edaa 343d b56e 2f3d 7e5e 8e3d
000001b0: f948 21bd 661f f5bc a9a0 313d e849 8e3d
000001c0: c752 8fbd 6012 043d e0e0 8f3d 301d 1abd
000001d0: 03f7 29bd 5a21 2bbd 4b9f 2fbd f5a3 5e3d
000001e0: d193 77bd 902f 3abd 3041 3e3d 1d99 83bd
000001f0: 29a2 5b3d 68f5 8dbd 9ef1 1cbd 96a9 663d
-0.075682156 0.04405696 0.048155624 -0.047368143 0.04128461 -0.059145413 0.017800372 0.042358465
-0.042226832 -0.041913964 -0.07227383 -0.041240513 -0.06971254 -0.055836424 -0.02520196 0.014075663
-0.070176095 0.04175272 0.04212367 -0.043035418 -0.06437225 -0.040359333 -0.07050402 -0.04567299
-0.046514176 -0.071941316 0.0414776 -0.052021902 -0.039212003 0.042697553 -0.030430274 -0.040250223
-0.06481315 0.045095425 0.048591763 0.03487645 0.05932897 0.060283944 0.07127082 0.06298577
0.040430605 -0.044505347 -0.040980108 -0.06631512 0.03961363 0.027409147 -0.04475125 -0.069606066
0.07207149 -0.033036128 -0.06896664 0.03631631 0.039048206 0.040408548 0.042136233 -0.05508358
0.060487542 0.04720772 -0.047362868 0.06406638 -0.05304973 0.068684205 0.04017928 -0.055257462
0.07435954 -0.0416387 -0.043985326 0.047082476 -0.041809056 0.06407022 -0.015184141 -0.042010758
0.042238705 0.043191645 0.074679784 0.04211614 0.07023772 0.05733732 0.023712585 -0.013425303
0.06875212 -0.037335638 -0.042224787 0.038719013 0.06387847 0.03939333 0.06971914 0.04339738
0.045325745 0.07439387 -0.040402733 0.053544812 0.040374532 -0.04263401 0.031557042 0.040764287
0.06468197 -0.044291418 -0.04813476 -0.036022387 -0.060927223 -0.059323702 -0.07385277 -0.062367212
-0.03765126 0.04410832 0.042830188 0.06951617 -0.039376233 -0.029922199 0.043366108 0.0694769
-0.069982104 0.032244086 0.070253134 -0.03762549 -0.041495334 -0.041779853 -0.042876523 0.05435558
-0.060443703 -0.045455515 0.046448886 -0.064256884 0.053621445 -0.06931573 -0.03831636 0.056314074

dist.dst_type_linears.4.bias f4 [2]
00000000: 28d5 233d 2bd5 23bd
0.039998204 -0.039998215
