route_dev/drl-or/model/test/agent10.pth (torch, 211205 bytes, 31 tensors)

base.actor.0.weight f4 [64, 321]
000000 8b 6d d1 3c f8 82 a2 3d 07 d2 71 3d 89 2e 37 bd
       0.02556493 0.079351366 0.05903819 -0.044722114
000010 33 2b d0 3d c4 44 24 3b 28 a5 9b 3d 16 3a 3e bb
       0.101644896 0.0025065402 0.075998604 -0.002902632
000020 2e 2b e9 bd 97 1a 81 3c 8e 74 d6 bc 28 a9 c3 3d
       -0.11385189 0.01575975 -0.026178624 0.09553748
000030 aa a8 98 3d e0 bb e0 bd 33 8b a1 3c f5 6c 4f be
       0.07454045 -0.10973334 0.019719696 -0.20256408
000040 3d 7d 7b 3d 11 4e 05 be 29 cc a5 bd f4 28 9f 3d
       0.061398733 -0.13018061 -0.08095581 0.07771483
000050 fb 41 4b bd 81 92 53 bd 32 c7 84 3d ab df 1a 3d
       -0.04962347 -0.05165339 0.06483306 0.037810963
000060 b6 9f 90 bd 04 d9 95 bc 15 c5 5b bc 71 73 cc 3d
       -0.070617124 -0.018291958 -0.013413687 0.09982956
000070 4d 4e 6f 3d b4 a8 dd 3d bd 0d 42 bc f9 9b e7 bc
       0.058424283 0.10823193 -0.011844096 -0.028272616
000080 4e 25 f7 3c 4a e8 23 3c 3f 9c 02 3d 75 6a 06 3d
       0.030169155 0.0100041125 0.03188729 0.03281637
000090 2d 5a 96 bd 48 c1 b1 bc 23 b5 f3 bb f2 67 2c bd
       -0.073414184 -0.021698609 -0.0074373647 -0.042091317
0000a0 bc 1b 69 3d e1 68 94 3d 90 09 3a bd ab 7a 8a bd
       0.056911215 0.072465666 -0.045419276 -0.06761678
0000b0 29 bd 32 3e 8e c2 ba 3d dd c0 93 3c 85 cf f2 3c
       0.17454971 0.091191396 0.0180363 0.029639969
0000c0 94 f5 e8 3d 31 64 c7 3d 81 b7 56 3d 4c 65 4b 3d
       0.11374965 0.09735907 0.052421097 0.04965715
0000d0 60 d9 b8 bb 4f 43 03 3e 80 e1 26 bd 30 8e bf 3d
       -0.0056411475 0.12818645 -0.040742397 0.09353292
0000e0 96 a5 05 3d 64 7a 38 bd 97 64 c2 bc 38 30 80 bd
       0.03262862 -0.045038596 -0.023729606 -0.06259197
0000f0 8a 28 e6 bb 3b 38 24 bd b6 ce 2a 3c 50 a5 1a 3d
       -0.0070238756 -0.040092688 0.01042526 0.03775531
000100 27 b8 3a bd 14 61 d9 3d 9c 0e fb bd d0 83 47 bd
       -0.045585778 0.10614219 -0.12258646 -0.04870969
000110 e6 2f ea 3c 93 9f a4 3d 66 6f 17 3e 36 05 ec bd
       0.028587293 0.08038249 0.14788589 -0.115244314
000120 8d 36 b1 bc 1e 2c 20 3d 3d 7e 2d 3e 61 f7 c4 bc
       -0.021632457 0.039104573 0.16942687 -0.02404374
000130 ab 74 8d 3d c7 f9 e4 bd da 5a 9a bd a4 1f 20 3e
       0.06907018 -0.11180454 -0.0753686 0.1563707
000140 3d 01 50 3c 1b c0 4a 3d 10 30 7c 3d ae 4f ea bd
       0.012695608 0.049499612 0.061569273 -0.11440979
000150 bd 8d 0c bd 93 9a 34 ba 25 8a 0e bd 99 84 5f 3c
       -0.03431486 -0.00068894884 -0.034799714 0.013642454
000160 22 00 ca bd df e4 84 bc 7c ac 06 be 35 fc 06 bd
       -0.098633066 -0.016222415 -0.13151735 -0.032955367
000170 14 fb 08 bd 4e 9a f6 bd 5c 03 f4 bd 7b 73 c9 bc
       -0.03344257 -0.1204115 -0.11914703 -0.024591198
000180 75 b4 0c be 83 12 09 bd 55 57 6e 3c d4 71 36 bd
       -0.13740714 -0.03346492 0.014547189 -0.04454215
000190 3b 76 0e 3d e9 75 d0 3b e3 d0 29 bd 8f 0a 1b bd
       0.034780722 0.0063617122 -0.041458976 -0.037851866
0001a0 ae 92 78 bd 2e e2 b9 3d 32 cf 17 bc da 58 18 be
       -0.06068676 0.090763435 -0.009265708 -0.14877644
0001b0 b8 82 ca 3c cf f6 0b be 15 9d 2b 3c 16 da 28 bd
       0.024720535 -0.13668369 0.010474463 -0.041223608
0001c0 a4 ef 96 bc d0 84 15 3d 62 aa 8a bd e6 22 91 3b
       -0.018424816 0.036503613 -0.06770779 0.004429209
0001d0 9f 52 f1 3c 5d 93 c1 bd c2 03 81 bc ac b2 0a 3c
       0.029458342 -0.094519354 -0.015748862 0.00846545
0001e0 6d a4 84 bd f5 88 9d 3c 13 1f bc 3d c9 f4 00 3e
       -0.06476674 0.019230345 0.091856144 0.12593378
0001f0 92 42 47 bd 9e 5d 8f bd b3 8f 82 3c 29 98 47 bd
       -0.04864747 -0.07000278 0.015937662 -0.048729096
000200 b0 16 39 3d f5 d5 e6 bd fa 19 60 3d 43 8e f3 bc
       0.045187652 -0.11271278 0.054712273 -0.029730922
000210 2c 48 17 bc 24 b4 87 3e 26 ca 81 bd fe d6 44 bc
       -0.009233516 0.26504624 -0.06337385 -0.012014149
000220 67 50 b0 bd 57 a5 c9 bc 9e 00 92 3d 7f 72 9c bd
       -0.086090855 -0.024614973 0.07129024 -0.07639026
000230 a0 4b 1e 3d 04 68 e2 3c 9c df 7b 3a 30 2f a3 bd
       0.03864634 0.02763749 0.00096082105 -0.07967985
000240 a9 44 26 bd ba b2 a0 bd 34 60 27 3e 48 a7 2a 3d
       -0.040592823 -0.078465894 0.16345292 0.041663438
000250 9e 91 8b 3d 51 fe 51 bc 4a 82 86 bd 3e 1b e0 3d
       0.06814884 -0.012816981 -0.065678194 0.10942696
000260 e0 83 ef 3c 87 76 58 3d 07 0b e0 bc 7a 69 51 3d
       0.029237688 0.05284741 -0.027349008 0.05112598
000270 ee 05 45 bd d2 4e 45 3d 97 86 83 3d a3 a4 f9 bd
       -0.048101358 0.048170872 0.06422155 -0.12189605
000280 ba b6 b3 3d 3a 49 59 bb 9f 0e b3 bd 74 ea 7c 3d
       0.08775087 -0.0033155219 -0.08743023 0.06174703
000290 08 b4 9f 3d cc f1 f0 bd d4 3c bc 3d 60 8e d2 bc
       0.0779801 -0.11764869 0.091912895 -0.025702655
0002a0 a3 24 08 be c7 77 27 be 76 4d 87 bd ff b8 a4 3d
       -0.13295226 -0.16354285 -0.066065714 0.08043098
0002b0 a8 39 59 3e d9 0b 8b 3d f2 4c c5 bb 64 1a 36 bd
       0.212134 0.06789369 -0.0060211355 -0.04445876
0002c0 e4 61 8a 3d 59 19 af bd 23 08 e0 bd 50 77 c5 3b
       0.067569524 -0.085497566 -0.10939052 0.006026186
0002d0 f9 1c 10 be 5b 81 a6 bc 22 0c 7d bd d0 a7 01 bc
       -0.14073552 -0.020325353 -0.06177915 -0.007913545
0002e0 4a f3 d1 3a 0d 95 f1 bd c2 d3 06 bd 7d 5d ae 3b
       0.001601794 -0.11796007 -0.03291679 0.0053212033
0002f0 99 5f 26 3e 0a 6e 56 3d 15 85 99 bd 0b 8b 91 bc
       0.16247405 0.052351035 -0.074960865 -0.017766496
000300 77 9f 03 bd a9 e2 94 bd 1c 75 94 3d 1c 38 12 3d
       -0.0321345 -0.072697945 0.07248899 0.03569804
000310 1b 41 d5 bc 75 ed a5 bc c0 8a 87 bd 01 6c 0d be
       -0.026032021 -0.02025483 -0.06618261 -0.13810731
000320 e3 9c 18 3e b7 6e 70 bd d2 f7 24 be c5 56 d1 3b
       0.14903598 -0.058699336 -0.16110161 0.0063885176
000330 47 c8 39 bd 4c 14 49 bd c3 1e d6 bc 16 63 5a 3d
       -0.045357015 -0.049091622 -0.026137715 0.053317152
000340 35 11 f7 3d 2c 67 32 bc 3e f3 c3 3d 9b 07 d7 bc
       0.12063829 -0.010888856 0.09567879 -0.026248744
000350 c4 5e 05 bc 49 c0 fc 3d 7c 90 4e 3e c2 cb 13 bd
       -0.00814027 0.12341363 0.20172304 -0.03608299
000360 cc 66 21 bc aa b3 7c bd 47 9c be bd 7a 93 8b bd
       -0.009851169 -0.06169478 -0.09307151 -0.06815238
000370 16 a4 40 bd d0 ef ea 3c e9 1c 10 3c 82 f8 3f bd
       -0.047031485 0.028678805 0.008795955 -0.046867855
000380 4f 22 bc 3d 94 4d d2 3d 14 7d 17 3d ae b7 a7 bd
       0.09186231 0.10268703 0.03698452 -0.08189331
000390 f0 3d 4a bd 38 82 f7 bc ce bb b1 3c 05 e1 ab 3c
       -0.049375474 -0.03021346 0.021695998 0.020981321
0003a0 ec cf 48 bd 66 84 2d 3c 3e a9 4a be ba 78 a1 3c
       -0.049026415 0.010590648 -0.19791123 0.019710887
0003b0 e2 fc 9d 3d 77 73 6b bd 9b b2 3a bc 7e 15 0d 3d
       0.07714249 -0.057483163 -0.011395122 0.034444325
0003c0 e1 a0 83 3d f5 f4 a9 3c 74 8a d6 bd 93 e2 12 bc
       0.064271696 0.020746687 -0.104756266 -0.008965152
0003d0 46 aa 30 3d b2 2c 56 3d ee 84 fe 3c 8c 19 9e 3d
       0.043131135 0.05228872 0.031069245 0.077197164
0003e0 4d 6b 13 be 41 82 ee 3d 34 3f 60 3e e2 78 f8 bc
       -0.14396401 0.11645938 0.2189911 -0.030331079
0003f0 ac f4 87 3e a6 10 4b 3d e7 87 4b 3c 2e 63 27 bd
       0.26553857 0.049576424 0.012422538 -0.04086607

base.actor.0.bias f4 [64]
000000 00 00 00 00 00 00 00 00 00 00 00 00 00 00 00 00
       0.0 0.0 0.0 0.0
000010 00 00 00 00 00 00 00 00 00 00 00 00 00 00 00 00
       0.0 0.0 0.0 0.0
000020 00 00 00 00 00 00 00 00 00 00 00 00 00 00 00 00
       0.0 0.0 0.0 0.0
000030 00 00 00 00 00 00 00 00 00 00 00 00 00 00 00 00
       0.0 0.0 0.0 0.0
000040 00 00 00 00 00 00 00 00 00 00 00 00 00 00 00 00
       0.0 0.0 0.0 0.0
000050 00 00 00 00 00 00 00 00 00 00 00 00 00 00 00 00
       0.0 0.0 0.0 0.0
000060 00 00 00 00 00 00 00 00 00 00 00 00 00 00 00 00
       0.0 0.0 0.0 0.0
000070 00 00 00 00 00 00 00 00 00 00 00 00 00 00 00 00
       0.0 0.0 0.0 0.0
000080 00 00 00 00 00 00 00 00 00 00 00 00 00 00 00 00
       0.0 0.0 0.0 0.0
000090 00 00 00 00 00 00 00 00 00 00 00 00 00 00 00 00
       0.0 0.0 0.0 0.0
0000a0 00 00 00 00 00 00 00 00 00 00 00 00 00 00 00 00
       0.0 0.0 0.0 0.0
0000b0 00 00 00 00 00 00 00 00 00 00 00 00 00 00 00 00
       0.0 0.0 0.0 0.0
0000c0 00 00 00 00 00 00 00 00 00 00 00 00 00 00 00 00
       0.0 0.0 0.0 0.0
0000d0 00 00 00 00 00 00 00 00 00 00 00 00 00 00 00 00
       0.0 0.0 0.0 0.0
0000e0 00 00 00 00 00 00 00 00 00 00 00 00 00 00 00 00
       0.0 0.0 0.0 0.0
0000f0 00 00 00 00 00 00 00 00 00 00 00 00 00 00 00 00
       0.0 0.0 0.0 0.0

base.actor.2.weight f4 [64, 64]
000000 12 19 74 be 12 fe 60 3e c2 11 ad bd d0 3e a1 be
       -0.23837689 0.2197192 -0.08450653 -0.31493235
000010 da de 0b be 0a d9 03 3e 58 86 a6 bd b2 f3 d4 bd
       -0.1365923 0.12875763 -0.08131093 -0.10398044
000020 a2 8c a4 3e bc 6a b2 bd ea cc c1 3d 4b b4 d9 bc
       0.32138544 -0.08711764 0.094629124 -0.026575228
000030 16 3a 85 be ec fc c1 3d 32 c4 76 3e 77 88 a3 3e
       -0.2602088 0.09472069 0.2409828 0.31940052
000040 8e 84 4b 3e 60 52 cd 3d fa 31 f9 bd e2 79 17 be
       0.19874784 0.100254774 -0.121677354 -0.14792588
000050 f8 db c4 3d 36 71 09 be 62 23 83 3d 5e 50 4b bd
       0.09612268 -0.13422093 0.06403233 -0.04963719
000060 3c ee ea 3d 1d 11 06 3e 78 c2 97 bd 96 da 28 be
       0.11471221 0.13092466 -0.07410139 -0.16489634
000070 9f fc 14 bd 88 36 7a be 60 59 d5 bd fe 95 5a 3e
       -0.03637373 -0.24434865 -0.104174376 0.2134628
000080 64 46 c9 3d 30 05 8f be 1e 0a ca bd c5 9c 11 3e
       0.09827879 -0.27933645 -0.09865211 0.14219959
000090 e8 6b 1b 3e 6c 9f e8 3d 4e ff 76 3e 46 3f 1a be
       0.15177882 0.11358532 0.24120829 -0.150632
0000a0 0a da 2f 3e e6 e5 1c bd 59 6c 10 3e 58 5f 89 be
       0.17173019 -0.038305186 0.14103831 -0.26830554
0000b0 98 a1 0c bc 19 44 06 bf fe 9d fe 3e 49 b4 c6 bc
       -0.008583449 -0.5244766 0.49729913 -0.024255889
0000c0 0c a4 2f 3e 12 c5 27 bd 36 4a 40 3d c0 86 d6 bd
       0.17152423 -0.040959425 0.046945773 -0.1047492
0000d0 dc 9a a4 be af 4c 6b 3d 72 ca 3d 3d 0e 62 38 be
       -0.32149398 0.057446178 0.046335645 -0.18006155
0000e0 fd a5 e7 bc ec af ef bd b2 fc 91 bd 4b 6a 65 3d
       -0.028277392 -0.11703476 -0.07128276 0.056009572
0000f0 e4 56 c1 bd e3 41 67 bd 07 7f 80 3e 37 c6 83 3d
       -0.09440401 -0.05645932 0.25096914 0.06434291
000100 60 45 79 3e 1a 9f 72 3e 2b 81 4d be ac bb 37 bb
       0.2434287 0.23693505 -0.20068805 -0.0028035445
000110 32 42 0e 3e f9 ef 45 3d 55 31 78 3c 5f 0c 70 3d
       0.13892439 0.04832456 0.01514848 0.058605548
000120 4c b9 51 3e 63 d9 d5 3d c9 07 97 bd 59 5c 8e bd
       0.20480841 0.10441854 -0.07374532 -0.06951208
000130 e2 b2 25 be d8 e4 a0 be 4d 2c 62 bd bd 7a f1 3d
       -0.1618152 -0.31424594 -0.05521803 0.117909886
000140 72 1a 4a be 63 05 4c 3d 38 de df 3c 23 1c 92 be
       -0.1973665 0.049809825 0.027327642 -0.28537092
000150 ff a1 00 bd 6f 76 4f 3e ea 31 a6 3e 0c d2 04 bc
       -0.03140449 0.20260023 0.32459956 -0.00810672
000160 3d 0e b7 be 92 4a 44 be 7b 9b f7 3d 94 5c 08 3e
       -0.3575305 -0.19169071 0.120902024 0.13316566
000170 32 80 ab 3c 6c 51 2b 3e 64 c4 6b bc 99 35 2b bd
       0.020935152 0.16730279 -0.014390085 -0.04179916
000180 5f b6 55 3c a5 14 94 bd 41 50 f6 3d 05 a9 47 3d
       0.013043969 -0.072305 0.12027026 0.048745174
000190 3d 0a 03 3e 15 0b e8 3c 6b 1b 1d bd 9f b5 ed bc
       0.12796874 0.028325597 -0.038356226 -0.029017268
0001a0 cf 96 e3 3d 91 6b 3e 3e 4b ab 98 3e 1b ca e2 bd
       0.11112749 0.18595721 0.29818186 -0.11073705
0001b0 c8 5d 9c 3e 18 b5 0e 3e cb 1d 3d bd 3b 6a 27 3e
       0.305403 0.1393627 -0.04617099 0.16349117
0001c0 ef 32 43 bd 68 92 a8 3d 7f 12 02 3d a3 50 39 bd
       -0.047655996 0.0823105 0.03175592 -0.045242917
0001d0 3c 8f a2 be 19 2c 91 bd c8 49 13 bf 13 4a 28 3e
       -0.31749904 -0.07088489 -0.57534456 0.16434507
0001e0 c5 fe d3 bd b5 e4 47 3e a8 c5 a0 bc 5d 71 97 bd
       -0.10351328 0.19520839 -0.0196255 -0.07394669
0001f0 49 f7 0a be 74 05 c8 3e d7 74 31 3d 5e 27 a6 be
       -0.13570894 0.3906666 0.043324318 -0.3245191
000200 0a 4f 4a be 96 4b d2 bc 01 29 96 3d 1d 3e e5 3c
       -0.19756714 -0.025670808 0.073320396 0.02798372
000210 7c 21 32 be 58 5d 94 be 11 5f 19 3d 57 ce 99 bd
       -0.17395586 -0.28977466 0.037444178 -0.07510059
000220 58 8c 9c 3b 92 d5 05 3e fc 08 74 3e 6e c0 a9 be
       0.0047774725 0.13069752 0.23831552 -0.33154625
000230 60 be 4f 3e 45 60 ae 3a 18 52 aa be b0 42 27 ba
       0.20287466 0.0013303837 -0.33265758 -0.00063804816
000240 1c be a5 3d 4a bf 09 be 2d be cc bd 0b 9c b0 3d
       0.08092901 -0.13451877 -0.09997211 0.08623513
000250 3d 73 a7 3d ba 04 8b 3e fd d7 d9 ba 81 46 f4 3d
       0.08176277 0.27152044 -0.0016620156 0.1192751
000260 32 65 1e 3e 5a b7 67 3e 6f 6a 94 be c4 68 97 be
       0.1546829 0.22628537 -0.28987452 -0.29572117
000270 0c 6d 26 3e f5 7b 32 bd 02 c0 ae 3c e1 12 93 bd
       0.16252536 -0.043575246 0.02133179 -0.07181335
000280 51 e1 6c 3d 1f d3 ae 3d 67 11 c3 3d a7 be aa bd
       0.057832066 0.08536362 0.095248036 -0.08337145
000290 c3 dc 99 3e 7f f8 5a bd 02 a7 54 3e 6a d3 ab be
       0.3005124 -0.05345964 0.20766833 -0.33559734
0002a0 bb 11 97 be 08 7c b0 bd 74 f0 4d be f0 f6 8b 3e
       -0.29505715 -0.08617407 -0.20111257 0.27336836
0002b0 f5 f9 cd bd eb e6 79 bd 29 39 cc 3d 5e a5 14 3e
       -0.10057441 -0.061011236 0.0997184 0.14516208
0002c0 65 20 d8 bd 47 fb e0 bd b2 64 a3 3d 19 73 d1 bd
       -0.10553054 -0.10985427 0.079781905 -0.10227031
0002d0 3b ae 80 be b5 c0 c3 be 9a 25 6f 3b c0 61 37 be
       -0.25132927 -0.3823296 0.0036490918 -0.17908382
0002e0 0f 05 92 bd db 33 c7 bc 14 3e ea 3d c6 fb bb 3d
       -0.07129871 -0.024316719 0.11437622 0.09178881
0002f0 47 ed a3 be 46 b0 c9 3e 28 09 8e 3d 5f fa 7c be
       -0.32016966 0.39392298 0.0693534 -0.24704884
000300 7e 9c a5 3e 86 af 1b bd 98 e0 7f 3d 46 d8 d3 be
       0.32345957 -0.03800919 0.06247005 -0.4137594
000310 40 3d 38 3e 86 eb bb bd b6 27 be 3d 8a 82 53 3d
       0.17992115 -0.09175782 0.09284918 0.051638164
000320 5d 2f d3 bc 06 73 3e 3e 2f 6d be be 62 ab ca bd
       -0.02577942 0.18598565 -0.37192675 -0.0989597
000330 04 16 c3 3d e2 00 4a bd 60 b6 88 be 98 03 3a be
       0.095256835 -0.04931725 -0.2670164 -0.18165433
000340 65 08 05 be f9 a1 ac be 24 ac df bd 8e 10 cf bd
       -0.12991484 -0.33717325 -0.10921505 -0.101105794
000350 66 67 69 3b 4e b6 c0 bd fe 42 5e 3d 0b ac 99 3e
       0.0035614609 -0.09409772 0.054263107 0.3001407
000360 66 98 c1 3d 20 af 8f 3d cd ea 91 3d 29 44 f6 bd
       0.09452896 0.07015824 0.07124863 -0.12024719
000370 5c 57 4b 3d d6 7b e3 bd c2 c8 87 3e e8 d4 b7 3a
       0.04964386 -0.11107604 0.26520354 0.0014025243
000380 65 44 84 3d e7 bb 18 3e 43 12 1a 3e fe da 09 bf
       0.06458358 0.14915429 0.15046029 -0.5384978
000390 46 dc ef 3d 76 33 9e 3d 73 15 76 3d 8c b3 a8 bc
       0.11711936 0.07724659 0.06007905 -0.020593427
0003a0 5d 3d 90 3e ed 98 9d 3c 55 af a3 3e 78 f2 d0 3d
       0.28171816 0.01923796 0.31969705 0.10202497
0003b0 d8 39 8d bd 72 81 9b be e6 69 c6 3d 18 9b 00 be
       -0.068957984 -0.30372196 0.09688167 -0.12559164
0003c0 7e 86 57 3d e6 52 f0 3d e8 3f 90 be d1 c6 29 be
       0.052618496 0.117345616 -0.28173757 -0.16579749
0003d0 d1 0c 6b 3e 60 67 ad 3d fa 82 77 be d6 6d 14 be
       0.22954108 0.08466983 -0.24171057 -0.14495024
0003e0 a0 cb 0a 3e b0 4f 03 3e 8e e8 12 bd 54 70 15 bd
       0.1355424 0.12823367 -0.035866313 -0.036484078
0003f0 9c d7 82 bd b6 8d 6d be 57 db 2b be 30 a2 c3 3d
       -0.063887805 -0.2319859 -0.1678289 0.09552419

base.actor.2.bias f4 [64]
000000 93 0a 3a 3d 2b 04 3a bc 8c 84 a5 3c 31 e8 b2 bc
       0.04542024 -0.011353533 0.020204805 -0.021839233
000010 6f f0 9f 3c 57 68 9d bc 3d 69 91 3c 24 46 27 bd
       0.019523827 -0.019214792 0.017750377 -0.040838376
000020 d0 a0 c0 bc 88 17 ac 3c 70 b9 df 3c 38 82 f8 bc
       -0.023514181 0.021007314 0.027310103 -0.03033553
000030 55 ae 3e 3d 00 6e 47 3d ef 8f f8 3c da b1 fd 3c
       0.046552975 0.04868889 0.03034207 0.030968595
000040 9f 2c 90 bc 37 cf 9c bc cb 4c 1c bd 25 35 b1 bc
       -0.017599402 -0.019141776 -0.038159173 -0.021631787
000050 df 30 a2 3c 11 d0 a9 3c ff 55 a6 3c 9d 1c ab bc
       0.019798694 0.020729097 0.020304678 -0.020887667
000060 77 73 b0 3c 89 e5 ca 3c 6c 41 32 3d 83 b9 b4 bc
       0.021539433 0.024767654 0.043519422 -0.022061115
000070 7a 6c 2f 3d db 74 49 bc af be 96 bc a1 97 a3 3c
       0.04282806 -0.012295927 -0.018401472 0.019969763
000080 cf a5 25 bd e9 18 18 bd 97 b0 2b bd bc 58 90 3c
       -0.04044133 -0.03713313 -0.041916456 0.017620437
000090 5c 6a 18 bd ac 24 af bc ea 47 e8 3c 75 d2 ed 3c
       -0.037210807 -0.021379791 0.028354604 0.029031018
0000a0 0e 2d bc 3c b3 90 c6 3c f4 c8 cf 3c 9a ad 36 3d
       0.022970702 0.02423892 0.025364377 0.044599153
0000b0 12 f0 c2 bc 35 3c 6d 3c e7 48 23 3d f2 77 1c 3c
       -0.023796115 0.0144796865 0.039864447 0.009550082
0000c0 c3 cc c2 3c 78 b6 ac bc 84 d1 26 bd 81 a4 a5 3c
       0.023779279 -0.021083102 -0.040727153 0.020220043
0000d0 1f ec de 3c db b2 a3 3c 74 ff d1 3c 5a 2e b5 bc
       0.0272122 0.019982746 0.025634505 -0.022116829
0000e0 62 de e6 3c 42 26 b9 3c 28 96 4c 3c 9d 24 34 3d
       0.028182212 0.02260125 0.012486972 0.04398023
0000f0 3d 4e 32 3d bb 2b ca bc 87 65 b4 bc c0 55 1a 3d
       0.043531645 -0.024679055 -0.022021068 0.037679434

base.critic.0.weight f4 [64, 310]
000000 b8 c6 87 bd a3 21 ab bd 68 fb 1e 3d a4 7e b4 bc
       -0.066296995 -0.08356025 0.03881398 -0.022033043
000010 ee 78 87 3d a7 41 7f 3d 46 67 0a 3e ee 7f 8e bd
       0.066148624 0.06231847 0.13515958 -0.069579944
000020 13 1c 73 bd 99 b4 67 39 52 9e e7 3d e2 b7 55 3c
       -0.059352946 0.00022097155 0.11309494 0.013044329
000030 13 19 0b be 19 c0 d6 3c 96 54 ab bd f1 e1 6a 3c
       -0.13583784 0.026214646 -0.08365743 0.014336095
000040 10 18 2f be ab a9 1c bd 3e 3d 5c 3c 7b 01 87 bb
       -0.17099023 -0.038247745 0.013442336 -0.0041200495
000050 f7 84 6a 3d 7a 42 01 bc 4d 47 95 bd 4d 26 08 be
       0.05725571 -0.007889384 -0.0728899 -0.1329586
000060 10 ca 02 3c 5c bb 25 3e 82 34 bb bd 20 e7 2c 3e
       0.007982746 0.16184753 -0.091408744 0.16885042
000070 29 12 8d 3d 28 d3 92 bc ad 87 a4 3d cd 2c f4 bd
       0.068882294 -0.017922953 0.080336906 -0.119226076
000080 0e 5e 23 3d 49 fa 57 3d 77 e6 e9 3d 69 be 98 3d
       0.03988462 0.052728925 0.11420911 0.07458193
000090 6a 8b 21 3d 42 29 d7 3c b9 99 5a bb f9 5b ad bd
       0.039439596 0.02626479 -0.0033355786 -0.08464808
0000a0 d0 c4 e1 bb 37 d0 15 be 24 10 84 3d 25 10 b0 bd
       -0.006889917 -0.14630209 0.06448391 -0.08596829
0000b0 6e f6 58 3d 3c 17 d9 3a fb 4d 95 bd 4f 29 46 bd
       0.05296939 0.001656271 -0.07290264 -0.04837924
0000c0 6b 49 a8 bd c8 89 f1 bd 1d ea 00 be 08 61 98 bd
       -0.08217128 -0.11793858 -0.12589307 -0.07440382
0000d0 96 94 01 3e 83 d1 9e 3c 40 7c 84 bd 1b 00 51 bd
       0.12654337 0.019387012 -0.06469011 -0.05102549
0000e0 62 94 17 bc f7 0f c5 3c 7f 87 66 bc b7 ad f5 bd
       -0.009251686 0.024055464 -0.014070391 -0.11996024
0000f0 3b 48 05 3d b8 07 64 3b eb d6 8b b9 79 49 66 3d
       0.032539587 0.003479464 -0.00026672272 0.056222413
000100 3e c2 fe 3b e6 e6 29 3e da df 27 3e f4 da 0a 3e
       0.0077746203 0.16591987 0.16393986 0.13560086
000110 c1 b1 07 bd 31 0f 8e bd 83 74 a6 bc 6f 32 a5 3c
       -0.033128504 -0.06936491 -0.020319229 0.02016565
000120 be a5 56 bd 78 0e 10 be 65 ba c8 3c cc 7b 69 bd
       -0.052404158 -0.1406802 0.024502942 -0.057002828
000130 4f 12 96 bc b1 2f 46 3e 4d 82 f3 bd a2 5e 59 3c
       -0.018319277 0.1935413 -0.11890087 0.013267191
000140 30 10 a3 bd 97 99 99 3d ca 8a dc bb 8d 58 8b 3d
       -0.07962072 0.07499998 -0.006730412 0.06803999
000150 10 0d a9 bc 6c 5b 99 3b a3 8e 82 3c 8f e2 63 3d
       -0.020636111 0.004680088 0.015937155 0.055635985
000160 34 73 27 bd 32 c2 54 3c d9 21 c6 3d dc fe f9 bc
       -0.04088135 0.012985753 0.09674425 -0.030517034
000170 b0 e0 01 bd a7 14 d6 bd 5f 97 2d bd c4 40 41 bd
       -0.03170842 -0.10453158 -0.042380687 -0.047180906
000180 a2 c9 1e bd 4e 99 1e 3d 23 15 e8 3d 9f 6e d8 3c
       -0.03876651 0.03872042 0.113321565 0.026419936
000190 85 09 75 bd 66 82 99 bc 58 38 cc bc cc c9 32 bc
       -0.05982353 -0.018738937 -0.02492921 -0.01091237
0001a0 75 76 37 bd e0 cb 6d 3d 5a bc 3f bd 77 03 81 bd
       -0.044790704 0.05805576 -0.046810485 -0.06299489
0001b0 dd 69 eb 3d 0a 3c 23 3c f5 78 81 bd 36 51 81 3d
       0.11494801 0.009963045 -0.06321899 0.06314318
0001c0 79 57 36 bd a7 25 a8 3c 9d 81 c8 3b d1 76 91 bd
       -0.044517014 0.020525767 0.0061189667 -0.071027406
0001d0 a6 26 99 bd 6e 37 c2 bd e3 a0 29 be 11 b2 0d 3e
       -0.07478075 -0.094832286 -0.1656528 0.13837458
0001e0 07 6d bb 3d dd 4f c7 3d 63 26 fc bd 80 97 46 bd
       0.09151655 0.097320296 -0.12312009 -0.048484325
0001f0 89 1e 7c bd d4 1b b2 3d 78 58 94 bc c4 19 11 3e
       -0.061552558 0.08696714 -0.018108591 0.14169985
000200 f7 21 57 3d 3c 83 22 3c 2b 58 86 3d 67 09 f8 bc
       0.052522626 0.009918984 0.065597855 -0.03027792
000210 72 ba fb 3c f1 50 22 bc 95 35 0a 3d 27 52 10 bd
       0.030728552 -0.009906993 0.033742506 -0.035234597
000220 37 03 b7 bd 14 a2 98 3d 8a e4 cc 3d 24 d1 a8 3c
       -0.0893616 0.07452789 0.10004528 0.020607539
000230 97 da 94 bd 93 a9 f3 bc 5f 87 0d be 43 b6 3c 3e
       -0.07268255 -0.029743945 -0.13821171 0.18428902
000240 d1 a7 cf 3d c3 11 54 3d 06 7d 8b 3b 17 09 a8 3c
       0.1013943 0.05177475 0.0042568473 0.020512147
000250 10 b1 41 3d 05 38 81 3d 8e 8b d3 3c 7f 0e 73 3d
       0.047288 0.06309513 0.02582338 0.059339996
000260 f1 36 4f 3c d3 13 27 3e 8b 36 38 bd 15 ca 83 bd
       0.012647376 0.16316156 -0.04497389 -0.064350285
000270 04 7d 42 3c e0 ca a8 3b d7 97 88 3d 4b 24 5b 3e
       0.011870626 0.0051511377 0.06669586 0.21400563
000280 40 23 ef bc cb c6 d9 bd eb d4 57 3d 8d b4 0f bd
       -0.029191613 -0.1063362 0.05269329 -0.035084296
000290 a9 c8 24 bb 9b 59 14 bb 41 0a dd bc cc 7d de bd
       -0.0025144017 -0.0022636417 -0.026982429 -0.108638376
0002a0 9f 3d 3f bd 34 85 26 3d 5f a8 a5 3d 1e 9b bd bd
       -0.046689626 0.040654376 0.08088755 -0.09258102
0002b0 fc 45 44 3d b0 e7 f2 bc 02 2e be bd 5d d9 00 be
       0.047918305 -0.029651493 -0.09286119 -0.12582918
0002c0 9c 63 c9 3c 6d 2e 11 3d b8 4b 53 bd 9a 58 54 3d
       0.02458363 0.035444666 -0.051585883 0.05184231
0002d0 ce da 37 3d 67 ed 04 be 61 04 af 3d 86 78 37 3d
       0.044886403 -0.12981187 0.08545757 0.044792674
0002e0 f0 26 76 3d 50 e2 3b be 48 24 08 3d 58 eb 07 be
       0.060095727 -0.1834805 0.033237725 -0.1327337
0002f0 99 ce f8 3d 32 ef 28 bd bb db bd 3d 2b fa 52 3d
       0.121487804 -0.04124374 0.09270426 0.05150811
000300 15 9b 0f 3d f6 e6 15 be d0 33 2c 3d 35 01 d0 bc
       0.035060007 -0.14638886 0.0420416 -0.0253912
000310 6c 6e 13 be da 43 1b be 18 d4 b5 3d 61 67 44 3d
       -0.14397591 -0.15162602 0.08878344 0.047950152
000320 d9 f0 2b bc f4 3f ad bd 92 a9 b4 3d 07 d0 32 3d
       -0.010494434 -0.08459464 0.088214055 0.04365542
000330 90 ad bb bd a0 2c 77 bd df fd fa 3d 44 27 39 3d
       -0.09163964 -0.060345292 0.12255453 0.045203462
000340 cf c2 e5 3d aa 6c 2d 3c 3d 4a 20 be 4e c4 71 3c
       0.112187974 0.01058499 -0.1565332 0.014756275
000350 cd d0 9c bc 97 54 58 be d9 1c 08 3e 92 f2 f8 bb
       -0.019142533 -0.21126018 0.13292255 -0.007597276
000360 e6 a2 99 3c 28 57 18 3d 90 84 94 bd b9 87 16 3e
       0.018754434 0.037192494 -0.07251847 0.14700212
000370 c3 86 3b 3d 82 5f 8e 3d 58 2e b3 bd 65 32 34 bd
       0.045782816 0.069518104 -0.08749074 -0.043993372
000380 d7 d1 5a 3e 38 d4 89 bd f6 95 26 3e 13 43 06 3e
       0.2136911 -0.06729931 0.16268143 0.13111524
000390 2f 02 ba 3c 75 7a bc bc 27 4e 89 bd 1c 49 f6 bd
       0.02270612 -0.02300761 -0.067043595 -0.12025663
0003a0 80 11 93 bd 29 b8 11 be 91 29 e5 3c 32 56 b4 3c
       -0.07181072 -0.14230408 0.027973922 0.022013757
0003b0 5a 37 03 3d 73 50 f0 3d f3 f7 b0 bd bb 8b 49 bd
       0.03203521 0.117340945 -0.086410426 -0.049205523
0003c0 6a 44 81 3b 4e 18 68 bd 25 11 6c bd e8 8b af bc
       0.003944923 -0.056663804 -0.057633538 -0.021429017
0003d0 92 52 2b 3d ca 6b df bd 9e 79 51 bc 63 47 a6 bd
       0.041826792 -0.10909231 -0.012785343 -0.08119085
0003e0 77 d2 d3 3d f2 ba f4 bd 80 68 7a 3d 11 3c 16 3d
       0.10342877 -0.119497195 0.061134815 0.036678378
0003f0 ae b1 f7 bc 07 e5 91 bd 2c 80 fd 3d c2 fd bf 3b
       -0.030236091 -0.071237616 0.123779625 0.0058591077

base.critic.0.bias f4 [64]
000000 00 00 00 00 00 00 00 00 00 00 00 00 00 00 00 00
       0.0 0.0 0.0 0.0
000010 00 00 00 00 00 00 00 00 00 00 00 00 00 00 00 00
       0.0 0.0 0.0 0.0
000020 00 00 00 00 00 00 00 00 00 00 00 00 00 00 00 00
       0.0 0.0 0.0 0.0
000030 00 00 00 00 00 00 00 00 00 00 00 00 00 00 00 00
       0.0 0.0 0.0 0.0
000040 00 00 00 00 00 00 00 00 00 00 00 00 00 00 00 00
       0.0 0.0 0.0 0.0
000050 00 00 00 00 00 00 00 00 00 00 00 00 00 00 00 00
       0.0 0.0 0.0 0.0
000060 00 00 00 00 00 00 00 00 00 00 00 00 00 00 00 00
       0.0 0.0 0.0 0.0
000070 00 00 00 00 00 00 00 00 00 00 00 00 00 00 00 00
       0.0 0.0 0.0 0.0
000080 00 00 00 00 00 00 00 00 00 00 00 00 00 00 00 00
       0.0 0.0 0.0 0.0
000090 00 00 00 00 00 00 00 00 00 00 00 00 00 00 00 00
       0.0 0.0 0.0 0.0
0000a0 00 00 00 00 00 00 00 00 00 00 00 00 00 00 00 00
       0.0 0.0 0.0 0.0
0000b0 00 00 00 00 00 00 00 00 00 00 00 00 00 00 00 00
       0.0 0.0 0.0 0.0
0000c0 00 00 00 00 00 00 00 00 00 00 00 00 00 00 00 00
       0.0 0.0 0.0 0.0
0000d0 47 fd 9f b8 00 00 00 00 00 00 00 00 00 00 00 00
       -7.6288874e-05 0.0 0.0 0.0
0000e0 00 00 00 00 00 00 00 00 00 00 00 00 00 00 00 00
       0.0 0.0 0.0 0.0
0000f0 00 00 00 00 00 00 00 00 00 00 00 00 00 00 00 00
       0.0 0.0 0.0 0.0

base.critic.2.weight f4 [64, 64]
000000 2c 37 4c bd 2a 50 7b 3d cd d3 c6 bd a8 fe 18 be
       -0.049857304 0.061355747 -0.097083665 -0.14940894
000010 7a 80 a0 be 2d ff 80 3e 03 a3 7a bd 0b 96 fa 3d
       -0.3134802 0.25194684 -0.061190616 0.1223565
000020 43 66 19 3e 11 59 c2 bb 14 7b d5 bd 81 e7 9f be
       0.14980416 -0.0059310277 -0.10423866 -0.3123131
000030 f6 a9 7e be 3d dd 53 be d7 a5 9c bd fc 9f fd 3c
       -0.24869522 -0.20689864 -0.07648819 0.030960076
000040 72 17 6b 3c 78 89 8c bd 74 15 6b 3d 0b 33 6c 3d
       0.0143488515 -0.068621576 0.057393506 0.057665866
000050 8f 93 1e be 20 69 2d 3e 6c e6 56 be 6e 67 56 be
       -0.15485977 0.16934633 -0.20986336 -0.20937893
000060 16 6a aa bd f9 89 a6 3b 90 a3 50 3e 53 c7 41 bd
       -0.083210155 0.0050823656 0.20374894 -0.04730923
000070 8e 6a d8 bd 9e 57 66 be c6 15 b9 3e 51 5e 1c 3e
       -0.10567199 -0.22494361 0.36149424 0.15270354
000080 45 8b 1c be cf 4b 76 3d ee 2c c4 3e 8b ac 52 be
       -0.15287502 0.06013089 0.3831553 -0.20573632
000090 33 24 6b be e3 66 20 be 1b 7f 27 3e 73 02 88 be
       -0.22963028 -0.15664248 0.1635708 -0.2656437
0000a0 64 2c a0 3e e0 f0 36 3c b6 70 9a bd f0 0a 79 bd
       0.31283867 0.0111658275 -0.07541029 -0.060801446
0000b0 47 8a 6f 3e 5a b8 e0 bd ff ac b0 bd 09 4f 63 be
       0.23392592 -0.10972662 -0.086267464 -0.22198118
0000c0 4e b1 c4 3c 08 98 32 be f0 ef 12 3c db 01 12 be
       0.024010327 -0.17440808 0.008968338 -0.1425852
0000d0 8f 89 63 3e 9a d2 6e bd 03 cc 18 be 58 b7 d4 bd
       0.22220443 -0.058306314 -0.14921574 -0.103865325
0000e0 81 26 51 be 69 72 29 3e ce 58 03 3c fb c3 7f bc
       -0.20424844 0.1654755 0.008016778 -0.01561069
0000f0 43 7d 80 3e 44 5d c9 3d 56 7c f3 3e 2a ec d1 3d
       0.25095567 0.09832242 0.47555798 0.10250123
000100 de 37 d7 3d 06 f2 d4 3c 4e f6 56 3e d4 e8 35 bd
       0.10508703 0.025994312 0.20992395 -0.044411495
000110 52 59 51 3d 09 bc 06 3e 2b 2e a3 3a b8 1d a4 3c
       0.051110573 0.13157667 0.0012449672 0.020033702
000120 0e 92 75 be a0 7e 97 3e 0b 7d 30 3e da 83 bb bc
       -0.23981497 0.29588795 0.172352 -0.02289002
000130 34 c0 42 3d cc 93 46 3d 2e f4 ae bd 12 11 a1 be
       0.04754658 0.048480794 -0.08542667 -0.31458336
000140 43 c5 04 3e 34 09 1c bd c4 63 82 3d 40 95 73 be
       0.12965874 -0.038094714 0.06366685 -0.23787403
000150 e0 5e c2 3c 5c f8 14 3e e9 62 80 3e 94 ea c2 3d
       0.02372688 0.14547867 0.25075462 0.095173985
000160 48 ce 88 be 32 d8 a9 bd 75 ba 2b be 38 7a be bd
       -0.2671988 -0.08293189 -0.16770346 -0.09300655
000170 b0 9c 75 3d df 39 b5 ba fd 04 a0 be 2a a8 aa bd
       0.059963882 -0.0013826451 -0.31253806 -0.08332856
000180 7c 18 49 bd d2 92 0a 3d 1a e1 91 3d 0c 9a bc 3e
       -0.049095616 0.033831425 0.07123013 0.36836278
000190 dc 14 b1 bd dc 80 d8 3d f4 f9 be 3d 44 c1 95 be
       -0.08646557 0.10571453 0.093250185 -0.29249012
0001a0 53 87 30 3e 67 81 24 be 5b 64 9a be 5f 6d 4d 3e
       0.17239122 -0.16064988 -0.3015469 0.20061253
0001b0 b5 c5 c9 3a da 69 cf 3e e5 ef 81 be 1e 45 1e 3d
       0.0015394004 0.40510446 -0.25378338 0.038640134
0001c0 4f e1 2a be cd cd 98 be 00 ec 70 3d a4 9e 87 be
       -0.16687511 -0.29844514 0.058818817 -0.2648822
0001d0 69 e7 84 3e b3 2f 12 be 91 84 2a be a7 4a 13 3e
       0.25957802 -0.14276008 -0.16652133 0.14383946
0001e0 07 1b 60 3e e1 00 b8 3e 65 7d 1d be 66 90 4b be
       0.2188531 0.3593817 -0.15379865 -0.19879302
0001f0 33 2b a5 bc f8 54 15 be e6 8f 8c 3b fe ff 85 bd
       -0.0201622 -0.14583194 0.004289615 -0.06542967
000200 5f ab 0e 3e fd d3 42 3d 8d 28 1f 3e 5a 05 0d be
       0.1393256 0.04756545 0.15542813 -0.13771573
000210 f4 6a fb 3c 53 1f 55 bd 65 4e 99 3c d9 e3 02 be
       0.030690648 -0.052031826 0.01871414 -0.1278223
000220 a3 73 05 3e 40 ff 1f 3e 57 89 2d 3d a0 d7 03 be
       0.13032393 0.15624714 0.042367306 -0.12875223
000230 27 fa 9b bd 01 80 7a bd 62 09 1e 3e 1d ec 0a be
       -0.07616072 -0.06115723 0.15433267 -0.13566633
000240 a0 2e ac 3b 68 ef 49 be 86 41 82 3e 31 86 b8 be
       0.0052545816 -0.19720232 0.25440615 -0.3603988
000250 93 da 01 be b9 bb df 3d 3e a8 87 3d 73 43 63 3d
       -0.12681036 0.10924477 0.066238865 0.055484246
000260 8d 36 b6 bd c4 f3 44 be 23 66 61 3d 36 c4 0a be
       -0.088971235 -0.19233614 0.055029046 -0.13551411
000270 d6 28 56 3e ca 92 5d be f6 e6 0d 3e e0 e9 83 bd
       0.20914015 -0.21638027 0.13857636 -0.064410925
000280 0c 08 38 3e 35 15 76 3e 80 e6 d4 be 1c 03 c0 3d
       0.1797182 0.24031527 -0.41582108 0.09375593
000290 6d 6a c0 3d 85 e3 45 bd f7 97 a5 3e 63 98 1d be
       0.09395299 -0.048312683 0.32342502 -0.15390162
0002a0 49 f8 9b bc 7b 38 16 bd 45 28 82 3c 02 30 2e be
       -0.01903929 -0.036674958 0.015888343 -0.17010501
0002b0 cd 5a db bd bc ff 81 be 27 99 60 be a5 1a 8a be
       -0.10710678 -0.25390422 -0.21933423 -0.26973453
0002c0 e2 9c ec bd 6f d2 e0 3d 40 97 f7 3d 16 e6 a1 3e
       -0.115533605 0.10977637 0.120893955 0.31620854
0002d0 26 1a fc be c9 5f eb bc 1b 75 24 3e c0 7b 78 3c
       -0.492387 -0.028732197 0.16060297 0.015166223
0002e0 46 69 51 be 7a 15 ad bd 25 76 0a be 28 1b 22 be
       -0.20450315 -0.08451362 -0.13521631 -0.15830672
0002f0 cd 72 5e bd 73 9a d7 be 41 47 3a 3e a7 a2 99 3d
       -0.0543087 -0.42110023 0.18191244 0.075017266
000300 00 50 9c bd da 42 b1 3e ea d3 ac bd ec 7c 46 3d
       -0.07632446 0.34621316 -0.08438857 0.04845898
000310 cc 0d 33 bd 36 94 f7 3d 52 8c 8d bc 28 6c 5a 3d
       -0.04371433 0.12088816 -0.017278824 0.053325802
000320 19 4a 85 be 9c f0 fd 3d ee 1f a7 bd 22 63 7e 3e
       -0.26033095 0.12399408 -0.08160387 0.24842504
000330 47 e5 15 be 74 b5 59 bd 90 16 fe 3d 52 6e d9 3c
       -0.14638244 -0.053151563 0.12406647 0.026541863
000340 ee 97 49 be 65 9b 18 3e e2 21 0f be 30 eb c0 bd
       -0.19686863 0.14903028 -0.13977769 -0.094198585
000350 bc 31 32 be 74 ca 1b 3e cb 6b a4 3e e4 e0 41 be
       -0.17401785 0.15213948 0.3211349 -0.18933445
000360 95 0d a0 3e e7 75 2a be 53 8e ee 3c ca 4e 16 3e
       0.31260362 -0.16646539 0.0291206 0.14678493
000370 d0 aa 6e bc 26 ae 55 bd 07 42 fe 3c c6 ef 6c be
       -0.014567092 -0.052168034 0.031037344 -0.23138341
000380 bc 62 6d be ba 4a 9f 3e 50 74 43 3d 37 ab 2b be
       -0.23182195 0.311117 0.047718346 -0.16764532
000390 17 7b ff bd 4c c8 9d be d0 81 7e 3e 2e 12 c9 3d
       -0.124746494 -0.30816877 0.24854207 0.098179206
0003a0 65 9e 4e 3e b3 2d 99 be 52 ee 3c bd ff a2 7b 3e
       0.2017761 -0.29917678 -0.046125717 0.24573897
0003b0 6a 01 83 3e 53 ed f3 3c 3d 5b 0a 3e 75 32 47 3e
       0.25587016 0.029776251 0.13511367 0.19452842
0003c0 42 d9 1a 3e 69 71 08 3e e1 30 82 3e e5 dd 78 3e
       0.1512194 0.13324513 0.25427917 0.24303396
0003d0 19 59 52 be b4 88 d5 bd c2 cb cb 3d 12 a5 95 3d
       -0.205418 -0.10426465 0.09950973 0.07306875
0003e0 a0 e5 b4 bd e2 24 93 3e 62 6d b6 3d 1e 26 9c bd
       -0.0883286 0.28739077 0.08907582 -0.07624458
0003f0 fe 39 c2 3c dc b8 46 3d 97 2f c6 be 78 cf f0 bd
       0.023709293 0.04851614 -0.38708183 -0.117583215

base.critic.2.bias f4 [64]
000000 f9 56 b0 3b 73 34 dd bb b2 c0 0d bc 44 ac ad bb
       0.0053814617 -0.006750637 -0.008651899 -0.0053000767
000010 e6 2a 3d 3c cd 47 b0 3b d0 65 3c 3c df a9 0a 3b
       0.011545872 0.005379653 0.011498883 0.002115838
000020 79 7c e0 3b 25 9d b0 bb 36 60 d3 bb 10 a9 94 3b
       0.006850776 -0.005389827 -0.006450678 0.0045367554
000030 75 9a 63 3c d4 61 22 bc ec 2e d1 3b c2 c7 bb bb
       0.013891806 -0.009911019 0.0063837674 -0.0057306
000040 3b 20 c9 3b df 8d 7a bb 65 d7 64 bc 9b fe c7 bb
       0.0061378754 -0.0038231534 -0.01396737 -0.0061033494
000050 dd 2f 7b 3a 46 e8 a7 3b 40 f7 31 bc 8b ef 24 3b
       0.00095820223 0.0051241247 -0.010862172 0.0025167193
000060 ad 52 d0 ba 47 64 c3 3b e9 75 68 bb 13 ef 4e 3b
       -0.001589378 0.0059628817 -0.003547067 0.0031575605
000070 8d e5 3a 3b dc ed 3d bc c4 18 d0 bb df 45 1f 3c
       0.002851817 -0.011592355 -0.0063506085 0.009721248
000080 cb bd 50 3c 25 e1 6c bb 23 2e 2f 3a c1 90 4f bc
       0.012740563 -0.0036144939 0.0006682595 -0.012668789
000090 2a 7f 58 bc 42 b5 a8 3b ca a6 3e bb 9b 63 14 bc
       -0.013213912 0.0051485607 -0.0029091113 -0.009056951
0000a0 14 15 58 bc 93 8b 61 3c 8e a1 bb bb 9c 28 8c 3b
       -0.013188619 0.013766187 -0.005726046 0.004277302
0000b0 95 81 d7 3a 48 03 55 bc ba 7c 46 bc be d6 39 3c
       0.0016441817 -0.013001271 -0.012114698 0.011342702
0000c0 9d 62 47 bc cf 7b 18 3c e1 6a 10 3c 01 1e 04 ba
       -0.012169507 0.009306862 0.008814544 -0.00050398713
0000d0 0c 0f 4e bc 7d f5 61 3c aa e6 94 3b 8f 00 4f bb
       -0.01257683 0.013791439 0.004544099 -0.0031586026
0000e0 96 b4 c9 3b 72 cc 6a 3c f5 9c 88 3a 4e bc ad bb
       0.0061555607 0.01433097 0.0010422753 -0.0053019887
0000f0 de 9b 2f 3c f4 f9 43 3c 9d 4b 0a 3c 34 01 38 ba
       0.010718314 0.011961449 0.008440879 -0.0007019222

base.critic_linear.weight f4 [1, 64]
000000 11 a3 98 bd be 27 f5 3d 42 92 d1 bd e6 3a 9f 3d
       -0.074529774 0.11970471 -0.102329746 0.07774906
000010 00 e3 82 3e 4a 44 aa bd 60 5c 5d 3d 02 ab 43 be
       0.25563812 -0.08313806 0.054043174 -0.19108203
000020 b6 4a dc 3c 8c d4 1f 3e fb 6b 19 3e 51 e6 0d be
       0.026891094 0.15608424 0.14982598 -0.1385739
000030 24 0d 04 3e 9c c9 fe bd 81 db e1 3c 97 27 88 3e
       0.12895638 -0.12440798 0.027570488 0.26592705
000040 d2 15 54 3d 95 4f 4c 3e 93 bf 28 be a8 e0 e4 3d
       0.051778622 0.19952233 -0.1647933 0.11175662
000050 05 77 85 b8 2c 6b 5b bd a0 0c 07 bd 43 60 8e 3c
       -6.364103e-05 -0.053569004 -0.032971025 0.017379886
000060 bd a4 d0 3d 2f 1f 92 bd f8 af 07 3e 0a 0f 91 34
       0.10187671 -0.07134854 0.1325072 2.7019297e-07
000070 be 7a dc be 54 ad 29 be cb f9 0e 3e e2 db a2 3d
       -0.43062395 -0.16570026 0.13962476 0.079520956
000080 f6 53 93 3e 4a f9 90 3e f5 8f dc 3d c9 8c b7 be
       0.28774995 0.28315192 0.10769645 -0.35849598
000090 41 2f e1 bd d0 cd 89 be f9 58 ca 3e 14 95 08 bd
       -0.10995341 -0.26914835 0.39521006 -0.033345297
0000a0 90 da a6 bd 21 b4 06 3e f7 4b 29 3e 13 a1 1b bd
       -0.08147156 0.13154651 0.16532885 -0.03799541
0000b0 1c a6 fc bc 4a 5e 67 bd 17 68 45 be 8c 7c 9f 3d
       -0.030840926 -0.056486405 -0.19277988 0.07787427
0000c0 b0 c0 88 be 82 3c 63 38 e5 40 bb 3d 3e ba 10 3e
       -0.2670951 5.417737e-05 0.09143237 0.14133546
0000d0 1d 70 8a bd d4 06 86 3e e4 3c 7e be c6 22 84 3e
       -0.06759665 0.26177084 -0.24827915 0.2580778
0000e0 76 58 01 be 48 e1 8a 3e 59 14 04 3c d6 cd 48 b4
       -0.12631401 0.27125 0.008061492 -1.8701334e-07
0000f0 6d 66 09 3d c9 24 9c 3d f3 88 22 3e 5e 49 89 3e
       0.033544946 0.07624204 0.15872554 0.26813787

dist.dst_type_linears.0.weight f4 [2, 64]
000000 67 6c 4b 3d f9 25 e5 bb 5c 24 7b 3d 2f c0 44 bd
       0.049663927 -0.006993052 0.061313972 -0.048034843
000010 b0 f1 ea 3c e7 9c 63 bd da 09 76 3d c6 8e 32 bd
       0.028679699 -0.055569556 0.06006799 -0.04359319
000020 e9 10 71 bd 01 03 72 3d 29 b0 79 3d 97 57 26 bd
       -0.058854017 0.059084896 0.060959015 -0.040610876
000030 1a f7 ee 3c f6 1c 53 3d a6 d7 71 3d de b8 0d 3d
       0.029170562 0.05154129 0.05904355 0.03460013
000040 be 17 73 bd 0e ec 76 bd bd c4 32 bd 19 ea 64 bd
       -0.059348814 -0.060283713 -0.043644655 -0.055887315
000050 3e 3a 6e 3d 65 e9 67 3d 11 b8 7b 3d ec 6c 6e bd
       0.058161013 0.056619067 0.061454836 -0.058209345
000060 f3 64 a2 3c 44 fe 74 3d be 4b 3e 3d 5d 00 68 bd
       0.019823527 0.0598128 0.046458952 -0.05664097
000070 ff 97 1c 3d f3 b4 c0 bb 66 75 1e bd 67 73 2b 3d
       0.038230892 -0.005880946 -0.03868618 0.041858103
000080 cc 74 b9 bc 19 22 3f bd 5c 52 51 bd 20 4d 5e 3d
       -0.0226387 -0.046663377 -0.051103935 0.05427277
000090 ee 00 39 bd 98 fe 6b bd d1 ea e9 3c 93 a5 03 3d
       -0.045166902 -0.057615846 0.028554352 0.032140326
0000a0 16 00 76 3d fd 1a 78 3d 96 73 77 3d cd 64 70 3d
       0.060058676 0.060572613 0.060412966 0.05868988
0000b0 15 fc 70 bd 18 df 62 3d 22 ea bc 3c 0a 2c 69 3d
       -0.058834154 0.05538854 0.023060862 0.056926765
0000c0 0a f4 76 3d 3b 49 7b bc b8 b9 2c bd ad 98 7b 3d
       0.060291328 -0.015337284 -0.042169303 0.0614249
0000d0 46 bf da 3c c5 57 1f 3d a5 91 78 3d d9 46 7a bd
       0.026702534 0.038902063 0.060685772 -0.06110272
0000e0 f2 0a e6 3c ad 07 4d 3d 06 dc 6a bb bd 8f 53 3d
       0.028081391 0.05005615 -0.003583671 0.05165075
0000f0 d8 07 3f 3d 44 46 1f bd 11 47 66 bd 50 e8 4b 3d
       0.04663834 -0.03888537 -0.056220118 0.049782097
000100 8b 5f 56 bd 3b 4c 8f 3b 35 98 70 bd 36 c1 47 3d
       -0.05233721 0.004373101 -0.058738906 0.048768245
000110 4f 99 e4 bc 29 48 69 3d bc b8 73 bd 2b ef 2e 3d
       -0.027905134 0.056953583 -0.05950235 0.042708557
000120 20 17 70 3d af 60 72 bd f6 63 7e bd 33 ed 1f 3d
       0.058615804 -0.059174236 -0.06210705 0.03904457
000130 d5 1d fa bc 7e 1f 54 bd a1 32 7b bd ab 4b 0b bd
       -0.030531803 -0.051787846 -0.06132758 -0.03400771
000140 8b 01 71 3d 3d 83 70 3d 47 3b 31 3d d6 3a 6c 3d
       0.058839362 0.05871891 0.043269422 0.057673298
000150 0b 47 6e bd 82 06 6e bd a0 0e 75 bd 60 7a 69 3d
       -0.05817322 -0.058111675 -0.0598284 0.05700147
000160 47 fe 8d bc b2 f7 7e bd b8 91 40 bd f8 ab 71 3d
       -0.017333163 -0.06224794 -0.04701397 0.059001893
000170 27 86 14 bd e8 42 c3 3b 85 b4 27 3d c5 36 2b bd
       -0.03626075 0.0059589036 0.04094364 -0.04180028
000180 9e 8f d0 3c 46 96 45 3d 96 a9 61 3d d8 2b 6e bd
       0.025459107 0.048239015 0.05509337 -0.05814728
000190 6d 1c 39 3d 32 ac 67 3d 0f 8d f9 bc fb d6 06 bd
       0.045193125 0.056560703 -0.03046277 -0.032919865
0001a0 7c 4c 79 bd 5f 5c 70 bd b0 77 72 bd cf 49 78 bd
       -0.060863957 -0.058681842 -0.059196174 -0.060617264
0001b0 73 7b 75 3d 5f ce 5c bd 39 02 d0 bc 64 70 6c bd
       0.059932183 -0.05390775 -0.025391685 -0.05772437
0001c0 99 41 70 bd 01 65 7d 3c 32 d0 31 3d 2e 77 76 bd
       -0.05865631 0.015465976 0.04341144 -0.060172252
0001d0 bb 14 fa bc 18 5e 1f bd 5f d2 7b bd f4 d9 79 3d
       -0.030527463 -0.038908094 -0.061479922 0.060998872
0001e0 d2 3a f6 bc 6a 4d 4e bd 30 b6 fc 3a 42 8a 44 bd
       -0.030057345 -0.050366797 0.001928037 -0.047983415
0001f0 af cc 38 bd b2 e8 2b 3d 03 e8 6f 3d e8 11 4e bd
       -0.045117076 0.041969962 0.058570873 -0.050310045

dist.dst_type_linears.0.bias f4 [2]
000000 cf 6b 69 3d d3 6b 69 bd
       0.05698758 -0.056987595

dist.dst_type_linears.1.weight f4 [2, 64]
000000 67 eb 8f bc a7 91 03 3c c8 db 1d bd 46 13 1b 3d
       -0.017568303 0.008030332 -0.038539678 0.037860177
000010 c1 a9 a2 bc c4 26 1d 3d cb 16 20 bd ee 4c 2d 3d
       -0.019856336 0.038367048 -0.039084237 0.042309694
000020 69 ad 23 3d 1a f9 25 bd e8 52 2d bd ad 4d 0f 3d
       0.0399603 -0.040520765 -0.042315394 0.034986187
000030 3a ea 3a bd f1 00 ea bc ed eb 32 bd 65 97 b3 bc
       -0.045633532 -0.028564902 -0.043682028 -0.021922776
000040 91 72 20 3d 78 0e 21 3d 93 08 c4 3c 12 52 25 3d
       0.03917176 0.03932044 0.02392987 0.04036147
000050 bf bd 23 bd 9c f9 2c bd f5 af 21 bd d4 d3 23 3d
       -0.039975878 -0.042230234 -0.039474446 0.039996937
000060 94 f8 f1 bc 48 83 2c bd 20 96 d4 bc a5 66 2b 3d
       -0.029537477 -0.042117387 -0.025950491 0.041845936
000070 ae 59 4f bd b0 c8 41 3c fd 3a 14 3d 34 12 13 bd
       -0.050622635 0.011827633 0.036189068 -0.03590603
000080 3f 8d 9b 3c 1c 7d c4 3c 03 9b c0 3c 32 c0 2a bd
       0.01898825 0.023985438 0.023511415 -0.041687198
000090 32 e2 d8 3c b0 0e 1d 3d de 43 f1 bc f6 cf 04 bd
       0.026475046 0.038344085 -0.029451307 -0.03242489
0000a0 1f 44 22 bd 71 8e 27 bd b6 b5 2f bd f0 a3 b8 bc
       -0.039615747 -0.040907327 -0.042897902 -0.022539109
0000b0 99 7d 28 3d 34 14 17 bd 0b 8b 05 bd d6 14 25 bd
       0.041135404 -0.0368845 -0.032603305 -0.040303074
0000c0 0c 64 1f bd e6 a2 88 3c fb bd af 3c de 0f 2d bd
       -0.03891377 0.016679239 0.021452894 -0.04225146
0000d0 2d a5 81 bc 88 a3 12 bd 87 63 2a bd b6 ab 20 3d
       -0.015825832 -0.035800487 -0.041598823 0.039226256
0000e0 25 e0 b8 bc 48 76 10 bd be d7 13 3c 38 c1 d5 bc
       -0.022567818 -0.03526905 0.009023605 -0.02609311
0000f0 10 fb 91 bc 97 d4 01 3d 37 9b 28 3d 6f 02 b6 bc
       -0.017819911 0.031696882 0.04116365 -0.022217957
000100 a6 8c 8e 3c 81 94 da bb 5f d0 25 3d a8 73 15 bd
       0.01740105 -0.006670535 0.04048192 -0.03648725
000110 52 5f 90 3c 8e 1a 29 bd f4 db 23 3d 4c 4f 28 bd
       0.017623577 -0.04128509 0.040004686 -0.04109125
000120 36 2d 27 bd 96 fd 23 3d a8 c4 22 3d cb 5c 0a bd
       -0.0408146 0.04003676 0.039738327 -0.0337799
000130 7d dc 2e 3d f0 ea de 3c 4e 9d 37 3d b1 4c ac 3c
       0.042690743 0.027211636 0.04482775 0.021032663
000140 05 b3 1a bd 9e c5 20 bd 0c 6e e2 bc 39 94 29 bd
       -0.037768383 -0.039250962 -0.027640365 -0.04140112
000150 16 27 27 3d 29 95 28 3d 03 cc 22 3d 05 8c 28 bd
       0.04080876 0.041157875 0.039745342 -0.041149158
000160 86 e7 ea 3c 34 44 28 3d 0d c0 c8 3c f6 fc 1f bd
       0.028674852 0.04108067 0.02450564 -0.0390596
000170 0b c5 56 3d e5 5c 49 bc e3 17 14 bd ba c7 12 3d
       0.05243401 -0.012290214 -0.036155593 0.035835005
000180 2a 50 92 bc 11 97 c1 bc 53 3f cc bc 94 b6 2a 3d
       -0.01786049 -0.023631604 -0.02493254 0.041678026
000190 fd 2d e8 bc ad cc 29 bd 2b c8 fc 3c 1a 63 f6 3c
       -0.028342241 -0.04145496 0.030857166 0.030076552
0001a0 10 aa 29 3d ea cd 1b 3d c2 10 23 3d 1f 2f c0 3c
       0.04142195 0.03803817 0.039810903 0.02345997
0001b0 62 ff 25 bd 31 99 21 3d 91 9a 0b 3d a3 23 18 3d
       -0.040526755 0.039452735 0.034082953 0.03714336
0001c0 9c 86 24 3d 9d 2b 68 bc 85 30 c3 bc bc 43 21 3d
       0.040167436 -0.0141705545 -0.023826847 0.039371237
0001d0 00 7f 59 3c d8 0d 14 3d c9 7f 2e 3d 56 3b 2f bd
       0.013274908 0.036146015 0.042602334 -0.042781197
0001e0 23 dd a3 3c ec c0 11 3d bf 59 2c bc 9a 40 d5 3c
       0.020002907 0.035584375 -0.010519444 0.026031781
0001f0 61 c9 96 3c 65 a2 00 bd fc ec 2b bd ab d8 a8 3c
       0.018406572 -0.03140487 -0.041974053 0.020611128

dist.dst_type_linears.1.bias f4 [2]
000000 ab fe 23 bd a9 fe 23 3d
       -0.040037792 0.040037785

dist.dst_type_linears.2.weight f4 [2, 64]
000000 26 61 6a 3d dc 2f 52 bd 93 b7 21 3d 36 bd 41 bd
       0.057221554 -0.051315174 0.03948171 -0.047299586
000010 c0 38 59 3d f5 26 e6 bc 52 0c 22 3d 1d 8f 39 bd
       0.053032637 -0.028094748 0.03956253 -0.0453025
000020 a2 89 ee bc 3d 17 0b 3d 08 68 35 3d c4 f2 31 bd
       -0.029118363 0.03395771 0.044288665 -0.04344441
000030 02 64 48 3d a1 b5 42 3d fe 23 0e 3d b7 9b 6b 3d
       0.0489235 0.047536496 0.034702294 0.057521548
000040 44 0a 23 bd d6 0d 24 bd 3c 89 33 bd 8e 7d fb bc
       -0.039804712 -0.040052257 -0.04383205 -0.030699518
000050 7b fe 12 3d f9 b1 e9 3c 0e 08 24 3d e4 02 03 bd
       0.035887223 0.028527247 0.040046744 -0.03198518
000060 27 e1 11 3d 22 d0 26 3d 63 fa 3c 3d 1f 7a f8 bc
       0.035615113 0.040725835 0.046137225 -0.03033167
000070 c1 0e 3a 3d 0e 85 b5 3c e6 2a 4e bd 25 bc 57 3d
       0.045424227 0.022158172 -0.05033388 0.052669663
000080 5d aa 4e bd f9 1d 2c bd 9c b5 38 bd c9 de e2 3c
       -0.05045544 -0.04202077 -0.04509507 0.027694123
000090 49 be 36 bd 67 06 03 bd 88 db 51 3d 65 cb 54 3d
       -0.044615064 -0.031988528 0.051234752 0.051951785
0000a0 db 85 2b 3d 38 c1 e6 3c b4 50 19 3d 22 de 57 3d
       0.0418757 0.028168306 0.03743048 0.052702077
0000b0 70 e3 31 bd 89 7e 28 3d 98 6b 43 3d a5 32 e0 3c
       -0.043429792 0.0411363 0.04771003 0.0273679
0000c0 85 81 3f 3d 61 53 f5 3a bd 09 32 bd b5 95 1d 3d
       0.04675438 0.0018716865 -0.04346632 0.03847285
0000d0 cf ff 5c 3d 27 47 49 3d b9 c5 20 3d 2a 5e 32 bd
       0.053954896 0.04914012 0.039251063 -0.043546833
0000e0 bf d5 52 3d 6a 58 52 3d bf 8c f6 3c 82 87 38 3d
       0.051473375 0.05135385 0.03009641 0.045051105
0000f0 7f d5 4e 3d 68 0d 52 bd ab 40 f2 bc c4 c5 25 3d
       0.050496574 -0.051282316 -0.029571852 0.040471807
000100 d0 25 73 bd 4b 9b 4d 3d 63 ba 1d bd 80 7e 3f 3d
       -0.059362233 0.050196927 -0.03850783 0.0467515
000110 37 88 57 bd 57 c9 d2 3c 82 d6 15 bd 85 f5 39 3d
       -0.05262014 0.025730772 -0.036581524 0.04540016
000120 58 be fd 3c d8 6d 12 bd b1 36 30 bd 9a ac 33 3d
       0.030974552 -0.035749286 -0.043020908 0.043865778
000130 74 86 3e bd 26 50 34 bd 96 34 09 bd ab e8 67 bd
       -0.046514943 -0.044021748 -0.033497415 -0.056618374
000140 9f ec 20 3d 4a aa 25 3d fe 5f 3d 3d 2d 72 e1 3c
       0.03928816 0.040445603 0.046234123 0.027520264
000150 0c eb 0f bd 32 12 d9 bc 7c 22 1b bd 32 26 f7 3c
       -0.035136268 -0.026497934 -0.037874684 0.03016958
000160 76 d2 13 bd fd 90 23 bd 69 74 3c bd a8 d3 df 3c
       -0.036089383 -0.039933193 -0.046009455 0.027322605
000170 15 1a 36 bd 4d 45 9f bc 6e 54 46 3d 91 5f 4e bd
       -0.044458468 -0.019442225 0.048420362 -0.050384108
000180 bd 49 4e 3d 5f da 2b 3d 19 44 35 3d 7c 35 e1 bc
       0.05036329 0.0419563 0.044254396 -0.027491324
000190 42 c8 35 3d e7 4c f8 3c df 3f 4f bd 1f 75 5d bd
       0.044380434 0.030310107 -0.05059802 -0.054066774
0001a0 3f ca 21 bd 77 9b e8 bc 10 4b 17 bd 60 35 55 bd
       -0.039499518 -0.028394444 -0.03693682 -0.052052855
0001b0 89 bf 31 3d bb 18 1c bd c1 b9 3b bd 39 4a db bc
       0.043395553 -0.038109522 -0.045831446 -0.02676879
0001c0 d9 d2 3f bd ee 74 1b bb 65 2d 38 3d 47 d8 1a bd
       -0.04683194 -0.0023720819 0.044965167 -0.037803914
0001d0 81 11 5a bd 3e 5b 4e bd 93 97 1f bd dd 42 19 3d
       -0.05323935 -0.050379984 -0.03896291 0.03741728
0001e0 9e 6a 54 bd 99 84 4d bd 27 42 ef bc 6b 62 47 bd
       -0.05185949 -0.050175283 -0.029206349 -0.048677843
0001f0 7c 6a 54 bd 83 53 5b 3d 13 d4 f0 3c 93 a8 27 bd
       -0.051859364 0.05354644 0.029398 -0.04093225

dist.dst_type_linears.2.bias f4 [2]
000000 3b 1c e8 3c 37 1c e8 bc
       0.028333774 -0.028333766
