route_dev/drl-or/model/test/agent6.pth (torch, 211205 bytes, 31 tensors)

base.actor.0.weight f4 [64, 321]
000000 f0 d1 d8 bd 9a 2a 8e 3b af bd a2 3d 6a cb 1a 3c
       -0.105869174 0.0043385746 0.079463355 0.009447912
000010 aa 6b 41 3e b4 ab 51 bc 87 71 2b 3d 59 68 03 bd
       0.18888727 -0.012797285 0.041856315 -0.032081936
000020 6b 5f 1a 3d 1f ca a4 3d b3 0b 91 bd 32 9c 90 3d
       0.037688654 0.08046364 -0.070823096 0.07061042
000030 a8 40 25 3d 4a a0 ba bd 48 63 86 3e 90 61 83 3d
       0.040344864 -0.09112604 0.2624762 0.06415093
000040 c6 63 9c 3d a4 14 d7 3d 94 8d 0c be c5 f8 06 3e
       0.07636218 0.10501984 -0.13725883 0.13180836
000050 0d b9 81 bc 90 20 54 3d 91 7f e0 3b a8 c6 58 3d
       -0.01583531 0.051788867 0.0068511446 0.05292383
000060 f1 80 27 3d ef c6 36 bd 92 44 f1 3b 14 65 8a 3b
       0.040894452 -0.04462331 0.0073629105 0.004223475
000070 ea d4 21 3d 57 22 20 bd fe 58 11 bd f0 36 d6 3b
       0.03950969 -0.03909525 -0.03548526 0.006537311
000080 94 99 80 bd dc 0d 36 3d eb a2 c2 3d ed cb a1 bd
       -0.06279293 0.04444681 0.095037304 -0.07900224
000090 db d8 de bc 3e e9 9b 3c f5 47 ee 3d 0a 76 61 3d
       -0.027203014 0.019032117 0.116348185 0.05504421
0000a0 0e e2 1e be f5 38 ae bc 89 3c ce bc f5 c8 68 3d
       -0.1551592 -0.021267394 -0.02517535 0.056832273
0000b0 c5 4f 26 be b3 fd d6 3d 8c 1e 20 3e c3 d3 f5 bd
       -0.16241367 0.10497608 0.15636653 -0.12003281
0000c0 64 b8 1d 3e 43 85 31 3d 24 90 8c 3d 83 74 17 bd
       0.1540237 0.04333998 0.0686343 -0.03697635
0000d0 b2 e0 2a 3e 43 dc 96 3d ca f8 05 be 19 e9 55 bd
       0.16687277 0.0736623 -0.13083187 -0.052224252
0000e0 08 48 a7 3b c4 e8 9b 3c b0 25 83 3d c6 bb 5c 3d
       0.0051050223 0.01903189 0.06403673 0.053890012
0000f0 f8 43 c0 3d 14 ab 31 bd 77 66 1b bd f7 36 26 3d
       0.09387964 -0.043376043 -0.037939515 0.040579762
000100 7c 97 13 bc c4 81 11 3d 0a 1a c1 3c 65 de fc bd
       -0.009008285 0.035524145 0.023571987 -0.12347106
000110 ef ca b2 bd 37 88 ea bd 08 6c d8 bc ea c0 e3 bd
       -0.08730113 -0.11451762 -0.0264187 -0.1112078
000120 57 a2 e8 bb 8e 9c b3 3c e7 1f 97 3d 4d d8 73 bd
       -0.0070994305 0.021925237 0.07379132 -0.059532452
000130 72 62 32 bd 7e d9 e9 3c f2 e4 e7 bc 19 26 64 bd
       -0.043550916 0.028546091 -0.028307412 -0.055700395
000140 02 37 b2 bb 23 fd 2e 3d 03 ae f8 3d ad bc 39 3d
       -0.0054386863 0.04272188 0.12142565 0.04534595
000150 44 ac 9b bd ed 0d 6e 3c 0a a5 1b be 30 0a 0c bc
       -0.076012164 0.014529687 -0.15199676 -0.008547351
000160 44 99 75 3b dd f6 0f 3d 6e d8 b3 bd 09 f2 aa bd
       0.0037475387 0.035147537 -0.08781515 -0.08346946
000170 2a 3a 72 3b ef 36 b3 3d a2 be 05 be 14 26 ab bd
       0.0036960938 0.08750712 -0.13061002 -0.08356872
000180 3a 81 1d bd 31 4c 07 bd b0 4f 2c bd 72 65 51 3d
       -0.03845332 -0.033031646 -0.042068183 0.051122136
000190 85 81 f1 3d 29 92 e0 bd d3 68 93 bd 33 b4 d4 bb
       0.11792282 -0.10965378 -0.07197728 -0.006491208
0001a0 22 f9 47 bc 47 9c 90 bd ce 81 3a 3d ef 82 8e 3c
       -0.012205394 -0.070610575 0.045533948 0.017396418
0001b0 92 39 b0 bc 81 d5 ba bd d7 be 11 3d f2 dd 84 3d
       -0.021511827 -0.09122754 0.03558239 0.06487645
0001c0 01 f2 1b 3e a9 d4 b5 3c 0d 3e ad 3d 29 71 c1 3a
       0.15229036 0.02219613 0.08459101 0.0014758456
0001d0 65 4a 4d bd ef a4 e9 bd 0d 1a 88 3c 7c 4e b0 bd
       -0.050119776 -0.11408412 0.016613984 -0.0860872
0001e0 7f 23 77 bc c6 9a 35 3d 69 40 1c 3d 25 ed 55 3d
       -0.0150841465 0.044337057 0.038147364 0.05222811
0001f0 c2 c1 ba 3a 82 76 05 bd e9 16 63 bc f5 c4 10 39
       0.0014248418 -0.03258372 -0.013860443 0.00013806282
000200 01 1a 97 bc 78 e0 a9 bc 1f e7 d1 3c 63 27 89 ba
       -0.018445017 -0.020736918 0.025622902 -0.0010464009
000210 25 0e 13 3e 33 9c b7 bd c8 8c ac bd 2d 01 9b bd
       0.14360864 -0.089653395 -0.084252894 -0.07568584
000220 67 0d f6 3d 54 6d 1b 3c 07 00 ab bd 18 56 42 be
       0.12014275 0.009486515 -0.083496146 -0.18978155
000230 bf f4 d6 bc cd de 85 3c b4 91 ef bd 69 90 64 ba
       -0.02623975 0.016341591 -0.116977125 -0.00087190286
000240 8e 9e f0 bc 24 ca ff bc f5 7a 81 bc 8a 4a 51 bd
       -0.02937248 -0.031224318 -0.0158057 -0.051096477
000250 ae 32 94 3c 3a f9 2f 3d 6a bd e7 bc e4 70 93 bd
       0.018090572 0.04296229 -0.028288562 -0.071992666
000260 89 7d cf 3d 8a d0 40 bd 58 62 b1 3d b3 86 4c bd
       0.10131366 -0.04707388 0.08661336 -0.049933147
000270 7c ce 01 be 34 45 00 bd e2 f0 93 3d b9 c1 70 3d
       -0.12676424 -0.031315997 0.07223679 0.0587785
000280 d7 74 8c 3e 68 43 30 bd d3 4e d9 bd ad 5c 1f bd
       0.27432892 -0.043033034 -0.10610738 -0.038906742
000290 ae 2c 4d bc ac bf 67 bd 7d ef 52 3d 3b d2 16 bd
       -0.0125228595 -0.056579277 0.051497925 -0.036821585
0002a0 f6 4e bb 3d f9 57 c2 3d 3f 77 14 bd 79 de 15 3e
       0.0914592 0.09489436 -0.036246534 0.14635648
0002b0 db c5 17 bd b9 ea 9c 3d 46 16 b7 3c ed f3 57 3d
       -0.037053924 0.07661957 0.022349488 0.05272286
0002c0 82 4f be bd 43 41 9f 3d 7d 34 2a 3e 1f dd 8b 3d
       -0.09292509 0.077761196 0.16621585 0.06829285
0002d0 28 34 7a 3c 44 21 68 3c b5 47 69 3e f5 e5 00 3a
       0.015271224 0.014168087 0.2278126 0.0004917079
0002e0 8c 4c bf bd aa a4 e1 bd 27 0a 06 3d e8 c2 06 3d
       -0.09340772 -0.11017735 0.032724526 0.03290072
0002f0 d8 1c 11 bc 38 77 ac bc a0 14 ab bc 32 bc 9f bb
       -0.008856975 -0.021052942 -0.020883858 -0.0048747296
000300 9d 5c 5f bd d0 4b 5a bc b1 2c bc 3d a0 5e 46 3d
       -0.054531682 -0.013323739 0.09188212 0.048430085
000310 b2 05 fa bc 9a 2c 6c bd 6d 8b aa bc 1c ee 15 bd
       -0.030520294 -0.057659723 -0.020818437 -0.036604032
000320 6d 52 21 3d 04 57 db bd a6 e3 37 3e b3 d2 be 3d
       0.039385248 -0.10709956 0.17957935 0.093175314
000330 c7 4d ba bd ae ea 99 3c 17 29 8b 3c fa 48 78 3d
       -0.09096866 0.018788662 0.016987367 0.06061647
000340 eb 97 1b be a9 f2 b0 38 1d 77 4e bd 48 ab 3f bd
       -0.15194671 8.437533e-05 -0.050406564 -0.046794206
000350 db fa af bc a9 e9 4d bd 0a 9d 0c be ed 34 a4 3d
       -0.021481922 -0.050271664 -0.1373178 0.08017907
000360 78 e9 81 bd 59 b3 77 bd 8d 03 47 3c 47 1c 20 3e
       -0.06343359 -0.060473774 0.012146843 0.15635787
000370 45 5f a5 3c d6 05 3e bd 15 64 44 3d 64 42 ab bc
       0.02018703 -0.046392284 0.04794701 -0.020905681
000380 1d 5b 03 be 7d 7b 4c 3d 5e 5f 1d 3d e6 6c 08 3d
       -0.12827726 0.049922455 0.038421027 0.03330698
000390 f9 a7 d7 bd 24 75 f1 bd a7 56 45 be b3 18 39 3d
       -0.10530085 -0.11789921 -0.19271336 0.04518957
0003a0 86 81 00 3e 6b c2 22 be 7b a9 06 3c 32 cc 98 3c
       0.1254941 -0.15894477 0.008219118 0.018652055
0003b0 ba df 86 3d f5 3c 87 bd cc f8 07 bd 27 4b f3 3d
       0.06585641 -0.066034235 -0.033196256 0.118795685
0003c0 62 ca e6 bd 33 e2 4d 3d 6d 46 a7 3b e3 23 1b bd
       -0.1126907 0.05026455 0.005104831 -0.03787602
0003d0 94 e6 74 3d ad 74 b3 3c f4 36 53 3b 93 b1 ed bb
       0.05979021 0.021906221 0.00322288 -0.0072538345
0003e0 1f 50 4f bd 7b f2 c3 bd f5 05 6b bd 18 76 2f 3c
       -0.05061352 -0.09567734 -0.057378728 0.010709308
0003f0 f7 e1 70 bd 72 72 02 be ab e6 11 bd 9e 7b 02 bd
       -0.058809247 -0.1273897 -0.035620373 -0.03185617

base.actor.0.bias f4 [64]
000000 00 00 00 00 70 cf e3 b2 00 00 00 00 00 00 00 00
       0.0 -2.652061e-08 0.0 0.0
000010 00 00 00 00 00 00 00 00 00 00 00 00 00 00 00 00
       0.0 0.0 0.0 0.0
000020 00 00 00 00 00 00 00 00 00 00 00 00 00 00 00 00
       0.0 0.0 0.0 0.0
000030 00 00 00 00 00 00 00 00 00 00 00 00 00 00 00 00
       0.0 0.0 0.0 0.0
000040 00 00 00 00 00 00 00 00 00 00 00 00 00 00 00 00
       0.0 0.0 0.0 0.0
000050 00 00 00 00 00 00 00 00 00 00 00 00 00 00 00 00
       0.0 0.0 0.0 0.0
000060 00 00 00 00 00 00 00 00 00 00 00 00 00 00 00 00
       0.0 0.0 0.0 0.0
000070 00 00 00 00 00 00 00 00 00 00 00 00 00 00 00 00
       0.0 0.0 0.0 0.0
000080 00 00 00 00 00 00 00 00 00 00 00 00 00 00 00 00
       0.0 0.0 0.0 0.0
000090 00 00 00 00 00 00 00 00 00 00 00 00 00 00 00 00
       0.0 0.0 0.0 0.0
0000a0 00 00 00 00 00 00 00 00 00 00 00 00 00 00 00 00
       0.0 0.0 0.0 0.0
0000b0 00 00 00 00 00 00 00 00 00 00 00 00 00 00 00 00
       0.0 0.0 0.0 0.0
0000c0 00 00 00 00 00 00 00 00 00 00 00 00 00 00 00 00
       0.0 0.0 0.0 0.0
0000d0 00 00 00 00 00 00 00 00 00 00 00 00 00 00 00 00
       0.0 0.0 0.0 0.0
0000e0 00 00 00 00 00 00 00 00 00 00 00 00 00 00 00 00
       0.0 0.0 0.0 0.0
0000f0 00 00 00 00 00 00 00 00 00 00 00 00 00 00 00 00
       0.0 0.0 0.0 0.0

base.actor.2.weight f4 [64, 64]
000000 ba 24 c0 be f1 d3 22 be 0c 91 ed bc b5 8c 82 3e
       -0.3752802 -0.15901162 -0.028999828 0.25497976
000010 7b 1f 4c 3d 5a c3 51 3e 80 c1 83 be 36 f0 40 bd
       0.04983471 0.20484677 -0.25733566 -0.047104083
000020 10 ea ac be bf fb 24 be b8 5a a3 be 31 b2 7e 3d
       -0.33772326 -0.16111659 -0.3190515 0.062181655
000030 14 ad b6 bd 46 3c 8c be 83 b8 9b 3e b6 e1 e4 3d
       -0.08919731 -0.27389735 0.3041421 0.111758634
000040 40 46 2b be fe f8 1d bd 23 0a 3f be 3a d5 89 be
       -0.16726017 -0.038567536 -0.1865621 -0.2692049
000050 1e 52 c6 bd 4c 12 b3 3d ea 09 4e 3e f9 d8 26 be
       -0.09683631 0.08743724 0.2012097 -0.16293706
000060 c5 cc 8f bd de 5a 4c be 6b 85 c8 3d 82 7e be 3c
       -0.070214786 -0.19956538 0.097910725 0.023253683
000070 9d 00 04 3e 29 b9 9b 3d a9 03 25 3d f1 5b 0a 3e
       0.12890859 0.07603676 0.040286694 0.13511635
000080 4e 9b 21 3e 0c cb 00 3e 95 2f 1a 3e bd 6f 95 3e
       0.157819 0.12577456 0.15057214 0.29186812
000090 32 ae 2a 3e 7c cb 23 3e 4c e9 86 bc 34 21 cf 3e
       0.16668013 0.15995592 -0.016468666 0.4045502
0000a0 72 6c da 3c 28 f6 5a be 9e a9 00 be 85 eb db bd
       0.026663039 -0.21382964 -0.12564704 -0.10738281
0000b0 39 05 4c bd 1d 7d d9 be 97 8b 82 bd 47 d8 bd ba
       -0.04980967 -0.42478266 -0.06374281 -0.0014484011
0000c0 76 ba 18 be ae 20 0b 3e cc 7a 2b be 0f 2c 5b be
       -0.14914879 0.13586685 -0.16746062 -0.21403526
0000d0 e0 43 df bd d3 d2 ca bd 63 5b 8e bd 64 3a 43 bc
       -0.10901618 -0.09903493 -0.069510244 -0.011915777
0000e0 20 a8 10 be 8b 88 92 be 40 ff 26 be 5d b0 7d 3e
       -0.14126635 -0.286198 -0.16308308 0.24774309
0000f0 6d 2b e2 bd 56 de 07 3d 79 a3 fe 3d 4c 7d 62 39
       -0.11043439 0.03317102 0.12433524 0.00021599716
000100 5f ed b4 be 43 7e 96 3e 23 59 fa bd 4b 01 b0 bd
       -0.3533735 0.29393205 -0.12224033 -0.085939966
000110 b3 22 93 b8 58 c8 a7 3e 66 a3 2e 3e 3b d0 50 bd
       -7.0159695e-05 0.32770038 0.17054519 -0.050979834
000120 e8 0e 48 bd 12 4e c2 3c 84 f0 52 be 5a 00 bb 3e
       -0.04884234 0.023718867 -0.20599562 0.36523706
000130 02 a4 6b bb 7c ee 25 be 66 89 57 3e 00 50 d1 bc
       -0.003595591 -0.16204256 0.21048507 -0.025550842
000140 57 8a 9b bd ab 74 a1 3d 73 15 e3 bd 58 b8 05 3d
       -0.075947456 0.07883581 -0.110880755 0.032646507
000150 09 f1 ab 3d 89 45 cb bd 4b 69 b9 bd 8b 0d d3 3b
       0.08395583 -0.09925372 -0.09053286 0.0064408234
000160 b0 d8 79 3c d4 18 71 3e c4 45 6a be 82 55 42 3c
       0.015249416 0.23544627 -0.22878176 0.011861207
000170 ef e9 bc 3d 04 65 a9 bc af 2f 22 3e 2f 84 a3 be
       0.09224307 -0.02067805 0.15838502 -0.31936786
000180 35 f1 22 3e 55 23 43 bd 11 86 fa 3d 34 b6 a0 3c
       0.15912326 -0.047641117 0.122326024 0.019618131
000190 fa 7a 11 bd 98 f7 a1 be a0 b6 51 be 2c 59 fd 3c
       -0.03551767 -0.31634212 -0.20479822 0.03092631
0001a0 00 86 4b 3e 17 ac 88 bd a6 3e b3 3c 71 dc fc bd
       0.19875336 -0.066734485 0.021880459 -0.12346733
0001b0 66 fb 5e be 4d d7 91 bd 43 2a be bd a0 be 9c 3e
       -0.21775588 -0.071211435 -0.092854045 0.30614185
0001c0 c5 ae f6 3d 09 75 f1 bd 07 db 6e 3d ef f1 cc 3e
       0.120450534 -0.11789901 0.05831435 0.4002833
0001d0 8f 82 e7 3d c5 bc c3 bd 7e d3 61 be f5 6f fa 3d
       0.11304199 -0.09557489 -0.22053334 0.12228385
0001e0 c1 b1 54 3e 5b 03 f3 bd 86 f1 92 3e e6 3c 27 be
       0.20770933 -0.118658744 0.28699893 -0.16331825
0001f0 2e f1 6c 3e 74 8a 83 be c5 19 e6 3e 62 d4 4c bb
       0.23138878 -0.2569157 0.44941536 -0.003125452
000200 a6 eb bb 3e ba e5 56 3e bf ca ab bd b5 4c 02 3e
       0.36703223 0.20986071 -0.0838828 0.12724574
000210 91 63 6e 3c e0 15 ae be fc 05 de 3d ae c6 89 3e
       0.014550106 -0.34001064 0.10840985 0.26909393
000220 7f 16 0f be b7 77 58 3c 96 67 10 3e 42 a2 ad be
       -0.13973425 0.013212136 0.14102015 -0.33912855
000230 77 5b ca bd 97 60 a1 3e 97 d2 2a 3b d3 00 b9 3e
       -0.09880727 0.31519005 0.0026065463 0.3613344
000240 b9 92 db bd ab 8a eb bd e1 70 03 be d9 ee 03 3e
       -0.107213445 -0.11501058 -0.12836029 0.12884082
000250 e3 02 08 bd 79 57 f3 3d fb f8 b3 3d cb 87 e9 3d
       -0.033205878 0.118819185 0.08787724 0.114028536
000260 5a 75 da 3c 16 32 c7 3e a8 fb 76 3c c3 ac cf 3d
       0.026667286 0.389054 0.015074648 0.101403736
000270 1b 77 9f bc 45 de 06 3e 31 32 df 3d 93 c1 09 bd
       -0.019465974 0.13170727 0.10898245 -0.033631872
000280 7d fb ed 3d 92 f6 df 3a 7e 51 5d bd 83 c2 70 3e
       0.11620233 0.0017087033 -0.054032795 0.235117
000290 bd 4a ae bc 33 63 13 be 7d 77 57 3e c0 14 bf 3e
       -0.021275872 -0.1439331 0.21041675 0.37320518
0002a0 9f 81 74 be 0f e3 1f bc ad 6b 27 3e 71 e0 78 be
       -0.23877572 -0.009758725 0.16349669 -0.24304368
0002b0 b9 08 bf 3d 15 e3 bd bd ca 7e 3f bc d2 22 d2 3c
       0.093278356 -0.09271828 -0.011687944 0.02565137
0002c0 a8 11 2b bd 26 05 35 3d ed 63 ba be 15 2d 39 3e
       -0.041764885 0.044194363 -0.36404362 0.18083604
0002d0 43 e0 6b be 07 56 94 3e ab 75 66 be 26 12 92 bd
       -0.23034768 0.28971884 -0.22505824 -0.07132368
0002e0 1a a6 2d bd 2b 4b a5 bd 07 c8 8a bd f1 eb 87 be
       -0.042394735 -0.08070978 -0.067764334 -0.26547197
0002f0 58 11 88 3e ed 37 00 3e 17 99 3c 3e f1 23 f5 3d
       0.26575732 0.12521334 0.18417774 0.11969746
000300 d7 69 e2 be 4b 0c 8a be d4 32 03 3e c6 75 d4 bd
       -0.44221374 -0.26962504 0.12812358 -0.10374026
000310 e8 fc ad 3d 75 31 b7 be f0 21 2e bc 2b 97 b6 3d
       0.08495504 -0.3577992 -0.0106282085 0.08915552
000320 5e dc 83 be 39 95 31 be 25 a1 4f 3e 50 9c af bd
       -0.25754064 -0.1734208 0.20276316 -0.08574736
000330 12 45 ab 3d 79 88 02 bd ad 19 a9 be 03 b0 46 3d
       0.083627835 -0.03186843 -0.33027402 0.0485077
000340 32 26 bb 3c 14 53 ae be 26 b1 e4 bd 98 17 9d bc
       0.022845361 -0.3404776 -0.11166601 -0.01917629
000350 e2 48 ea bd 17 7e fe bd 18 61 ae bd 82 05 cc 3d
       -0.114396825 -0.124263935 -0.08514613 0.09961988
000360 2e bb ac bc a9 60 3f be bc 2b 9b 3d ed 0c a0 3c
       -0.021085348 -0.18689217 0.07576701 0.019537413
000370 6d 4a d9 bd 9d 9c 03 be cf 93 fe 3d b7 fd 6d be
       -0.10609899 -0.12852712 0.12430536 -0.23241316
000380 33 73 27 3e 87 fd 05 3e 82 71 ab be 47 71 12 bd
       0.16352539 0.13084994 -0.33485037 -0.03575256
000390 8c 83 a0 3e af 5d 45 3d 69 fc 13 3e 26 49 91 be
       0.31350362 0.048185047 0.14451756 -0.2837612
0003a0 81 e7 04 be 52 f0 eb bd 37 9b a1 3e 7c a6 28 bc
       -0.12978937 -0.11520447 0.31563732 -0.010293599
0003b0 1b da 8b 3d c8 b6 78 bd cf 28 28 be a3 a6 15 3e
       0.0682871 -0.06072119 -0.16421817 0.14614348
0003c0 74 f0 94 be 02 8e 9b bd bd f7 0f be 87 be 61 3e
       -0.290897 -0.07595445 -0.14059348 0.22045337
0003d0 30 54 84 3b 1b b4 38 be 24 65 03 bd fd 3a 49 3e
       0.0040383562 -0.18037455 -0.032078877 0.19651408
0003e0 eb 09 02 3e b4 7a 8e 3e db dd 1b be c3 7a 43 3d
       0.12699096 0.2782799 -0.1522135 0.047724497
0003f0 ba 33 c3 3e 19 4e 30 bd 49 89 41 bd 75 b5 2e be
       0.38125402 -0.04304323 -0.047250066 -0.17061408

base.actor.2.bias f4 [64]
000000 3c 6b d4 bc cc aa ed bc 29 77 f8 3c 81 2f eb 3c
       -0.02593004 -0.029012106 0.030330257 0.028709175
000010 c1 5d a7 bc 59 2e f6 bc 84 04 f1 3c eb c1 fa 3c
       -0.020430448 -0.030051397 0.029421099 0.030610045
000020 f9 52 03 3d be a7 8b 38 26 ae ac 3c bb 7e bd bc
       0.03206155 6.659281e-05 0.021079134 -0.023131719
000030 f2 73 c8 bc 83 39 ed bc 81 1b fc 3c 7b 14 4a bc
       -0.02446935 -0.028958088 0.030774834 -0.0123339845
000040 df 28 ff bc d8 ee 6a 3c da 7a e4 3c e0 1a e4 3c
       -0.031147419 0.014339171 0.027890611 0.027844846
000050 c8 3d e2 bc 83 55 b6 bc f3 72 ef bc 70 14 fe bc
       -0.02761735 -0.022257572 -0.029229617 -0.031015605
000060 b4 99 04 3d ac 9d 69 3c 7d a4 2c bc 0f cb 1f bd
       0.032373145 0.014258783 -0.010537264 -0.03901201
000070 8d 94 21 bd 12 a0 21 bd 7d 2a dd bc a7 28 02 3d
       -0.03944831 -0.039459296 -0.026997799 0.03177705
000080 83 90 70 bc 5f 89 c8 3c 16 dc 2d bc 06 ce 57 bc
       -0.014682892 0.024479566 -0.010611555 -0.013171678
000090 f5 e5 8d bc a7 e9 d7 3c 18 ad f5 3c 15 81 e9 bc
       -0.017321566 0.026356531 0.029989764 -0.028503934
0000a0 49 88 89 bc 44 74 e4 bc 4f 0c 0b bb ac 43 c8 bc
       -0.016788619 -0.027887471 -0.0021217053 -0.024446331
0000b0 7e 5c ef 3c c4 c8 26 3d e9 fc 1c bc 9d 98 aa bc
       0.029218908 0.04071881 -0.009581783 -0.020824725
0000c0 c5 93 70 bc 43 cd 8c bc 0f d8 a6 bc 74 b6 a7 3c
       -0.0146836685 -0.01718772 -0.020366697 0.020472743
0000d0 ca a7 da 3c fe c0 e9 bc e1 3c f6 bc af b4 c9 bc
       0.026691336 -0.028534409 -0.030058326 -0.02462229
0000e0 d4 24 5c 3c d4 92 e6 bc 3e a4 e9 bc da 9b c4 3c
       0.013436515 -0.028146185 -0.0285207 0.024000097
0000f0 34 68 b4 bc d4 9a 97 3c ed 21 9f bc da ad a5 bc
       -0.022022344 0.018506445 -0.019425357 -0.0202245

base.critic.0.weight f4 [64, 310]
000000 b4 dc 8b bd f8 ac 8b bd 45 07 ed 3d cc 96 bd bb
       -0.06829205 -0.068201005 0.11573652 -0.0057857987
000010 d1 78 de bc 86 9c 1e 3d 15 f1 09 3c 1d bb 1e bd
       -0.02715722 0.03872349 0.008419295 -0.038752664
000020 39 ce 92 ba dd 84 c7 3d 82 f4 3f be ca 22 42 bd
       -0.0011200375 0.097421385 -0.18745616 -0.04739646
000030 c5 42 c7 bc 46 ff 1d bd 36 15 b2 bc 8e 01 2b 3d
       -0.02432383 -0.038573526 -0.02173863 0.04174953
000040 66 f1 10 3e 3b bc c1 bc a8 46 b6 3d c9 02 cb 3d
       0.14154586 -0.023649326 0.08900195 0.099126406
000050 c2 3d e2 3c b0 6e 67 3c 1b 60 6f bc a0 88 fe 3d
       0.027617339 0.014125511 -0.014610316 0.12428403
000060 25 ae 79 3d ba e5 9e bd e3 1f 65 3d b1 b8 67 3d
       0.060957093 -0.077586606 0.055938613 0.05657262
000070 24 84 e5 3d e0 85 1d 3e 57 12 86 bd fc 7b a9 3b
       0.112068444 0.153831 -0.06546467 0.005172251
000080 9f 58 22 3e 59 fa ee 3d 04 21 52 bd 69 e7 2b 3c
       0.15854119 0.11668844 -0.051301017 0.010492184
000090 64 a6 de 3c 9f 07 c6 3d 14 d6 00 3e 3c 83 dc bd
       0.02717895 0.09669422 0.12581664 -0.107672185
0000a0 57 21 8f 3d 2c 12 0a be 05 32 d5 3c b3 6d e0 3d
       0.06988781 -0.13483495 0.026024828 0.109584235
0000b0 f9 0c 8f bb 3a 9b 8b 3d 2c c1 c1 bd c9 70 9d 3d
       -0.00436556 0.068167165 -0.09460673 0.07687528
0000c0 b8 45 01 3d dc c1 9d 3c e6 a6 58 bd 81 33 e8 3c
       0.03156063 0.019257478 -0.05289354 0.028344871
0000d0 71 5b c8 bc cf a8 94 bd d4 e3 ce bc 6f 2b 3f be
       -0.024457665 -0.0725876 -0.025255121 -0.18668912
0000e0 8d 12 b5 3b 5e 10 40 bc a7 6c 4b bd 5c a4 98 3d
       0.005525893 -0.011722652 -0.049664166 0.07453224
0000f0 3e 1c c3 3d 31 4c bf 3d be 2a 10 3c 29 a5 3f 3b
       0.09526871 0.09340704 0.008799253 0.002924273
000100 7b f6 89 3d 88 6b 39 bd 74 00 da bd b2 61 7d 3b
       0.067364655 -0.045268565 -0.10644618 0.0038662967
000110 b5 16 d9 bd 27 75 21 be 45 15 cb 3c cb de a8 bc
       -0.10600034 -0.15767346 0.024790416 -0.020614048
000120 62 ab 97 bd ad 13 0f 3e 03 a0 27 bd 4e 85 22 3c
       -0.074057356 0.1397235 -0.040924083 0.009919478
000130 85 49 e7 bd 58 d4 e7 bd 08 5d 84 3c 2f 9c 84 bc
       -0.112933196 -0.11319798 0.016157642 -0.016187755
000140 ab c1 06 3d ea 7d f8 bb 87 ee fa bb 1c 83 92 bd
       0.03289954 -0.0075833695 -0.007657829 -0.071539134
000150 4f 49 a4 3d 3c fc e4 bd 00 77 38 be 9b a8 39 3d
       0.08021795 -0.111809224 -0.18014145 0.04532681
000160 49 fc a4 bd 80 a7 a1 3d 61 f4 bc 3d 0c ee 99 3d
       -0.08055932 0.07893276 0.09226299 0.07516107
000170 66 29 ca 3c 51 6a 98 bc 50 27 44 3d e3 73 85 3d
       0.024677943 -0.018605383 0.047889054 0.06516244
000180 82 d0 62 3d b3 fd 45 bd 5d 07 0a bd c8 39 d8 bd
       0.05537463 -0.04833765 -0.03369843 -0.10557896
000190 c9 ee f4 3d 49 c2 6b 3e f8 ed dc 3b 68 67 b2 3b
       0.11959607 0.23023333 0.0067422353 0.005444456
0001a0 84 ab 84 3d 3e 8c 2a bc db c3 18 3e 9e e8 4e bc
       0.064780265 -0.010409413 0.14918463 -0.012628702
0001b0 d3 22 af 3c 70 fd 78 bd 2f 3a 6c 3d 84 17 eb bc
       0.02137891 -0.06078857 0.057672676 -0.028697737
0001c0 60 0a 8a 3d 97 ce 0f b9 66 ba 70 3d fb e2 97 bd
       0.0674026 -0.00013714503 0.058771513 -0.0741634
0001d0 f7 8a 82 bd 74 bf 68 bd 14 fe 8e bd 9f e4 96 bd
       -0.06374162 -0.05682321 -0.06982055 -0.07367825
0001e0 58 1c 81 bb 4d 44 35 bc 60 f6 7c 3c b8 4c b2 bb
       -0.0039401464 -0.011063647 0.0154396 -0.0054412745
0001f0 7c a2 e1 bb 87 34 af 3d 71 fb 9c 3d 19 86 fe bd
       -0.0068858247 0.08554941 0.07665146 -0.12427921
000200 96 5c dd 3d 8a 1a 15 be 26 09 b3 bd da 02 34 bd
       0.10808675 -0.14560905 -0.08741979 -0.043948032
000210 68 43 c9 bb ef c0 31 bd ab 26 8c 3b cc 75 67 3d
       -0.0061420687 -0.043396886 0.0042770705 0.056508824
000220 9a 05 bd bc c4 77 2e bd 32 cf b2 bd 4f e7 d0 3d
       -0.02307396 -0.042594686 -0.087309256 0.102003686
000230 4b f3 47 bd 50 9b c4 3d 83 16 63 bc b2 bc c3 3d
       -0.048816007 0.09599936 -0.013860348 0.09557475
000240 0f e4 f4 3d c5 c4 96 bc dd bc e2 bc 77 e2 e8 bd
       0.11957561 -0.018404374 -0.027677948 -0.1137132
000250 94 e4 b1 bd 7e 70 f7 3c 52 00 f0 3d b3 9f 9f bc
       -0.08686176 0.030205008 0.11718811 -0.01948533
000260 c3 98 41 3d b4 fc 3d 3a 73 20 f4 bd 5f 2d 51 3e
       0.047264826 0.00072474335 -0.11920252 0.20427464
000270 de c1 16 3d 54 01 a8 bc 4d 79 ac bd 83 fd 13 3b
       0.03680598 -0.020508446 -0.08421574 0.0022581525
000280 48 08 4a 3d 49 02 05 3e 3f 7c 1f be 13 89 cf 3c
       0.049324304 0.12989153 -0.1557474 0.025333917
000290 a4 70 de bd 95 ef df bd 97 17 20 3e d2 c7 2f be
       -0.10861328 -0.109343685 0.15633999 -0.17166069
0002a0 64 7f de 3d 0f be 6a 3c 8c 94 c6 3b 24 2b d1 3d
       0.108641416 0.01432754 0.0060601886 0.102133065
0002b0 55 9b a1 3c 94 fd 30 3e db 33 0d 3c 10 bf c9 3d
       0.019727388 0.17284232 0.00861832 0.098508954
0002c0 46 4e 3d bd c8 0c ec bd 75 6e 78 3d 9c ac 54 3c
       -0.046217225 -0.11525875 0.060652215 0.012980606
0002d0 6a 1a a4 bd 82 a9 d1 bd 3f 39 9f be 9f 2a 8b bd
       -0.080128506 -0.10237409 -0.31098363 -0.06795239
0002e0 0f f8 88 bd e9 e6 0c bd 5d ec f4 3c 0b bb 08 be
       -0.066879384 -0.0343999 0.029897863 -0.13352601
0002f0 c0 b2 d6 3d 9f 35 9d 3d 23 cf b9 bc 01 55 8e bd
       0.104833126 0.07676243 -0.022681778 -0.06949807
000300 0c f4 ca 3d 4e 81 7f bd d0 e4 a8 bd d1 35 30 bc
       0.099098295 -0.062379174 -0.082467675 -0.010755018
000310 dd 50 e1 bb 4e 02 ae 3d 8f f9 30 3d e0 d3 a3 3d
       -0.0068760947 0.08496533 0.043206748 0.07999396
000320 51 2b dc bd 38 ae 9b bd 36 65 a8 bd 76 06 a9 3c
       -0.107504494 -0.07601589 -0.082224295 0.020632964
000330 e4 38 a3 bd 29 de 05 be 7a 00 2d 3d 4f 0c f8 3d
       -0.079698354 -0.13073029 0.042236783 0.12111723
000340 ab aa 3c bd 95 b2 37 3d 7c 9f 11 3e 25 60 63 3d
       -0.0460612 0.044848043 0.14220995 0.055511612
000350 45 a1 2f bb 75 ae f3 3d 95 75 e7 bc 1a 4b a6 bd
       -0.0026799005 0.118985094 -0.02825431 -0.08119793
000360 4c 8b 1a bc 88 d0 b8 3d 48 7b d2 bd 2d fa 81 bd
       -0.009432625 0.09024149 -0.1027742 -0.06346545
000370 da 97 02 3c 43 88 73 3d 76 72 5a 3d 2c 83 20 bc
       0.007970775 0.05945612 0.053331815 -0.009796899
000380 cf 92 22 bd fc de 29 3d a0 97 46 3e c6 ee 46 3c
       -0.03969079 0.04147242 0.19393778 0.012141889
000390 70 15 db bd 27 c5 a1 3d e7 5c d1 bd 46 8d b2 3b
       -0.10697448 0.07898932 -0.10222798 0.00544897
0003a0 61 26 b0 bd 8e 44 ad bd e1 f5 8b bc b7 78 ca ba
       -0.0860107 -0.084603414 -0.017085018 -0.0015447353
0003b0 e5 75 30 bc 85 2c 04 3a 7a 2e a9 bc dd 78 59 bd
       -0.010770296 0.00050420343 -0.020652045 -0.05309378
0003c0 59 83 15 bd a6 fd a1 3d 20 41 c3 bd 82 74 d3 3b
       -0.036502216 0.07909708 -0.09533906 0.006453098
0003d0 f3 69 05 be 0d f7 09 3d ea 14 cb bb e1 61 f0 bc
       -0.13028698 0.03368287 -0.0061975615 -0.029343547
0003e0 8d b3 7b bc 83 79 e0 bb 1e 32 26 bd 19 58 02 be
       -0.015362632 -0.006850423 -0.04057514 -0.12728919
0003f0 44 0d 55 bd 50 d0 d5 bb b1 74 ad bc e0 59 7d 3d
       -0.052014604 -0.006525077 -0.021173807 0.06185329

base.critic.0.bias f4 [64]
000000 00 00 00 00 00 00 00 00 00 00 00 00 00 00 00 00
       0.0 0.0 0.0 0.0
000010 00 00 00 00 00 00 00 00 00 00 00 00 00 00 00 00
       0.0 0.0 0.0 0.0
000020 00 00 00 00 00 00 00 00 00 00 00 00 00 00 00 00
       0.0 0.0 0.0 0.0
000030 00 00 00 00 00 00 00 00 00 00 00 00 00 00 00 00
       0.0 0.0 0.0 0.0
000040 00 00 00 00 00 00 00 00 00 00 00 00 00 00 00 00
       0.0 0.0 0.0 0.0
000050 00 00 00 00 00 00 00 00 00 00 00 00 00 00 00 00
       0.0 0.0 0.0 0.0
000060 00 00 00 00 10 96 97 b8 00 00 00 00 00 00 00 00
       0.0 -7.2281924e-05 0.0 0.0
000070 00 00 00 00 00 00 00 00 00 00 00 00 00 00 00 00
       0.0 0.0 0.0 0.0
000080 00 00 00 00 00 00 00 00 00 00 00 00 00 00 00 00
       0.0 0.0 0.0 0.0
000090 00 00 00 00 00 00 00 00 00 00 00 00 00 00 00 00
       0.0 0.0 0.0 0.0
0000a0 00 00 00 00 00 00 00 00 5c 76 87 39 00 00 00 00
       0.0 0.0 0.0002583739 0.0
0000b0 00 00 00 00 00 00 00 00 00 00 00 00 00 00 00 00
       0.0 0.0 0.0 0.0
0000c0 00 00 00 00 00 00 00 00 00 00 00 00 00 00 00 00
       0.0 0.0 0.0 0.0
0000d0 00 00 00 00 00 00 00 00 00 00 00 00 00 00 00 00
       0.0 0.0 0.0 0.0
0000e0 00 00 00 00 00 00 00 00 00 00 00 00 00 00 00 00
       0.0 0.0 0.0 0.0
0000f0 00 00 00 00 00 00 00 00 00 00 00 00 00 00 00 00
       0.0 0.0 0.0 0.0

base.critic.2.weight f4 [64, 64]
000000 85 d0 fb bd 48 38 48 be 7f 2b 88 be f2 19 fc bd
       -0.12295631 -0.1955272 -0.26595685 -0.12309636
000010 59 98 9d 3c ba 6c cd be 53 d5 ec ba d6 5e 33 bd
       0.019237684 -0.40122014 -0.0018068947 -0.043791614
000020 90 22 0c 3d 22 ad 43 bd cb 37 e7 bd 16 61 b5 bc
       0.03421265 -0.047772534 -0.112899385 -0.02214102
000030 0e 4a 41 be c1 d8 70 3e 22 46 fb bd 82 b1 a7 3c
       -0.18875906 0.23520185 -0.12269236 0.020470385
000040 c1 6f 71 3d 80 4b 2d bd 7a 27 4d bc 65 93 a8 be
       0.058944467 -0.04230833 -0.012521619 -0.32924953
000050 0a e8 41 3e 6d 1f cc bd 0b 5a ce 3e 7d b4 1b 3e
       0.18936172 -0.099669315 0.40303072 0.1520557
000060 dc 7e 32 3d 07 0d 5c be 7c 13 82 be f5 28 28 3e
       0.043578014 -0.21489345 -0.2540549 0.16421874
000070 f2 77 3a 3d 4d 5c 10 be 70 02 99 be 0d c2 61 3a
       0.045524545 -0.1409771 -0.29884672 0.00086119847
000080 c6 c6 95 3e 9a ee 02 be e9 34 c8 3e d1 14 9a 3d
       0.29253215 -0.12786332 0.39102867 0.07523502
000090 5b 16 f5 3d ec 9e 4f 3d da 81 69 3c 15 f5 90 be
       0.119671546 0.05068867 0.01425215 -0.28311983
0000a0 0b 1a 93 3d 0e b3 3a 3c d0 da bf 3d 96 9b 4b bd
       0.07182702 0.011395229 0.09367907 -0.049708925
0000b0 54 f5 62 3d 6b 85 31 be 2e ea 9f be 09 30 08 be
       0.055409744 -0.17336051 -0.31233352 -0.13299574
0000c0 f0 d5 4c bd cb b9 85 bd 7c 1d 6a 3d 4a 6f 8a b9
       -0.050008714 -0.06529578 0.057157025 -0.00026404328
0000d0 6c 85 51 bc 1f a7 89 3d 2a 42 98 3e 7b 79 3d 3e
       -0.012788158 0.06721329 0.2973798 0.18503372
0000e0 b3 94 e1 bd 7b 27 56 bc c1 c7 13 3e e6 66 fc bd
       -0.1101469 -0.013070936 0.14431669 -0.12324314
0000f0 2e 3b 90 be e4 0f 98 3e 6d 36 39 bc ab c4 9d be
       -0.2817015 0.29699624 -0.01130448 -0.30814108
000100 8d 1e 4b be 40 21 37 3e 3f b8 72 bd c3 58 47 3e
       -0.19835873 0.17883778 -0.059257742 0.19467454
000110 c5 61 8c 3e af cf 2a 3d 64 48 e3 bd 64 2d 5a 3e
       0.27418342 0.04170197 -0.11097792 0.21306378
000120 3c b2 a3 3d b0 45 c2 bd a7 c4 55 3d 7c 5f f8 3d
       0.0799298 -0.09485948 0.052189495 0.12127587
000130 5d 8c 46 bd 2a a4 59 be a1 17 23 3e 94 5a 01 be
       -0.048473705 -0.2125403 0.15926982 -0.12632209
000140 e4 27 5c 3e c7 4e 2b 3e 93 98 d2 bb 8d 9d 07 3e
       0.21499592 0.1672927 -0.0064268797 0.13243695
000150 ec 51 f9 3d 06 9a 95 bd 60 a4 eb 3c ec c1 de bd
       0.121738285 -0.07304768 0.028764904 -0.108768314
000160 9c 09 a3 bd f2 2a 04 be a7 5a 8f 3e a1 b0 18 be
       -0.07960817 -0.12907007 0.2799885 -0.14911129
000170 b6 e6 af 3d 5a c8 28 be 15 7f 34 bd f6 d0 ab bd
       0.085889265 -0.16482678 -0.044066507 -0.083894655
000180 2d 46 23 3e d3 24 86 3e c3 1d 3f 3e 3a 21 26 be
       0.15944739 0.2619997 0.18663697 -0.16223612
000190 3d b6 9e be dd a8 8b be fb 32 63 3e ff 26 31 be
       -0.30998412 -0.2727727 0.22187416 -0.17300032
0001a0 af a2 22 3d 81 49 9f be 17 42 06 be 55 51 5d be
       0.03970593 -0.31110767 -0.13111149 -0.21613057
0001b0 17 6e 93 be 48 85 8a 3c 46 38 1f 3e 3b 48 cb 3c
       -0.2879493 0.016909257 0.1554881 0.024814716
0001c0 48 50 11 3e ef 86 33 3e f6 c3 5e be b6 b8 61 3e
       0.14190781 0.17531942 -0.2175444 0.22043118
0001d0 cc 99 fa bd 36 99 20 be dc ba 8e 3d 45 20 0f be
       -0.12236366 -0.15683445 0.06969234 -0.13977154
0001e0 f3 e8 d4 be ad b8 2e be 1b 05 67 3e 81 cf 19 be
       -0.41583976 -0.17062636 0.22560541 -0.15020563
0001f0 cf 54 4d 3e 91 5d 86 3e 0e 99 1c be bf 85 4a be
       0.20051883 0.2624326 -0.1529276 -0.19777583
000200 20 66 a9 bd cb 16 95 be 14 bc d3 bd 38 80 88 be
       -0.08271432 -0.29118952 -0.103386074 -0.26660323
000210 5e 12 2e 3c 8b 39 52 bd 5d 32 ca be f7 9e b7 3c
       0.010624496 -0.05132441 -0.3949155 0.022414668
000220 c7 df c5 bd c5 89 35 3e 22 90 4e 3e d5 99 d8 3d
       -0.09661823 0.17728336 0.2017217 0.10576216
000230 05 21 23 bc bc bc 12 bd 9e 99 c5 be 31 7f 7f 3e
       -0.009956603 -0.035824522 -0.38593763 0.24950863
000240 84 d4 6a 3c 53 c7 44 be 1b 3e e9 bd b9 f3 f6 bd
       0.014332894 -0.19216661 -0.11388799 -0.12058205
000250 7e c5 5b 3e eb 64 b3 3d 7d 8c 61 be e0 78 90 be
       0.21462056 0.08759483 -0.22026248 -0.2821722
000260 42 24 f1 bd 4a 42 57 bc af f3 b1 3e 25 a8 4c be
       -0.11774494 -0.013138363 0.34756228 -0.19986017
000270 a4 3f cc bd 91 29 41 3c 4b f2 89 3e 78 56 56 3e
       -0.09973076 0.011789695 0.26942667 0.20931423
000280 18 c9 ab bd 9a 26 55 bc d1 ef 20 be 13 b9 9b 3d
       -0.08387965 -0.013009692 -0.15716483 0.076036595
000290 d5 57 05 3b 7a f5 0f be aa d6 b1 3d 9a 05 c9 bd
       0.0020346541 -0.14058486 0.08683522 -0.098155215
0002a0 f3 9b a5 be e3 ef 2f be 07 73 f5 3d f0 3e bf bc
       -0.32345542 -0.17181353 0.1198483 -0.02334544
0002b0 be 1b bd bd 91 66 aa be ca 0c 04 bf 24 bd 38 3e
       -0.09233807 -0.33281377 -0.51582015 0.18040901
0002c0 6e 46 6a 3e 5e 18 42 be b9 4d 9b bd 8e 49 fe bd
       0.2287843 -0.18954608 -0.07583184 -0.12416373
0002d0 d2 f3 fb bd 0a 56 d0 3d c1 08 2e bd 6b 2e 27 3d
       -0.123023644 0.10172661 -0.042488817 0.040815752
0002e0 f5 75 fe bc a3 a5 43 3d 85 1d 5a 3d 58 db 31 be
       -0.031062106 0.047765385 0.05325081 -0.17368829
0002f0 70 67 44 3e e7 24 47 bc f0 b6 32 3e 07 49 2e bd
       0.19180083 -0.012154794 0.17452598 -0.042550113
000300 ad bf 32 3e e7 18 34 be 02 30 a9 3d b9 8e 01 3e
       0.17455931 -0.17587624 0.0826111 0.126521
000310 a9 f8 5a be e0 75 1c bd 07 30 a4 3c 17 98 d4 3c
       -0.21383919 -0.03819835 0.020042432 0.025951428
000320 dd 5a 4b be 4f 3a 05 3e 62 11 a7 bd cd 12 46 be
       -0.1985888 0.13010524 -0.081576124 -0.1934311
000330 05 8a ab 3e fa 68 be 3e dd 49 21 be 5a b3 93 be
       0.33503738 0.37189466 -0.15750833 -0.28847772
000340 17 c3 57 3d 61 fa 04 3e e9 ee ea bd f0 f3 e2 3d
       0.052676287 0.12986137 -0.1147135 0.11081684
000350 73 39 d0 3d 5c 11 b7 bd 71 d6 55 3d 50 18 93 3e
       0.101672076 -0.08938858 0.05220646 0.28729486
000360 f2 72 25 3d 4d 40 b2 3d d3 47 13 be 03 79 b2 bc
       0.040392824 0.08703671 -0.14382868 -0.021786219
000370 ad 7c 0e 3e 23 9b ef 3d c7 29 8f 3e bf 6a 28 3d
       0.13914748 0.11699512 0.2796156 0.041117426
000380 bb 31 a7 3e 13 e2 88 bd 21 17 97 3d dd 73 d6 3c
       0.3265513 -0.06683745 0.07377458 0.026178295
000390 c6 ae ca 3b e5 64 ee 3d 10 19 ab 3e b5 55 23 3e
       0.0061853854 0.11640338 0.3341756 0.15950663
0003a0 79 85 34 be 46 a2 87 be f3 16 bb be 2f 90 3d be
       -0.17629041 -0.26490992 -0.36540946 -0.18512033
0003b0 15 a8 18 3d 3b 6f 04 3e 7f 4b 11 be 7f 85 04 3e
       0.03726967 0.12933056 -0.14188956 0.1294155
0003c0 bd a3 49 be 27 ec 35 be b5 9c 60 3d 0d f8 7d 3e
       -0.19691367 -0.17765866 0.054836947 0.24801655
0003d0 81 f4 5a be 46 09 e0 be 69 7b 2f bd 94 45 cb 3d
       -0.21382333 -0.43757075 -0.042842302 0.0992538
0003e0 87 cd 03 3d 9b 7a 83 bd 20 e1 ef bd e5 fc df bd
       0.032178428 -0.064198695 -0.11712861 -0.10936908
0003f0 19 18 82 3e 93 f9 05 be 22 4b 84 3d 77 06 2a be
       0.2540901 -0.13083486 0.06459643 -0.16604029

base.critic.2.bias f4 [64]
000000 fb f1 a9 ba 23 b4 a1 ba 53 4d 7b 3c 49 1e a5 bb
       -0.0012965793 -0.001233701 0.01533826 -0.0050390107
000010 eb 8c 8c bc 57 9d e3 bb 6f 72 8b 3c 99 08 67 3b
       -0.017157039 -0.0069462466 0.01702234 0.0035252927
000020 0c 39 ab 3c 81 6b de 3b 84 e2 35 bc cc 87 04 3b
       0.020901226 0.006787718 -0.011101369 0.0020222543
000030 96 a5 42 bc 0c 64 0c bc f7 92 fc bb 2b f4 c0 bb
       -0.011880299 -0.008568775 -0.0077079493 -0.005888482
000040 e0 8f cf bb 28 7a 82 b9 c1 43 d4 3b 24 e1 dc bb
       -0.00633429 -0.00024886546 0.0064778035 -0.006740706
000050 fa 3c fa bb fe 9e 08 ba fe 9d 9c 3c aa 81 db bc
       -0.0076366635 -0.000521168 0.019118305 -0.026795227
000060 d7 a7 01 bc 62 cc 08 3c 73 ec ad bb 5b 07 67 bc
       -0.007913551 0.00834951 -0.005307728 -0.014100875
000070 04 0d 78 bc bc ba ad 3b 06 ca 02 3c 69 c7 bb ba
       -0.015139822 0.0053018015 0.007982736 -0.0014326397
000080 7b 01 83 3c 63 4d 56 bb 86 b4 89 3b 33 51 8a 3b
       0.015991917 -0.0032699935 0.0042024283 0.0042211055
000090 88 c0 85 3c 5f 83 02 bc ae cc 57 3c ac 99 6b 3c
       0.016327158 -0.007965892 0.013171358 0.0143799
0000a0 4e 1c 6d bc 5c 24 39 bc 26 81 95 bb 18 72 90 ba
       -0.01447208 -0.011300173 -0.004562515 -0.0011020331
0000b0 7e e5 6d bc 97 69 5f 3c a7 e5 c5 bc 77 93 57 3c
       -0.014520047 0.013636014 -0.024157358 0.013157717
0000c0 51 0a ab 3b 62 e7 96 3b 83 ef 49 3c 41 9d bd bb
       0.0052197357 0.0046052197 0.01232517 -0.0057865684
0000d0 a4 53 50 3c 6b 53 04 bc 74 23 b0 bb ee 9f 83 bc
       0.012715254 -0.008076529 -0.00537532 -0.016067471
0000e0 8a 9c 04 bc f5 eb 76 3c 58 61 3f 3b 80 60 76 3b
       -0.008093962 0.015070905 0.0029202309 0.003759414
0000f0 cb e4 74 3c 9f a8 c0 3b 86 af 1d bc 6a 24 90 bb
       0.014947127 0.005879476 -0.009624368 -0.004398872

base.critic_linear.weight f4 [1, 64]
000000 b2 f4 06 be a8 94 4c bc b7 93 f9 3d c2 41 ee 3d
       -0.13179281 -0.012486614 0.121863775 0.11633636
000010 6c f8 d8 bd 50 71 a8 bd 12 14 8e 3d 77 a4 0b bd
       -0.10594258 -0.08224738 0.06937422 -0.034092393
000020 d6 47 eb 3d ed 32 51 be 35 5a 30 be 75 65 83 3e
       0.11488311 -0.20429583 -0.17221911 0.25663343
000030 4d c1 e2 37 59 38 a0 bd 25 9c df 39 31 6a 98 3d
       2.7031312e-05 -0.078232475 0.0004265021 0.074421294
000040 75 4f 2e bc e7 aa 52 b3 9a c9 b5 3b 3f 93 3a 3e
       -0.010639061 -4.904987e-08 0.0055477144 0.18220232
000050 7d 60 2e 3b ab 01 29 3d be ca 8b 3d 80 85 14 3a
       0.0026607804 0.041261356 0.068257794 0.0005665645
000060 07 27 6c be 6a 43 91 be 74 d3 08 3f 00 33 35 be
       -0.23061763 -0.28371745 0.5344765 -0.17695236
000070 1a 74 03 be 26 e5 2e 3e c9 f9 aa be 7b 0c 96 bc
       -0.12837258 0.170796 -0.33393696 -0.018316498
000080 de c6 ed 3d e4 11 4e bc 8f 71 68 bd 3e d2 22 3c
       0.116101965 -0.012577508 -0.056748923 0.009937821
000090 12 76 80 3e 34 a3 88 3e d7 99 2b 3e 64 b8 f8 3c
       0.2509008 0.26687014 0.16757904 0.030361362
0000a0 79 6f 37 be 85 94 22 be fa 99 4a bd ef b4 6b 3c
       -0.17913617 -0.15876968 -0.04946325 0.0143864
0000b0 83 72 15 be 5d f7 c1 3d 42 1e 38 bd fc d1 1f 3e
       -0.14594464 0.09471009 -0.04495073 0.15607446
0000c0 d4 ce a6 bd b5 3a 9c bd a7 c9 14 3e 6f bf 4d 3e
       -0.08144918 -0.07628385 0.1453005 0.20092557
0000d0 38 ec 14 bb 4d 09 ab 3e 21 11 90 3d d1 fd 8b bd
       -0.0022723805 0.33405533 0.07034517 -0.06835521
0000e0 1d 7a 92 3e c8 57 6f 3e 78 ce 54 36 52 b7 2a bd
       0.2860879 0.2337333 3.1710642e-06 -0.041678734
0000f0 15 cb b2 3e 39 10 c6 be 88 41 05 be a9 09 91 b9
       0.34920564 -0.38684252 -0.1301328 -0.00027663753

dist.dst_type_linears.0.weight f4 [2, 64]
000000 2b 80 63 bd 14 55 65 bd 66 d4 58 3d 33 19 63 3d
       -0.055542152 -0.05598934 0.052936934 0.055443954
000010 ac 08 74 bd 41 ec 7c bd 25 51 43 3d aa 74 31 3d
       -0.059578583 -0.061748747 0.047684807 0.04332415
000020 39 bb 83 3d 42 8c 20 bc 07 25 47 3d 47 d0 45 bd
       0.06432194 -0.009799065 0.048619296 -0.048294332
000030 41 17 53 bd fe 1e 5d bd fc c4 68 3d fa 58 3c bd
       -0.05153585 -0.053984635 0.056828484 -0.045983292
000040 4a 91 43 bd e5 87 d3 3c a3 6a 42 3d 87 6c 86 3d
       -0.04774598 0.025821635 0.047464978 0.06563669
000050 5f 63 5b bd 9c f9 79 bd 64 1a 71 bd ba e8 54 bd
       -0.053561565 -0.06102906 -0.05886306 -0.051979758
000060 1b b9 32 3d 6f 20 5b 3d 04 92 24 bd c6 09 27 bd
       0.04363356 0.053497728 -0.040178314 -0.040780805
000070 37 43 22 bd a5 21 69 bd 29 36 6b bd 58 a4 56 3d
       -0.039614882 -0.05691685 -0.057424698 0.052402824
000080 6c 04 50 bd 6a 6d 5b 3d 32 80 3f bd 83 ee 58 bd
       -0.050785467 0.053571142 -0.046753116 -0.052961838
000090 28 16 9d bc 65 94 5b 3d 2b 8e fe 3c 9c c6 46 bd
       -0.019175604 0.053608317 0.03107365 -0.048529252
0000a0 be a9 73 bd 7e f7 85 bd c8 29 4a bd 00 2e 7c bd
       -0.05948805 -0.06541346 -0.049356252 -0.061567307
0000b0 a4 81 49 3d 3c 6c 3a 3d 53 0c 4b bd e0 2f 42 bd
       0.0491959 0.045513377 -0.0495723 -0.04740894
0000c0 00 51 14 bd 4c 0b 19 bd 32 3f 62 bd 55 47 4e 3d
       -0.03621006 -0.03736429 -0.05523605 0.050360996
0000d0 ac 42 69 3d 3c af 5d bd dd 79 69 bd 34 0b 4f bd
       0.05694835 -0.054122195 -0.057000984 -0.050547794
0000e0 7c f4 49 3d fe c6 71 bd 20 0e 7b bd 07 c9 5f 3d
       0.049305424 -0.059027664 -0.061292768 0.054635074
0000f0 e1 e9 51 bd 69 9b 71 3d b0 a2 4b bd da 0f 54 bd
       -0.051248435 0.0589861 -0.049715698 -0.05177293
000100 a1 50 66 3d 51 91 5f 3d cc 7e 51 bd d4 12 64 bd
       0.056229237 0.054581944 -0.051146314 -0.05568202
000110 37 3f 6e 3d 43 1d 82 3d ce ba 4c bd 78 57 30 bd
       0.058165755 0.063532375 -0.04998284 -0.043052167
000120 cf 84 81 bd 8e 78 2e 3c 8e 1b 3d bd dd 50 3f 3d
       -0.06324159 0.01064886 -0.046168856 0.046707977
000130 00 91 4d 3d f5 dc 54 3d a1 61 67 bd d3 62 44 3d
       0.05018711 0.051968534 -0.05648959 0.04794581
000140 5e b7 43 3d c2 22 e5 bc 12 a6 4f bd d2 89 7e bd
       0.047782294 -0.027970675 -0.050695486 -0.062143154
000150 79 ab 53 3d b0 6a 7c 3d c7 fc 62 3d 51 8b 5e 3d
       0.0516772 0.061625183 0.05541685 0.05433208
000160 81 07 3e bd d4 d6 5d bd 82 74 2c 3d 3f a0 24 3d
       -0.046393875 -0.054159954 0.042103298 0.040191885
000170 b5 11 28 3d 10 e7 63 3d 35 c9 65 3d 87 f7 48 bd
       0.04103251 0.05564028 0.05610009 -0.049064185
000180 34 2d 4e 3d 8a 21 51 bd ae 23 45 3d e4 78 5e 3d
       0.050336078 -0.051057376 0.04812973 0.05431451
000190 54 5a a7 3c d6 98 5a bd 1c 3f ee bc 8e 9b 47 3d
       0.020428814 -0.053368412 -0.029082827 0.048732333
0001a0 2d 98 76 3d 96 aa 88 3d 8c ce 3b 3d 6c 44 7d 3d
       0.06020372 0.06673162 0.045851275 0.06183283
0001b0 e8 3f 4f bd 6f fe 2f bd 4f 2a 3f 3d 01 99 3c 3d
       -0.050598055 -0.042967256 0.046671208 0.046044353
0001c0 ab 7a 16 3d f8 6e 19 3d 9b dc 5f 3d a0 a0 50 bd
       0.03673808 0.037459344 0.054653745 -0.050934434
0001d0 94 09 68 bd fb f4 68 3d a1 29 69 3d 87 5c 4d 3d
       -0.05664976 0.056874257 0.056924466 0.05013707
0001e0 6b b9 49 bd bc ee 74 3d 94 87 73 3d 83 f9 54 bd
       -0.049249094 0.059797987 0.05945547 -0.051995765
0001f0 13 97 48 3d cd 0d 6f bd 01 15 3e 3d ff 64 50 3d
       0.0489722 -0.05836277 0.04640675 0.050877567

dist.dst_type_linears.0.bias f4 [2]
000000 f2 7d 41 3d f3 7d 41 bd
       0.04723925 -0.047239255

dist.dst_type_linears.1.weight f4 [2, 64]
000000 5d bf ed bc bc ab de bc cf 64 fe 3c 00 0e e5 3c
       -0.029021913 -0.027181499 0.031053929 0.027960777
000010 70 b6 13 bd 03 09 35 bd a0 0f 00 3d 31 b4 46 3d
       -0.036062658 -0.044198047 0.0312649 0.048511688
000020 5e b8 3c 3d 02 f9 80 bc 31 f1 e8 3c e7 b5 ec bc
       0.046074264 -0.015743736 0.028435322 -0.028895332
000030 dd ee 0b bd 46 99 00 bd c7 fb d8 3c 20 96 f4 bc
       -0.034163345 -0.031396173 0.026487244 -0.029856741
000040 95 b5 41 bd 2c 35 c1 3c 36 54 fc 3c 5d 87 31 3d
       -0.04729231 0.023584925 0.030801874 0.043341983
000050 1e 22 e6 bc 55 46 fc bc dc 8e 0e bd 96 c1 0a bd
       -0.02809244 -0.030795256 -0.03480421 -0.033876024
000060 12 5e f0 3c 76 62 f5 3c d8 c1 4e bd 9a a2 73 bc
       0.029341731 0.029954176 -0.050477833 -0.01487031
000070 f4 23 09 bd 07 f2 df bc fa d8 0b bd 31 a1 14 3d
       -0.033481553 -0.027337087 -0.03414247 0.036286537
000080 c7 71 ec bc fa 6f 37 3d 32 18 ec bc c5 10 0b bd
       -0.028862847 0.044784524 -0.028820131 -0.03395154
000090 6f e5 72 bd 2f 9a 00 3d ef c9 59 3d 10 0e fc bc
       -0.059300836 0.03139704 0.053171095 -0.030768424
0000a0 19 51 30 bd d7 db 38 bd 16 97 02 bd b1 50 12 bd
       -0.04304609 -0.04513153 -0.031882368 -0.035721485
0000b0 d3 6f 00 3d 82 ec eb 3c 3d d0 de bc 26 e4 00 bd
       0.031356644 0.0287993 -0.027198905 -0.03146758
0000c0 da 76 59 bd 23 a1 49 bd 5f 37 fa bc f7 61 ff 3c
       -0.05309186 -0.049225938 -0.030543981 0.031174643
0000d0 30 74 38 3d 65 c6 bb bc 1e 5d 05 bd 69 69 eb bc
       0.04503268 -0.02292175 -0.032559507 -0.028736787
0000e0 54 7f 02 3d 85 88 dc bc c9 e6 ee bc 24 ee 03 3d
       0.03185971 -0.026920566 -0.029162781 0.03220953
0000f0 b4 59 f9 bc 46 5f 39 3d f8 d3 03 bd 6c 3c f7 bc
       -0.030438282 0.045256875 -0.03218457 -0.030180179
000100 72 c5 fb 3c 42 42 eb 3c 74 5c f5 bc bc 1f ce bc
       0.030733798 0.028718118 -0.029951312 -0.025161617
000110 26 55 0e 3d 30 f5 35 3d fe 05 f8 bc dc ff 3f bd
       0.034749173 0.044423282 -0.030276295 -0.046874866
000120 68 13 34 bd dd 8f 82 3c 99 12 ff bc b9 b0 e5 3c
       -0.04396382 0.01593774 -0.031136798 0.02803837
000130 cd 07 0a 3d 9a 7a 04 3d 47 8b d5 bc 60 53 f6 3c
       0.033698846 0.032343484 -0.02606739 0.030069053
000140 79 1d 47 3d 5c e2 d1 bc 03 dd fb bc ca d4 28 bd
       0.04861209 -0.025620632 -0.030745035 -0.041218556
000150 36 a6 f5 3c 12 86 0c 3d 13 d1 0b 3d 44 07 ec 3c
       0.029986482 0.034307547 0.034134936 0.028812058
000160 c7 dc e7 bc bc 3f ee bc c2 a9 45 3d 3d 20 8e 3c
       -0.028303517 -0.029083125 0.048257597 0.017349357
000170 f5 b2 07 3d c7 07 ed 3c 63 ac 03 3d 5e f2 19 bd
       0.03312965 0.028934373 0.032146823 -0.037584655
000180 82 5e f2 3c 01 24 33 bd 68 7f eb 3c 35 4e fb 3c
       0.02958608 -0.043735508 0.028747275 0.03067694
000190 64 eb 72 3d 9a ba 02 bd df 47 57 bd 14 26 ef 3c
       0.059306517 -0.03191624 -0.052558776 0.029192962
0001a0 9c df 32 3d 59 9c 2f 3d 30 a3 07 3d 31 7c 10 3d
       0.04367028 0.042873714 0.033114612 0.03527469
0001b0 73 70 00 bd a1 8c 04 bd ee ed fc 3c 51 6a ee 3c
       -0.03135724 -0.032360677 0.030875172 0.02910343
0001c0 8d df 55 3d 65 45 41 3d 16 40 04 3d 24 9d ef bc
       0.052215148 0.04718532 0.03228768 -0.029249735
0001d0 92 f9 39 bd 8f 37 be 3c a9 f0 f8 3c 0b 49 f2 3c
       -0.045404024 0.023219852 0.030388193 0.029575845
0001e0 b0 75 ee bc 66 1a ef 3c c9 80 f0 3c 81 c3 fc bc
       -0.029108852 0.029187392 0.029358285 -0.030854942
0001f0 2c 06 03 3d 0f 79 3e bd 6f 9a fb 3c 56 f3 fa 3c
       0.031988308 -0.04650217 0.030713288 0.03063361

dist.dst_type_linears.1.bias f4 [2]
000000 fd 82 f8 3c fd 82 f8 bc
       0.030335898 -0.030335898

dist.dst_type_linears.2.weight f4 [2, 64]
000000 c4 ac 0a 3d 40 83 23 3d f0 65 1a bd 03 68 0e bd
       0.03385617 0.03992009 -0.03769487 -0.034767162
000010 49 2e b2 3c ea e5 bc 3c dc f7 2d bd 97 55 c4 bc
       0.021750586 0.02305885 -0.042472705 -0.023966594
000020 d7 18 b4 bc f5 e8 2a ba 14 09 24 bd a5 b2 1c 3d
       -0.0219845 -0.00065196987 -0.04004772 0.038256306
000030 5e b8 ea 3c 2e 47 22 3d c2 58 11 bd b8 7a 27 3d
       0.028652366 0.039618663 -0.035485037 0.040888518
000040 4e 9f db 3b 5a be a1 bb 44 ba 2f bd 1a cf 94 bc
       0.00670234 -0.0049360218 -0.042902246 -0.01816516
000050 87 b0 12 3d 85 9b c8 3c 7d e0 08 3d 10 42 1b 3d
       0.03581288 0.02448822 0.033417214 0.0379048
000060 72 b2 13 bd c0 58 01 bd 08 26 bc 3c aa e9 31 3d
       -0.03605885 -0.03157878 0.022967353 0.04343573
000070 16 f3 d6 3c af f5 16 3c d8 fc 02 3d c0 65 dc bc
       0.02623896 0.009213849 0.03197941 -0.026903987
000080 d6 28 1f 3d e6 68 59 bc 06 48 2a 3d 7d 72 1f 3d
       0.038857304 -0.013269639 0.041572593 0.038927544
000090 81 a7 c2 3c e8 0f 1c bd 97 20 dc bc 95 a9 24 3d
       0.023761513 -0.038101107 -0.026871009 0.04020079
0000a0 0d d7 c7 3c 0f c0 4b 3c fd 98 24 3d ca 3d ac 3c
       0.024394536 0.012435927 0.040184963 0.021025557
0000b0 21 76 1c bd f7 61 e1 bc 13 64 24 3d 51 d5 2b 3d
       -0.038198594 -0.027512534 0.0401345 0.04195148
0000c0 16 a2 e0 3c 0e 69 58 3c 62 1e 0c 3d b1 03 1f bd
       0.027421039 0.013208641 0.034208663 -0.03882188
0000d0 01 13 50 bc 61 8f e7 3c 99 2f fa 3c ed 13 14 3d
       -0.012699843 0.02826661 0.030540274 0.036151815
0000e0 3e 5e 26 bd 53 4f bb 3c b6 5f dc 3c 4f 18 24 bd
       -0.04061722 0.022864973 0.026901107 -0.040062245
0000f0 82 04 23 3d 39 7f 3b bc 7f 66 1e 3d 28 3e 2e 3d
       0.03979922 -0.011443906 0.038671967 0.042539746
000100 5f ff 0a bd fa b6 23 bd 53 88 1d 3d 03 d6 0e 3d
       -0.033934947 -0.039969422 0.038460087 0.034872066
000110 4a eb c6 bc c1 3c ab bc 2b a4 23 3d 74 b8 e1 3c
       -0.024282116 -0.020902993 0.039951485 0.027553774
000120 30 52 aa 3c 57 4d 58 ba ec 8a 28 3d df 94 26 bd
       0.020791143 -0.00082512706 0.04114811 -0.04066932
000130 c0 3c f1 bc 70 09 1f bd b1 57 21 3d 64 88 29 bd
       -0.029447913 -0.03882736 0.03939027 -0.041389838
000140 d6 b6 df bb 66 4f 89 3b 96 2b 21 3d b1 e2 8a 3c
       -0.0068272157 0.0041903732 0.039348207 0.016953798
000150 3e 1f 0c bd f0 ad da bc b1 9e 0b bd 76 72 14 bd
       -0.034209482 -0.026694268 -0.034086887 -0.03624197
000160 4b 51 10 3d 51 e3 03 3d a4 52 bc bc 83 c1 25 bd
       0.035233777 0.032199208 -0.022988625 -0.04046775
000170 58 24 cc bc 6d e1 c5 bb 45 44 02 bd f0 26 d6 3c
       -0.024919674 -0.0060388357 -0.03180339 0.026141614
000180 29 b8 1c bd 88 ff 58 3c 45 39 2c bd 91 b3 25 bd
       -0.038261566 0.013244517 -0.042046804 -0.04045445
000190 b3 90 ca bc 74 c6 12 3d b3 6b db 3c ee 35 24 bd
       -0.024727201 0.03583379 0.026784753 -0.040090494
0001a0 4b 9d c8 bc fa 44 66 bc 28 05 1c bd 15 df aa bc
       -0.024489066 -0.014054531 -0.038090855 -0.020858327
0001b0 8a d2 1b 3d c8 bb 01 3d ae fc 2d bd 66 d8 2c bd
       0.038042583 0.031673223 -0.042477302 -0.04219856
0001c0 1c db e6 bc 33 03 46 bc 22 bc 02 bd ba 31 29 3d
       -0.028180651 -0.012085724 -0.0319177 0.04130719
0001d0 eb 56 5c 3c ed 3f f2 bc 19 46 01 bd d5 6f 23 bd
       0.013448457 -0.029571498 -0.03156099 -0.039901573
0001e0 5d 3e 26 3d 03 07 bd bc a0 f6 fc bc 4d 59 2c 3d
       0.040586818 -0.023074633 -0.030879319 0.04207735
0001f0 04 c9 20 bd e8 45 39 3c a2 73 1c bd 2d 00 26 bd
       -0.039254203 0.011308171 -0.038196214 -0.04052751

dist.dst_type_linears.2.bias f4 [2]
000000 06 0f 26 bd 04 0f 26 3d
       -0.04054167 0.040541664
