route_dev/drl-or/model/test/agent1.pth (torch, 211205 bytes, 31 tensors)

base.actor.0.weight f4 [64, 321]
00000000: dc32 7ebd 813d a9bd 0b49 9bb9 0f56 65bc
00000010: f486 e4bc 4884 333a 91bc afbd 1554 443d
00000020: a70e 0f3c 8bde 18bc 06b7 ccbd 291c f93c
00000030: 4b19 503c ad68 a93d 39ad b6bd e4bb 1a3e
00000040: 96b9 2f3c 73f2 703d b23d 9cbd 009e 313d
00000050: 60df f53c a62a 2dbe 3678 2dbd 7c85 7ebd
00000060: 7bb5 21bd 45fd c63c 30e7 39bc 37d7 52bb
00000070: e922 023d fe61 0fbe 14ff 04be f762 ab3d
00000080: 2ed0 e7bb 98b0 6c3d 7682 b2bd 9c13 433d
00000090: b31e 0c3d 3b00 9dbd 17b1 80bd 9032 4c3b
000000a0: 4056 18be a5f5 193e 8d10 203c a9e2 c23d
000000b0: 54c7 ca3d 309a ddbd b086 8e3d b781 8c3d
000000c0: f70a 373d c91a 71bd 1d9c 9ebc e097 c03d
000000d0: 0b95 74bd 22c1 ab3c 8a47 cd3c 1505 c43d
000000e0: eac0 d33b 4e15 f93c fecb 553e a85d fdbd
000000f0: 9a27 d9bd 89aa 9ebd 3c27 a3bd c96b 83bd
00000100: c091 0bbe c52c 06be 9b8e 263c f1f7 29be
00000110: f842 8abc 9576 113e bf11 39bd bf5c 30bd
00000120: 51e5 a03d 6680 e8bd 2e78 183d a797 2a3d
00000130: 418d 5cbc 8a7a b23d e7b0 99bd 98e3 63bc
00000140: 2f4c 7ebd d2f7 83bd a0f9 6d3d 350f ebbc
00000150: b349 2fbd 00a5 afbd 7092 c53d 3ee9 37bd
00000160: b219 12be 068a 9f3c 0a5a 10bc 5c84 55bc
00000170: 97ab b93d 1f58 ddbd 2838 6bbd 471c 8fbc
00000180: 9e7d 363b 89f0 003d f13a d3bc 5cb6 493d
00000190: 12da 893d 7d01 cdbd 18b8 553c 5b66 4e3d
000001a0: 4e3a 14bd 9fd5 96bc b604 06be 5ce0 e1bc
000001b0: 62d0 a83c 40f7 84bc 5297 d7bc ba77 36bc
000001c0: 18de cdbd b59d b13d deed 883d 91f9 bc3c
000001d0: 1a0e 73bd 2cd6 36bd 9314 08bd a6f5 cebd
000001e0: 717a 21be db5c b1bc f7a0 91bd 9fbd 24bd
000001f0: e4a8 2bbd 0c7e 62bd 0d74 17bd f724 d5bc
00000200: 845e 27bc 190f 2c3b 0eb8 f73b 4bbf 73bd
00000210: 7338 bcbd a96d 113d d169 4b3d c135 28bd
00000220: 72e3 263e 7697 3f3d d70e d23c a42a 8a3d
00000230: 268e 0abe d0c0 2abd cad0 c2bb 5e41 8ebd
00000240: 131c 163d 3092 063c 3d8c a33c c06b debd
00000250: 45d7 4a3e 8bfd f33d e7c5 793e 3210 90bd
00000260: fca6 a53d be6c 9d3d 0b6a 63bd 1272 d8bd
00000270: 12fb d1bc 9cd1 85bc 869e 3a3d 0e8a 44bc
00000280: bac5 893c a1b3 73bd 65e2 153b 50df bb3d
00000290: 7466 323c 3270 fcbd 4660 c5bc f944 d93d
000002a0: bbd1 86bd 4ee6 b33c 7490 22be e4ba b83d
000002b0: 56d9 28bd 34d4 463e eb6d fcbb 503d 2abd
000002c0: c3ff 0ebe aab8 dc3d e999 9b3d 5710 873c
000002d0: c8e6 4dbd fdb6 85bd 1d58 713e ef6e bcbd
000002e0: 2531 d1bd 1d8c 7ebc 52c0 433d f1b3 2e3d
000002f0: 5fad c8bc 1ef3 d9bd c9dd eabc 9169 083e
00000300: 7377 dc3d 15b9 683d 510f c23c 0d94 f63d
00000310: 1d14 613c 843a 5bbb 6810 9fbd 7157 653e
00000320: 0cec 9c3a d84a 66bc 3e73 73bc 321d c4bc
00000330: 0b45 8d3c f37b 50bd 387d 87bc 76f7 bd3a
00000340: 1000 92bd 95f2 c93a d8d7 44bd dca1 14bc
00000350: 39ae c63c 114f 563d 1adb 97bd 8971 5fbe
00000360: 6e06 2cbe cfb2 1bbe 71a6 d13d 3889 7f3d
00000370: bc57 0c3b ae16 ae3d 7b11 a1bd 7e0d fcbd
00000380: 4440 62bd d998 04be a125 aabd 7b38 aa3d
00000390: c6bb b5bc 755e 663d fa01 a2bd a2aa 6d3d
000003a0: 4053 373d 998e 333e fe1a 09bd 88f3 0abe
000003b0: a9ac f23d 75d8 103c 56f8 32bd a528 a3bc
000003c0: fa1c f43d c84e 1e3e 0aed a33d 75fa c23d
000003d0: 7383 143e 9b3e 0fbc b2d9 f83c d039 b23c
000003e0: 816d 4dbd 2204 4d3b 25a2 cb3c 1630 88bd
000003f0: aff6 fcbc 16da 1bbd 547e 6b3c 142d b83d
-0.062060222 -0.08263684 -0.00029618325 -0.013997569 -0.027896382 0.00068480195 -0.08580888 0.04793175
0.008731521 -0.009330402 -0.099958465 0.030408936 0.012701343 0.082719184 -0.08919758 0.15110737
0.0107253995 0.058824968 -0.07628955 0.04336357 0.03001374 -0.169108 -0.04235097 -0.06213902
-0.039479714 0.02429069 -0.011346623 -0.0032171735 0.031771574 -0.14002225 -0.1298793 0.083684854
-0.0070743775 0.0577856 -0.0871629 0.047626123 0.034208965 -0.076660596 -0.06283777 0.0031158067
-0.14876652 0.15035112 0.009769571 0.09515888 0.099013 -0.108204246 0.06959283 0.06860679
0.04468819 -0.058863435 -0.01936155 0.09403968 -0.05971245 0.020966116 0.025058527 0.09571282
0.006462206 0.030405667 0.20878598 -0.12371379 -0.106032565 -0.07747371 -0.07966468 -0.06417043
-0.13629818 -0.13103016 0.010165836 -0.16598488 -0.016877636 0.14205392 -0.04518294 -0.0430572
0.07856239 -0.11352615 0.037223987 0.041648533 -0.013461412 0.08714779 -0.075044446 -0.013909243
-0.062084373 -0.06443752 0.05809939 -0.028693775 -0.042794894 -0.08576393 0.09647071 -0.04490017
-0.14267614 0.019474994 -0.0088105295 -0.013032045 0.09065931 -0.108078234 -0.0574266 -0.017469538
0.002784587 0.031479392 -0.025784941 0.049246177 0.06731047 -0.100100495 0.01304438 0.050390583
-0.036188416 -0.01841241 -0.13087735 -0.027572803 0.020607177 -0.01623118 -0.026317272 -0.0111369435
-0.10052127 0.08672658 0.066859946 0.023068221 -0.05933962 -0.044637844 -0.033222746 -0.101054475
-0.15769364 -0.021650722 -0.0711078 -0.0402199 -0.041909114 -0.05529599 -0.03697591 -0.026018603
-0.010215405 0.0026254116 0.007559783 -0.059508603 -0.09190454 0.03550497 0.04966146 -0.04106689
0.16297701 0.046775304 0.025641842 0.06746414 -0.13530788 -0.041687787 -0.0059452998 -0.069460616
0.036647867 0.008213565 0.019964332 -0.108603954 0.19808681 0.11913594 0.243919 -0.07034339
0.0808849 0.076867566 -0.055521052 -0.10568632 -0.025632415 -0.016335301 0.045561336 -0.011995805
0.016817916 -0.05949748 0.0022870537 0.09173453 0.010888685 -0.12326087 -0.024093758 0.106088586
-0.06582972 0.021960404 -0.15875417 0.090200216 -0.041222893 0.19416887 -0.007703533 -0.04156238
-0.13964753 0.107774094 0.075977154 0.016487284 -0.05026892 -0.06529043 0.23568769 -0.092008464
-0.10214452 -0.015536335 0.047790833 0.042652074 -0.024496732 -0.10642074 -0.028670209 0.1332152
0.10764971 0.056817133 0.023688944 0.12039957 0.013737706 -0.0033451626 -0.07766801 0.22396637
0.0011972203 -0.01405593 -0.014859019 -0.023939703 0.017244836 -0.050899457 -0.016539201 0.0014493305
-0.07128918 0.0015407378 -0.048057407 -0.009071793 0.024252998 0.052321497 -0.07414837 -0.21820654
-0.16799328 -0.15204929 0.10236824 0.06238672 0.0021414598 0.085004196 -0.07864662 -0.12307261
-0.05523707 -0.12948932 -0.083079584 0.08311554 -0.022184264 0.056242425 -0.07910533 0.058024056
0.044757128 0.17534865 -0.033473007 -0.13569462 0.118493386 0.00884067 -0.043693863 -0.019916842
0.11919589 0.1545974 0.08004196 0.09520427 0.14503269 -0.008742954 0.030377243 0.021756083
-0.05015326 0.003128298 0.02485759 -0.06649797 -0.030879347 -0.03804978 0.014373381 0.08992973

base.actor.0.bias f4 [64]
00000000: 0000 0000 0000 0000 0000 0000 0000 0000
00000010: 0000 0000 0000 0000 0000 0000 0000 0000
00000020: 0000 0000 0000 0000 0000 0000 0000 0000
00000030: 0000 0000 0000 0000 0000 0000 0000 0000
00000040: 0000 0000 0000 0000 0000 0000 0000 0000
00000050: 0000 0000 0000 0000 0000 0000 0000 0000
00000060: 0000 0000 0000 0000 0000 0000 0000 0000
00000070: 0000 0000 0000 0000 0000 0000 0000 0000
00000080: 0000 0000 0000 0000 0000 0000 0000 0000
00000090: 0000 0000 0000 0000 0000 0000 0000 0000
000000a0: 0000 0000 0000 0000 0000 0000 0000 0000
000000b0: 0000 0000 0000 0000 0000 0000 0000 0000
000000c0: 0000 0000 0000 0000 0000 0000 0000 0000
000000d0: 0000 0000 0000 0000 0000 0000 0000 0000
000000e0: 0000 0000 0000 0000 0000 0000 0000 0000
000000f0: 0000 0000 0000 0000 0000 0000 0000 0000
0.0 0.0 0.0 0.0 0.0 0.0 0.0 0.0
0.0 0.0 0.0 0.0 0.0 0.0 0.0 0.0
0.0 0.0 0.0 0.0 0.0 0.0 0.0 0.0
0.0 0.0 0.0 0.0 0.0 0.0 0.0 0.0
0.0 0.0 0.0 0.0 0.0 0.0 0.0 0.0
0.0 0.0 0.0 0.0 0.0 0.0 0.0 0.0
0.0 0.0 0.0 0.0 0.0 0.0 0.0 0.0
0.0 0.0 0.0 0.0 0.0 0.0 0.0 0.0

base.actor.2.weight f4 [64, 64]
00000000: 773a cbbd 5c43 8e3e 5c77 b93c d939 86be
00000010: d33e 42be d102 bcbd 19ea ca3d 81ba 833d
00000020: eb3a 86bd 51fd cebe 79db 2e3d f5f2 78be
00000030: 3a03 933e 1d3a 83bd dd03 da3d 6e57 63bd
00000040: 9271 ba3c 0152 18be fd9a f33c 4164 2b3d
00000050: 56bc 35bc 6f95 63be 402b 9b3d e3fc 24bd
00000060: ed49 2bbe 3140 40be 2181 91be b7e7 3a3e
00000070: eb96 bebd edde 293e 3dcd 94be bffa e4bd
00000080: fffe cabd 2f3d dc3c e145 f0be 0d9f 33be
00000090: 8e78 bbba 29ac 27be 073d 583d 5b75 443d
000000a0: 7ac3 ab3c 9bcb e13d 3b2b 4f3d d383 7d3e
000000b0: 22d8 c8bc eb88 4abe 847e d63c f93e 423d
000000c0: d7f9 8bbd e928 3ebd 0b23 cfbd 871b ad3e
000000d0: a399 ad3d 5ba1 52be 536f 5a3e adf6 323e
000000e0: d5ba 99be b589 433e 8dca 543e c1c8 373d
000000f0: 31f6 bfbd b3f3 093f f58e 1f3d a433 73bc
00000100: 7088 ffbd 4fb6 d4be a9f7 67be 9eb8 e43a
00000110: b9f2 e9bc 2822 433d c193 b1bc 4f07 e23d
00000120: 01a5 263e 9d71 3dbe 5fc7 d9bd 0e69 04bd
00000130: 0563 cd3d 21cf a63d 5a62 f33b 0b68 f4bd
00000140: e7aa 55be 1e99 4f3d 1bc0 debc bcfd 2e3d
00000150: 65e1 113e 1f87 7b3e c98c e9bd 7e0c 743d
00000160: fcb2 d9be 5ec5 0a3d 8934 783e 83a5 dfbe
00000170: f1fe 1bbe d394 01bc 457e 903c 3eef 0bbd
00000180: 8582 32be a85e 93be f97f 55be db16 5cbe
00000190: 8aed 163d 7f52 96bc 0479 b2be a761 893e
000001a0: ced6 b6be 0374 d9bd 1e6c 4ebd f574 99bd
000001b0: baa9 0abe d296 15bd d39e a0bd f607 4fbd
000001c0: abf2 4f3e c097 4d3d d6d8 a13e 6729 643e
000001d0: a945 a13d 6d9e bcbd ea96 45bd 543a b2be
000001e0: 4d7b 473b e472 08be ddbc cbbd fdf3 d93e
000001f0: f7fc 123e cc13 7ebd 217e ef3d 3a4d 57bd
00000200: a223 b6bd 1059 84bc 9d31 a93d 1271 803d
00000210: 924c 1f3c 68ab 23be 9d66 86be 88c2 3fbe
00000220: ea3e 793e 89ae 87bd 30a7 463d 8605 c63d
00000230: bf30 3ebd 5a1a 7f3e 3f90 8c3d 9630 733c
00000240: 1a8c 203e 5241 a33d 4399 9d3e 9dab a2bd
00000250: 1e5a ec3d b529 a23d bb24 81be 0884 b63d
00000260: 6415 27be deb5 853d ac59 3bbe f09a 803c
00000270: 8a22 92be bb22 7e3b 760a d2bd 41b2 693d
00000280: c970 8b38 9d24 913d d5de 173e fe7a 6e3e
00000290: d03a 4bbd 4685 27be 81bc 82bd 7e9e 37be
000002a0: ff53 1d3d 4d0c cd3d 22d4 be3e e8f9 24be
000002b0: ea5e 133e 3458 8c3c e033 873e a623 8ebe
000002c0: 2d99 f5bd 7e7d 453e d379 d53d 77a2 963d
000002d0: dcc8 2abe 2272 0d3e a67b d93e 2f70 9f3e
000002e0: 2ad0 393d 570f 85be 8375 163d 0cc8 ef3e
000002f0: fa96 0f3e a4fa 9ebd 70cd 4a3e 46f4 bd3e
00000300: b348 92bd b8a7 e2bc 0c74 6c3b 19a8 263c
00000310: 5fe9 a2bb 21ba 7fbe fe03 523e 3744 91be
00000320: 0e49 c0bc 59ee 843b 911b b3bd 18a3 513e
00000330: 2acf 12be 112e 113e 66f6 05be f938 81be
00000340: b471 3f3e 223e 83bd ad91 f73d ae13 7d3e
00000350: 7cde 6bbe cbf0 4bbd 9a3e 353e e398 b53e
00000360: 347d f73c 9e3d 9c3e ba09 973d 7a8a 96be
00000370: 44fa 3dbe 05ac d63c 3f72 4cbd 7e14 0f3e
00000380: 20bb 0b3e e2b0 aabd 18b3 ddbd 28d5 c13d
00000390: 2c75 3ebe 5404 74be 8003 0d3e cd9b 2bbd
000003a0: 9d46 8f3d a3f1 4f3d 60e9 183e 852d 81bd
000003b0: 5491 a2be 2ee6 2b3e ad2f 843d be9b 95bc
000003c0: fbf0 883e 989d a9be e391 19be 2876 893e
000003d0: 740f 4e3e ac61 893e 8f44 bcbd 3a0b e23c
000003e0: e552 a73e d2f3 41be e679 463e 3aa6 7e3d
000003f0: 3457 72be 37fc c43d 1b4f dd3b 9975 c0be
-0.09923261 0.27785766 0.022639923 -0.2621601 -0.18969278 -0.09180225 0.09907932 0.06432057
-0.065542065 -0.4042764 0.042689774 -0.24311431 0.287134 -0.064075686 0.10645268 -0.0555033
0.022759233 -0.14875032 0.02973699 0.041843656 -0.011092266 -0.22224973 0.07576609 -0.040280234
-0.16727419 -0.18774487 -0.2841883 0.18252455 -0.09306129 0.16588946 -0.29062834 -0.111806385
-0.09911918 0.026884643 -0.46928313 -0.17541142 -0.0014302896 -0.16374268 0.052792575 0.04796348
0.020967234 0.11025163 0.050578337 0.24757318 -0.024517123 -0.19778793 0.026183374 0.047423337
-0.068347625 -0.046425734 -0.10114106 0.33810064 0.084765695 -0.20569365 0.2133153 0.17476912
-0.30025354 0.190955 0.20780392 0.04486919 -0.09373129 0.5388748 0.038954694 -0.014843855
-0.12477195 -0.4154534 -0.22653069 0.001745004 -0.028558122 0.047639996 -0.0216769 0.1103655
0.16273881 -0.18500371 -0.1063373 -0.03232675 0.10028652 0.081449755 0.007427496 -0.11933907
-0.20865975 0.050683133 -0.027191212 0.04272245 0.14246137 0.24563263 -0.11403806 0.059582226
-0.42519367 0.03387963 0.2423879 -0.43680963 -0.15233971 -0.007909018 0.017638335 -0.034163706
-0.17432602 -0.28783154 -0.20849599 -0.21493094 0.03684763 -0.018349884 -0.34857953 0.26832315
-0.35710758 -0.106178306 -0.050396077 -0.07493011 -0.13541308 -0.036520787 -0.07842793 -0.0505447
0.20307414 0.05019355 0.31610745 0.22281419 0.07874615 -0.09209905 -0.048239626 -0.34810126
0.0030438483 -0.13325077 -0.09948132 0.4256896 0.14354311 -0.0620306 0.11693979 -0.052563883
-0.08893515 -0.01615575 0.08261416 0.062715665 0.009722846 -0.15983355 -0.26250163 -0.18726552
0.24340406 -0.06625087 0.048499286 0.09669022 -0.046433207 0.24912396 0.0686345 0.014843127
0.15678445 0.07971443 0.30780992 -0.07942889 0.11540626 0.07918111 -0.25223336 0.08911902
-0.16316754 0.06528829 -0.18295926 0.01569888 -0.28541976 0.0038778025 -0.102559015 0.05705476
6.6490444e-05 0.070870616 0.14831097 0.23289105 -0.049616635 -0.16359434 -0.063836105 -0.17931554
0.038410183 0.10012112 0.3727122 -0.16110957 0.14391676 0.017131902 0.26406765 -0.27761573
-0.119921066 0.19286153 0.10423627 0.073552065 -0.16678184 0.1381307 0.4247715 0.31140277
0.045364536 -0.25988266 0.03673316 0.4683231 0.14022437 -0.0776265 0.1980493 0.37100428
-0.071427725 -0.027667865 0.0036079912 0.010171914 -0.0049716677 -0.24973346 0.20509335 -0.28372356
-0.023472335 0.0040567336 -0.08745492 0.20472372 -0.1433684 0.14177729 -0.13082275 -0.2523878
0.18695718 -0.06408335 0.12088332 0.24714538 -0.2303409 -0.049790185 0.17699662 0.35468206
0.030211069 0.3051576 0.07374902 -0.29402524 -0.185525 0.026205072 -0.04991364 0.13972661
0.13645601 -0.08334519 -0.10825175 0.094644845 -0.18599385 -0.23829776 0.13770866 -0.04189663
0.0699589 0.050767552 0.14932775 -0.0630751 -0.31751502 0.16787025 0.06454406 -0.01826274
0.26746354 -0.33128047 -0.14997058 0.2684796 0.20123082 0.2683233 -0.09192764 0.027593244
0.3268043 -0.18940666 0.19382438 0.062170245 -0.23666078 0.09618419 0.006753815 -0.3758972

base.actor.2.bias f4 [64]
00000000: 7d4b 3c3d a3e1 bebc 48af 99bc 1184 83bc
00000010: ed92 25bd 4c13 b83c f967 ffbc 8135 3cbd
00000020: 20e9 cdbc 1152 343d 5965 ab3c 5e12 abbc
00000030: e424 babc 132c a33c 4b62 31bd 64a9 333d
00000040: bd94 80bc ad39 b4bc 81f6 acbc 515c ba3c
00000050: fe83 ac3c 30dc bc3c 9a68 abbc 08fd 993c
00000060: 6ddd b9bc cdfc b0bc 8876 28bc a36d 77bc
00000070: 838a ac3c cd57 9dbc 0462 b3bc 2456 6c3c
00000080: 2694 b33c ebbc 93bc 8244 39bd 04dd 9a3c
00000090: 7c76 3dbd b667 f63c 6f5f b23c 93bd b0bc
000000a0: a65e ac3c 4597 aabc 1ed8 93bc 6f70 413d
000000b0: fb44 dbbc 8b44 b43c d34b 35bd 530f adbc
000000c0: e808 b2bc afcb c2bc 2f03 a63c 1160 a53c
000000d0: 660e 6dbc 0531 2b3d 8722 a6bc 37b9 913c
000000e0: 82aa a63c d906 ac3c 44df b5bc 18d1 18bd
000000f0: 98c1 c7bc 591b a5bc 35db b0bc 2355 0b3c
0.04597043 -0.023300951 -0.018760338 -0.016054185 -0.040423322 0.022470139 -0.031177508 -0.045949463
-0.025135577 0.044023577 0.02092235 -0.020882782 -0.022722669 0.019918477 -0.04330663 0.043862715
-0.015695924 -0.022000158 -0.021113636 0.022749098 0.021059033 0.023054212 -0.020923901 0.018797413
-0.022688592 -0.02160492 -0.010282166 -0.015101823 0.021062141 -0.019206906 -0.021897323 0.014424834
0.021921229 -0.018034419 -0.04523135 0.018904217 -0.046255574 0.03007875 0.021774022 -0.021574771
0.021041226 -0.020824084 -0.018047389 0.047226366 -0.02676629 0.02200534 -0.044261765 -0.021125471
-0.021732762 -0.023778765 0.02026519 0.02018741 -0.014468765 0.041794796 -0.020280136 0.017788513
0.020344976 0.020999359 -0.022201188 -0.037308782 -0.024384305 -0.020154642 -0.021588901 0.008504185

base.critic.0.weight f4 [64, 310]
00000000: 116e 2cbe eb44 1fbe 7966 41bc 4414 823d
00000010: a201 0c3d 646d 0ebc a69f cfbd 7bf5 00bd
00000020: 16e9 1a3d 9389 2c3d 26ef c33b a0b2 223d
00000030: 8ac6 afbd 5098 f8bd 768a ca3d e1ca f8bd
00000040: 0390 f6bd f474 9a3c 4d8f 993d b3f6 2dbd
00000050: c867 c13d d0e5 b2bd 222a ddbc 28d0 233c
00000060: 29ec 2b3c 5ec1 88bd ee21 d8bc 2f34 d53d
00000070: d7eb 673d 6351 523c 8bab a1bb 5b7f 72bd
00000080: de68 933d 2223 de3d 5321 b0bc f3e1 cdbd
00000090: 28b4 6abd d7da aebc 5d38 46bd 197b 79bd
000000a0: 492c d4bd 7705 923c 9693 143e 8b09 c1bd
000000b0: 8ccc 20bd 5a4a f3bd a7c5 e23c 61b4 273d
000000c0: d334 19bc 16df 573d 4a20 c3bd 6243 0d3e
000000d0: 4aa4 913d 9015 21bd 41e4 3f3d 0276 0b3d
000000e0: 6a63 043e 8014 83bd cc6a 16bd 908d 40bb
000000f0: 7ac1 943d 699e 86be 03a4 8abd e552 183d
00000100: 68f0 8abc e7c3 b93d d434 923c 4b8f 2fbe
00000110: 0c8d 6b3c 1071 8bbc b511 05be f2be ef3b
00000120: 0164 723c d5c4 4d3d fdd9 0abd 78f4 dd3d
00000130: 33dc 693d 4172 133e f4c9 69bd 9eef ebbc
00000140: b101 673d 9d24 913c a3f7 0fbd 016d 22bd
00000150: 6f63 3d3c 10d7 fe3a 9108 913d 2a86 84bd
00000160: 26da e13c 11ee 69bd b3cc 59bd cb15 cdbd
00000170: 0c15 36bb 3ae4 023d e1c5 97bd 6a6e dcbb
00000180: 5756 05bd 09a0 bdbd bd0d 503e a026 303d
00000190: f944 273e daf9 45bd 136e 153e f355 123d
000001a0: 47a8 2dbd 08a1 6c3d 0c35 05bc 29ac b0bb
000001b0: a8d4 c83c 6772 c73b 4846 11be 95a4 85b9
000001c0: 692c 173e 5d74 07be e337 acbd 4ed3 8b3d
000001d0: d2a1 25bd 43d8 d73d 246f 7b3d b58f 073e
000001e0: f282 ea3d 9582 d9bd 02e2 5cbe e695 993d
000001f0: 9482 1abd 6650 c93c 065c c83c 46f3 b73d
00000200: ea40 8bbd 8c85 6f3b 7241 f73d d680 a4bd
00000210: a080 ff3d d725 12be 3f55 543d 627b 2abd
00000220: 5115 96bc 83a1 80bc 4aa9 70bc 5987 9f3c
00000230: ffbc 643d 1a8b 2abd 3a69 50be c85a f53d
00000240: 7e8c 56bd 3c84 61bd f36f 77bd 8ad6 eb3d
00000250: c0cc f13b 9503 c53d f517 19be 23a9 353d
00000260: 590e bb3d 7d47 eebd 0651 393e aada 7d3d
00000270: 8e0a c13d 4340 d43a c8b3 873b 8214 10bd
00000280: 7160 41bd e21b 283d 856e a5bd e230 48bd
00000290: 5498 573e 5ce5 a3bc 4f6d 0dbd fe11 c93c
000002a0: 3190 89bd 0aa5 a13c 625c 893d bf23 fdbc
000002b0: 047a 393e 5776 dabd d613 403a 36c0 43bc
000002c0: 48e2 743d 9b44 9bbd cf1c 0b3b 5005 ad3d
000002d0: 3f81 82bd 5445 573c 0bb1 b63d 048b ebbd
000002e0: f793 7cbd 5234 273d 3c12 443b d6b3 a33d
000002f0: 0e19 87bd 0a2e 003e 32b2 253d 9d25 ccbb
00000300: 5440 ec3d 5c3f 543e 4e04 05bd 414b e1bc
00000310: 8cc7 f43d e86d 0d3d 1184 fd3b e62c 193d
00000320: 0afe b93d 89bc 1dbd 491d cebc 7a2b 9f3d
00000330: cbf8 7a3d c979 333e 41ee 7d3d 3307 5dbc
00000340: 2cc6 cc3d 9050 593d 1294 6cbd 9241 77bd
00000350: 1dfb d03c 4d37 04bd d732 c93d 64e0 dabd
00000360: e444 8b3d f95e 2abd 601b 44be 404e 73bc
00000370: 0c3c 01bd e255 d9bc 53d0 31bd 4970 f23c
00000380: be55 273e a29f afbd bb23 9ebd a031 623c
00000390: 86a0 703d ab15 32bd ddee 90bd 20e9 80bd
000003a0: 4ebb a23d 8c8b 8b3d a20c f63c 1233 5b3d
000003b0: 5bcf c2bd db1d bb3d 8b69 bcbd 23d9 dbb9
000003c0: 7e43 593e 9292 5c3d 88fd a03d fcc2 713d
000003d0: eb87 4abd 866d 94bd d712 fe3d 6953 42bd
000003e0: f91e edbd 77db 7fbe 9c57 f6bc 1ca8 053c
000003f0: 21e0 063c 4f1c cd3d 5fe8 ad3d eedb 7cbd
-0.16838862 -0.15553634 -0.011804217 0.063515216 0.034181245 -0.008693073 -0.101378724 -0.03148411
0.037819944 0.04212339 0.0059794364 0.03972113 -0.0858279 -0.12138426 0.098896906 -0.12148071
-0.12039187 0.018854596 0.074980356 -0.0424716 0.09443623 -0.087352395 -0.02699763 0.009998359
0.010493317 -0.06677507 -0.026383366 0.10410344 0.0566214 0.012836787 -0.0049337796 -0.059203487
0.07197736 0.10846545 -0.021500265 -0.10052862 -0.057300717 -0.021344585 -0.048393596 -0.06090841
-0.10360009 0.017824871 0.14509425 -0.09425648 -0.03925757 -0.11879416 0.027682139 0.040943507
-0.009350973 0.052702986 -0.09527643 0.13795236 0.07111414 -0.039327204 0.04684854 0.034048088
0.12928548 -0.064003944 -0.036722943 -0.0029381253 0.07263465 -0.26292732 -0.06769564 0.03718843
-0.016960338 0.090705685 0.017847456 -0.17144506 0.01437689 -0.017021686 -0.12995036 0.0073164636
0.014794351 0.05023654 -0.033899296 0.10837644 0.057094764 0.14399053 -0.057077363 -0.028800782
0.056398097 0.017717654 -0.035148274 -0.039654735 0.011559351 0.0019442756 0.07081712 -0.06470902
0.027569842 -0.057111803 -0.053173732 -0.10013922 -0.002778354 0.031955935 -0.07410789 -0.0067270296
-0.032553043 -0.0925904 0.2031774 0.043005586 0.16334905 -0.04833398 0.14592771 0.0357265
-0.04239681 0.05777076 -0.008130323 -0.005391617 0.024515465 0.006086636 -0.14186966 -0.0002549036
0.14763035 -0.13227983 -0.08409097 0.068274125 -0.040437527 0.105392955 0.06138529 0.13238414
0.11450757 -0.1062061 -0.2157059 0.07499294 -0.037722185 0.02457447 0.024457943 0.089819476
-0.06799491 0.0036548106 0.120730296 -0.08032386 0.12475705 -0.14272247 0.05183911 -0.041621573
-0.018320711 -0.015702015 -0.014688799 0.019473718 0.055844303 -0.041636564 -0.20352641 0.11980206
-0.052380078 -0.05505775 -0.060409497 0.115155295 0.0073791444 0.09619824 -0.14950545 0.044350754
0.09133596 -0.11634729 0.18097314 0.061976112 0.09425841 0.0016193468 0.0041413046 -0.035175808
-0.047211114 0.041042216 -0.080777206 -0.048874743 0.21054202 -0.020006828 -0.034528073 0.024544712
-0.067169555 0.019732017 0.06707074 -0.030900834 0.18112952 -0.10667103 0.00073271745 -0.011947682
0.05978611 -0.07581445 0.0021226888 0.08448279 -0.06372308 0.013139088 0.08920487 -0.115011245
-0.061664548 0.04082138 0.0029918095 0.07993285 -0.06596576 0.12517563 0.040453143 -0.00623007
0.11535707 0.20727295 -0.03247481 -0.027501704 0.11952123 0.034528643 0.007736691 0.037396334
0.09081657 -0.03850988 -0.025160449 0.07771964 0.061272424 0.17526926 0.061994795 -0.013490486
0.09998736 0.053055346 -0.0577584 -0.060365267 0.025510365 -0.0322793 0.0982415 -0.1068733
0.06800249 -0.04159448 -0.19151068 -0.014850199 -0.031551406 -0.02653021 -0.043411564 0.029594557
0.16341302 -0.085753694 -0.07721659 0.013805777 0.058746837 -0.043477695 -0.070768096 -0.06294465
0.07945882 0.06813726 0.03003532 0.0535155 -0.09512206 0.09136554 -0.09199818 -0.00041932715
0.21217152 0.053850718 0.07860857 0.059023842 -0.049446028 -0.072474524 0.12405937 -0.047442827
-0.11578173 -0.24986063 -0.030071072 0.008157756 0.008232147 0.10015165 0.08491587 -0.06173318

base.critic.0.bias f4 [64]
00000000: 0000 0000 0000 0000 0000 0000 0000 0000
00000010: 0000 0000 0000 0000 0000 0000 0000 0000
00000020: 0000 0000 0000 0000 0000 0000 0000 0000
00000030: 0000 0000 0000 0000 0000 0000 0000 0000
00000040: 0000 0000 0000 0000 0000 0000 0000 0000
00000050: 0000 0000 ef8f 85b9 0000 0000 0000 0000
00000060: 0000 0000 0000 0000 0000 0000 0000 0000
00000070: 0000 0000 0000 0000 0000 0000 0000 0000
00000080: 0000 0000 0000 0000 0000 0000 0000 0000
00000090: 0000 0000 0000 0000 0000 0000 0000 0000
000000a0: 0000 0000 0000 0000 0000 0000 3e9e a834
000000b0: 0000 0000 0000 0000 0000 0000 0000 0000
000000c0: 0000 0000 0000 0000 0000 0000 0000 0000
000000d0: 0000 0000 0000 0000 0000 0000 0000 0000
000000e0: 0000 0000 0000 0000 0000 0000 0000 0000
000000f0: 0000 0000 0000 0000 0000 0000 0000 0000
0.0 0.0 0.0 0.0 0.0 0.0 0.0 0.0
0.0 0.0 0.0 0.0 0.0 0.0 0.0 0.0
0.0 0.0 0.0 0.0 0.0 -0.00025474976 0.0 0.0
0.0 0.0 0.0 0.0 0.0 0.0 0.0 0.0
0.0 0.0 0.0 0.0 0.0 0.0 0.0 0.0
0.0 0.0 0.0 3.1407575e-07 0.0 0.0 0.0 0.0
0.0 0.0 0.0 0.0 0.0 0.0 0.0 0.0
0.0 0.0 0.0 0.0 0.0 0.0 0.0 0.0

base.critic.2.weight f4 [64, 64]
00000000: 6c77 a6be b60a 68be a936 8abe 4b72 82bc
00000010: a297 aebd 4aaf 803d 3ccf 0bbe d570 98be
00000020: 0674 5abd 7c7f 18be 3a3c fdb9 de04 b13e
00000030: 2bce ff3d 39e5 a83e 8ad0 953e ce64 50bd
00000040: f2a4 0d3e ead6 18be 1ab5 c53d 2fdf aebb
00000050: b43b 2c3d b197 9d3e bdec b8be 7864 b23d
00000060: b031 143d fe1f a43d 399f 9dbe 8211 3cbe
00000070: 401c 693e 62cb 6abe 76f6 443d c42f c73d
00000080: 74cc dbbd ec36 5cbe 1084 753e 0492 92bd
00000090: 43e2 ec3c e410 4bbd d980 0b3d e84c 333d
000000a0: 5c8b 93bd c4f2 1fbe 649b babd acb5 80be
000000b0: 6c9d 4dbe 91fa aebc 1e3f 50be 3ad3 1abe
000000c0: 8670 c83d 6e6e 773e 70bf 9a3d 9814 e3bd
000000d0: 4c26 20be ca91 483e 7a49 a1bd 6485 b93d
000000e0: eee3 4cbe af0b 043d 40a4 923e 8428 4fbe
000000f0: c0de 1bbe 248b 6c3d 602c 7c3e 12b4 14be
00000100: 785e f3bc 48dd 3d3d 959a 04bb c8da 2ebe
00000110: 35c2 81be 55c4 8f3d 37fa 04be f84f cbbc
00000120: 42d7 923d 562b 0ebe 6a71 6fbe a0c6 a2bc
00000130: ab8e b3be 326c 273d 1bf0 21be a332 9ebd
00000140: 032b e7be 6d36 fbbd 7202 a7be 8cc4 c53d
00000150: eb1d 8abe abbd 2cbd 7c18 f23d f846 5dbd
00000160: bbb6 c3bd 9242 aa3e 0663 8b3d ee0c dfbe
00000170: 44ba d33c 48f6 bc3c b83a e73c 55c6 abbe
00000180: 86d5 fd3b 1854 4bbe a250 bbbd 0b50 13be
00000190: 0f54 773b 32ef c63e 2a0e 093e c3d3 093e
000001a0: 0aa6 643d b2ab 1abe ee92 48be 6f1d 583e
000001b0: cff5 343d 22d3 c2bd e49f 083c 5c2e f2bd
000001c0: a5ec 363d be34 303e bb30 9bbd 2bc5 1e3e
000001d0: c789 46be ed8d 26be 9f94 44be 7c31 1abe
000001e0: 21e6 86be 3e62 263c e1e0 4cbe 7cf3 cb3b
000001f0: 7119 fbbd b83d 833e 7141 473e cb7a b4bd
00000200: a685 1fbe a304 123c 47b4 e53d 651e aebe
00000210: ba15 6e3e b7b2 8bbe 01c5 a53e 1374 a4bd
00000220: 6a75 863d 1c5c afbd 9d09 a83e c899 aa3d
00000230: 5ea8 c9bc 399e 81bd 5608 8ebd 10e4 d13d
00000240: 4882 4cbe 39e8 9bbe 67a9 03be f432 823d
00000250: 10dd fc3d 0b76 abbe 6ce4 f3bc 8c54 373e
00000260: de04 18be 7045 91bd 521e e0bd 3dc6 82bd
00000270: 37e5 d2be 1ac2 edbd 12b1 593e 7ebf 30bd
00000280: ad37 113d 4864 11be 66bb 333e fd41 cf3d
00000290: 6c6e 0b3e 4447 6abe 5768 d9bd e837 c7bc
000002a0: 700c 2a3e ee73 743e f2ab afbd 7ae9 3d3e
000002b0: 6bf1 86be 123c 783e fec1 273e ae8e 3fbe
000002c0: e05c 6cbe 4019 e4bc d4ea 443e db37 83be
000002d0: b870 33be 802b 0f3e 1890 61bd b6b0 af3d
000002e0: e046 503e b3fa 213c 7061 0dbe 169d 613c
000002f0: e8f7 0bbe 96c6 1f3e c617 793e 60fd 33be
00000300: 8408 12be 9e34 fdbd e97d e739 e2ac 9c3d
00000310: 6aa2 853c 8eae 9f3d 9247 09be 6d41 59bd
00000320: f21e 84bd dea3 8c3d 98bb 2e3e 09de ffbd
00000330: 68eb 4cbe 4f66 2ebc 38f7 ae3e 1162 193d
00000340: 1a04 cabe 54eb cf3d aa29 743e 46e4 613e
00000350: 8274 1ebe 468b 46be d490 aa3e 029e 75be
00000360: d326 cdbc 90fe aa3e 70d2 be3b 9d24 61bd
00000370: 5f7e 74bd ece2 313e eba7 343d 26b3 313e
00000380: 4557 ba3c 50d2 b33b 2ae7 49be 5e22 d53d
00000390: 04f4 a03d c854 a9bd f3a5 83bd a2ff 983d
000003a0: 5e79 5b3e 430b 1abd 6261 403e b1db 4dbe
000003b0: b073 f8bc e8a4 813e 201b b7bd 0480 cfbd
000003c0: 8041 29be a6fc 74be 3c50 6abe 3b14 943e
000003d0: 8579 733d b621 003f 2dbc 1e3d 7e8a 003c
000003e0: 2fa3 973c ada5 353d ff9b ae3e dfb8 9abe
000003f0: e1c6 77bd d278 ad3d 442e 0abe e090 70be
-0.32512987 -0.22660336 -0.26994827 -0.01592364 -0.085250154 0.06283434 -0.13653272 -0.29773584
-0.053333305 -0.14892381 -0.00048300793 0.34574026 0.12490495 0.32987383 0.29260665 -0.050877385
0.13832453 -0.14925733 0.09653683 -0.005336664 0.042049125 0.30779794 -0.36118117 0.08710569
0.0361802 0.080139145 -0.3078554 -0.18366054 0.22764683 -0.22929147 0.048086606 0.097259074
-0.10732356 -0.21505326 0.23976159 -0.071567565 0.028916484 -0.049576655 0.034058426 0.043774515
-0.07204315 -0.15619951 -0.0911167 -0.25138605 -0.20079583 -0.021359714 -0.20336577 -0.15119639
0.09787087 0.2416322 0.07556045 -0.11087912 -0.15639609 0.19586864 -0.07875343 0.09058645
-0.20008823 0.032237705 0.28640938 -0.20230299 -0.15221691 0.057749882 0.24626303 -0.14521816
-0.029708132 0.04635361 -0.002023374 -0.17075646 -0.2534348 0.07019869 -0.12986074 -0.024818406
0.071699634 -0.13883719 -0.23383108 -0.019870102 -0.35069785 0.040874667 -0.15814249 -0.07724502
-0.45150003 -0.1226624 -0.32619053 0.09656629 -0.2697595 -0.04217307 0.11821076 -0.05402276
-0.095563374 0.33253914 0.068059966 -0.43564552 0.025845654 0.023066655 0.028226241 -0.33549753
0.0077464012 -0.19856298 -0.09146239 -0.14386003 0.0037739312 0.38854367 0.1338431 0.13459687
0.05582241 -0.15104559 -0.19587299 0.21104978 0.044179734 -0.09512927 0.008338902 -0.118252486
0.044659276 0.1720762 -0.07577654 0.15504901 -0.19388495 -0.16265078 -0.1919732 -0.1505794
-0.2634745 0.010155259 -0.2000766 0.006224094 -0.12260712 0.25633025 0.19458558 -0.088124834
-0.15578327 0.008912238 0.11216026 -0.34007564 0.23250476 -0.27284786 0.32376865 -0.08029952
0.06565364 -0.0856249 0.32819834 0.08330113 -0.024616417 -0.06329007 -0.06935184 0.102485776
-0.19971573 -0.3045061 -0.1285759 0.06357375 0.12346852 -0.33488497 -0.029772006 0.17903346
-0.14845607 -0.07093322 -0.10943283 -0.06385467 -0.41190502 -0.116092876 0.21258953 -0.04315137
0.035453487 -0.1419841 0.17551956 0.10120008 0.13616341 -0.22878748 -0.10615604 -0.02431865
0.16606307 0.23872349 -0.08577718 0.18546095 -0.26356062 0.24241665 0.16382596 -0.18706772
-0.23082304 -0.027844071 0.19230205 -0.25628552 -0.17523468 0.13981438 -0.05506906 0.08578627
0.20339537 0.0098864315 -0.138067 0.013770362 -0.13668787 0.15603098 0.24325475 -0.17577124
-0.14261061 -0.123635516 0.00044153564 0.07650162 0.016312797 0.077969655 -0.13406208 -0.05304091
-0.06451215 0.06867193 0.17063749 -0.12493522 -0.20011675 -0.010644509 0.34172988 0.03744704
-0.39456254 0.10152307 0.23844019 0.22059736 -0.15474132 -0.19389066 0.3331362 -0.23986056
-0.025042927 0.3339734 0.005823426 -0.054966558 -0.05969083 0.1737172 0.04410545 0.17353496
0.022746691 0.0054877177 -0.19717088 0.10406946 0.07859042 -0.08268124 -0.06428137 0.07470633
0.21433017 -0.037608396 0.18787149 -0.20103337 -0.030328602 0.25321126 -0.089407206 -0.10131839
-0.16528893 -0.23924503 -0.2288217 0.28921685 0.059442062 0.5005144 0.038753677 0.007845519
0.01851043 0.044347454 0.3410339 -0.3021917 -0.0604924 0.0847031 -0.13494211 -0.23492765

base.critic.2.bias f4 [64]
00000000: ba52 8e3b 216d fd3b d671 f8b6 29b7 ce3b
00000010: f832 233c a610 77bc 3dfd 623c dc9c 7d3c
00000020: f9f4 273b 152b 713c b183 b43b 9beb 8b39
00000030: 64ca 0dbc a64e c5bb e285 c03b faf8 4f3c
00000040: 4093 333c 3b4a 4dbb 2a6c e13b 04f9 47bb
00000050: 7eeb bbbb 22a1 b5bb 87d9 fbbb 65bc 56bc
00000060: 3b60 963b 4cae 3ebc ebe5 b4bb dbd2 3e3c
00000070: 05fa 823b 1651 123b bf25 edbb 8990 dabb
00000080: 396b 52bc 366a 6cbc 76b3 b1bb 7d76 74bc
00000090: 6ce3 aebb 2dc5 acbb 02b9 ebb9 8f80 873a
000000a0: 3b53 58bc a236 7cbc fa31 8e3b 27b5 4e3c
000000b0: 5288 7e3c d8e3 9abc d4ed 373c 978f 70bc
000000c0: 60f0 babb a8b1 6a3c af06 6e3c e263 a3bb
000000d0: 1f5a 78bc 1cb4 dcbb d962 803c 200f 8f3b
000000e0: a333 b93b 9f80 293b 43a1 aabb e04a db3b
000000f0: 51eb d0bb 56d6 8cbb 40bf 4539 b14c b6bb
0.004343358 0.0077339564 -7.404228e-06 0.0063084555 0.009960882 -0.015079653 0.013854322 0.015479293
0.0025628193 0.014719744 0.005508863 0.00026687686 -0.008654211 -0.0060213385 0.005875335 0.012693638
0.0109604 -0.0031324762 0.0068793492 -0.0030513415 -0.00573486 -0.00554289 -0.0076858434 -0.01310644
0.0045891083 -0.011638235 -0.0055205724 0.011646952 0.00399709 0.0022326163 -0.0072371657 -0.006670062
-0.012842947 -0.01442962 -0.0054230047 -0.014920828 -0.0053371694 -0.0052725286 -0.00044960534 0.0010337996
-0.013203437 -0.015393885 0.0043394538 0.012616432 0.015535431 -0.018907472 0.011226136 -0.014682672
-0.0057049245 0.014324583 0.014527961 -0.004986272 -0.015158205 -0.006735338 0.015672134 0.0043658167
0.0056519075 0.0025864018 -0.005207212 0.0066922754 -0.006375708 -0.004298012 0.0001885863 -0.0055633415

base.critic_linear.weight f4 [1, 64]
00000000: 55b7 8cbd 46de 90be 83ca 2cbe 3661 19be
00000010: 6ed0 f63c ab74 75be 0486 8f3e 5257 c23e
00000020: 1e7a 213e 7495 f43d 60d1 51be aa60 4fbc
00000030: 5cba c3bc e25c 493e 2ce6 b9bd 17ea 383e
00000040: 3add 223d a9d2 1a3d 5985 74be 3082 1b3e
00000050: 1af1 cbbd c8ee 7e3e 9a21 4b3e 9bb2 a2bd
00000060: 1160 233d ccbd c336 d060 343e 6893 e43d
00000070: dfc4 86bd e6e4 d63c 7a36 bf39 b67f c13e
00000080: 0d46 8bbe 21ef 7ebe 28bf 5c3d a9fd 86bd
00000090: a728 7eb9 4a42 dcbd 1c8d 083d 5bda 4f3e
000000a0: 885a 35be 1be7 74be d4d7 24b3 6f1d 643d
000000b0: cefd f3bb 753a db3a 429e 113d a477 88be
000000c0: 74e5 a2bd 743b 113e 9927 a03d a461 843e
000000d0: 83d8 46be 4ee3 a83e 57dd 153e fe78 783c
000000e0: 4bc6 3bbe 5959 fe3b 394c 103e 64c4 90be
000000f0: da6a 593e 2c50 39bd 7970 473d fa6e f2bd
-0.06870905 -0.2829458 -0.16874127 -0.1497849 0.030128684 -0.23970287 0.28031933 0.37957245
0.1576924 0.119425684 -0.20490026 -0.012657324 -0.023892574 0.19664338 -0.09077105 0.18058048
0.03976176 0.037798557 -0.23878993 0.15186381 -0.09958096 0.24895775 0.19837037 -0.079442225
0.039886538 5.833548e-06 0.17615056 0.11160928 -0.06580519 0.026232194 0.00036470947 0.37792748
-0.27201882 -0.24895908 0.05389324 -0.065913506 -0.00024238472 -0.10754831 0.033337697 0.2029814
-0.17710316 -0.23916285 -3.838052e-08 0.055692133 -0.0074460274 0.0016725796 0.035551317 -0.2665378
-0.07953921 0.14182836 0.07820053 0.25855744 -0.1941853 0.3298592 0.14635216 0.015165566
-0.18337362 0.007762116 0.14091577 -0.28274834 0.21232167 -0.045242473 0.048691247 -0.11837573

dist.dst_type_linears.0.weight f4 [2, 64]
00000000: ff7a 413d 53ac 2ebd 879b 2cbd 6c1e 40bd
00000010: 50b0 44bd f3cf 3b3d b060 15bd 4138 54bd
00000020: 9049 28bd 1502 553d f787 223d 0421 2bbd
00000030: 4d93 2bbd 4f6d 393d 9e44 35bd af0e 403d
00000040: 0d3c 08bd 3e35 34bd 37c8 33bd e438 213d
00000050: c567 263d 003e 253d 26da 3dbd 26ad 693d
00000060: fedc 15bd 057f 26bd 0be0 2fbd 2b70 2fbd
00000070: 18a3 293d 02ef 5dbd a5e5 28bd 7d3c 253d
00000080: e2c0 2d3d 7eb8 cfbc 63a3 5bbd 4aa8 2e3d
00000090: aa7b 1ebd fefc 523d 7fc4 293d 9591 44bd
000000a0: 32a7 4d3d 26c9 44bd 9f8b 21bd a1d7 543d
000000b0: 9cc8 2dbd 04ec 2a3d 60ea 62bd 4e34 39bd
000000c0: 96b7 3abd 707f 1fbd 5a0f 343d b6ce 2f3d
000000d0: f0ef 23bd 1d57 3d3d 3c93 2abd 0dd4 2c3d
000000e0: 8191 5d3d 92d7 273d 95d1 2dbd a2b6 52bd
000000f0: 0caa 05bd e933 39bd 0722 2cbd 79e0 e73c
00000100: 242e 44bd b2c8 293d 1c13 2f3d c137 3b3d
00000110: d8b5 3e3d 6ee7 30bd 915f 143d 91a1 533d
00000120: 6def 333d 9129 45bd cb36 2abd 38af 353d
00000130: 9928 2d3d d406 31bd ff65 3f3d b70b 3bbd
00000140: c688 113d 336e 293d b9ca 2b3d 7036 24bd
00000150: 0dbf 28bd fe05 21bd 0dd5 353d b0d7 6dbd
00000160: d656 163d 9076 273d 3e03 323d e619 283d
00000170: 81c6 2bbd 74da 5d3d 180b 2f3d 7093 2abd
00000180: 14ca 2dbd bc38 b83c fe82 603d ebe7 1dbd
00000190: 9ac1 253d f5fb 66bd cde4 28bd dccf 403d
000001a0: fd23 4ebd e369 433d d47e 253d 6c4e 53bd
000001b0: c603 283d 41e8 30bd 9093 623d 9d4e 483d
000001c0: 0ef6 3f3d f48a 173d 6219 3ebd dbcb 2fbd
000001d0: 93fd 253d 70e0 38bd b72f 293d 7dac 31bd
000001e0: 9f32 6abd 04a0 27bd 6a9e 323d 6811 563d
000001f0: f781 003d e9a2 313d 5570 283d c1ca fcbc
0.04723644 -0.04264481 -0.04214051 -0.046904013 -0.048019707 0.045852613 -0.03646916 -0.05181146
-0.04108578 0.05200394 0.039680447 -0.041779533 -0.041888524 0.04527026 -0.04425489 0.046889003
-0.033260394 -0.04399609 -0.04389211 0.039360896 0.040626306 0.04034233 -0.04635062 0.057049893
-0.036587708 -0.04064848 -0.042938273 -0.04283158 0.041415304 -0.054183014 -0.04123463 0.04034089
0.042420276 -0.025356527 -0.053622615 0.04264096 -0.038692154 0.051510803 0.04144716 -0.0479904
0.050208278 -0.048043393 -0.039439794 0.051963452 -0.042427644 0.04172899 -0.0553993 -0.045215897
-0.045585237 -0.038939893 0.043959953 0.042921744 -0.040023744 0.046225656 -0.04164432 0.042194415
0.05409384 0.04097707 -0.0424362 -0.051443703 -0.032632872 -0.04521552 -0.04202464 0.02830528
-0.047895566 0.041451164 0.042742833 0.045707468 0.04656014 -0.04318946 0.03622395 0.051667754
0.043929506 -0.048135344 -0.04155616 0.044356555 0.042275045 -0.043219402 0.04672813 -0.04566547
0.035530828 0.04136486 0.04194138 -0.04009098 -0.041197825 -0.039312355 0.044392634 -0.058067024
0.036703907 0.040884554 0.043460123 0.041040324 -0.041937355 0.05416341 0.04273519 -0.041644514
-0.042429045 0.02248799 0.054812424 -0.038551252 0.040467836 -0.05639263 -0.041233826 0.04707323
-0.05032729 0.047708403 0.040404156 -0.05158846 0.041019224 -0.043190245 0.055316508 0.048903096
0.046865515 0.03699775 -0.046410926 -0.04291902 0.04052503 -0.045135915 0.04130527 -0.04337739
-0.057177182 -0.040924087 0.043608107 0.052262694 0.031373944 0.043368254 0.041122753 -0.0308584

dist.dst_type_linears.0.bias f4 [2]
00000000: b124 2a3d b024 2abd
0.041538898 -0.041538894

dist.dst_type_linears.1.weight f4 [2, 64]
00000000: 36c3 5cbb 9166 3fbb d1e2 06bc 7d3b b7bc
00000010: 3fc3 64ba 3c65 abbb 27f1 a2bc 72d8 8a3a
00000020: 36aa 0ebb 5404 c939 c10c 72b9 f344 2a3b
00000030: 17e6 79b9 2768 0cbb 395f 403b 1b6c 30bb
00000040: b791 56bc c23b 433b 56e3 173b 5400 f9bb
00000050: c17e 663a 6962 ae3b 7098 1e3b d3cf 3d3c
00000060: 393f 24bc 2069 6a39 04de 03bb e93d cebc
00000070: 1c1f e839 e25b 41bc 6ef5 48b9 4b9a a23a
00000080: 9547 03bb aebd 78bc bc04 1dbb 063d 60ba
00000090: 4dd2 eb3b b7fa fc3b ade0 71ba fe67 863b
000000a0: afc9 56bb 8ee9 773b 966c 52bc 3d17 deb9
000000b0: 8838 c1bb e7ec d3ba 9f92 e0bb 2532 843b
000000c0: 8d52 473b 4c7e 0bbb a2dd 14bb 1caa 1eba
000000d0: ecb2 debc 76ba 0cbc f0ff 01bb e76e 9d3c
000000e0: e1c4 213b 08ec cab9 7dc0 2f3b 8a13 b73b
000000f0: 81c8 66bc e031 ceb8 a349 f1b8 e6b9 af3c
00000100: 462c c93b aa6e 3939 f820 db3b 853e b63c
00000110: b8fc 9c3b 3987 b73b 8055 b23c 1cf5 a7ba
00000120: 593e ef3a 2255 d03a a4b2 853a 3d42 c539
00000130: fc74 aeba 7963 083b 3b79 85bb b0d3 233b
00000140: bd96 6b3c 0d63 1cbb 276e cdba d766 873b
00000150: 0834 36ba e763 fcbb 6aee cbba 9956 3dbc
00000160: a42d 193c 5853 e3b9 91d8 0fbb 648a d93c
00000170: c5d5 2eba 4a8c 0d3c 1350 3bb9 cfdb 22b8
00000180: 8bd6 0e3b e719 693c 99ec f7ba a6c3 24bb
00000190: c045 01bc b2e8 28bc 7e96 89ba 1739 61bb
000001a0: 01bf 143b 0cde 5dbb 526b 693c c465 133a
000001b0: bbac 6a3b 2416 1c3b 2617 d13b 2a86 e7ba
000001c0: 3f20 41bb 29f4 e83a 15d0 053b 6a19 c4ba
000001d0: 2f6a cf3c 2eac e93b bee1 903b 2161 9bbc
000001e0: 1174 19bb 7833 fcb7 d604 16bb b3bd b2bb
000001f0: aa2e 823c da14 79bb e755 54ba 58cf a8bc
-0.003368569 -0.0029205421 -0.008232788 -0.022367233 -0.00087266037 -0.005230574 -0.019890381 0.001059307
-0.0021768934 0.00038340932 -0.0002308367 0.0025981038 -0.00023832206 -0.0021424384 0.0029353632 -0.0026919905
-0.013096265 0.0029790257 0.0023176274 -0.007598916 0.00087926915 0.00532179 0.0024199747 0.011585194
-0.010024839 0.00022355141 -0.0020121345 -0.025176005 0.00044273667 -0.011801692 -0.00019164916 0.0012405602
-0.002003168 -0.015181942 -0.002395912 -0.0008554015 0.0071967007 0.007720317 -0.00092269 0.0041017523
-0.0032774021 0.0037828418 -0.012843272 -0.00042360454 -0.0058966316 -0.0016168625 -0.006853416 0.004034298
0.0030414194 -0.0021284996 -0.0022715111 -0.000605257 -0.027184926 -0.008589378 -0.0019836389 0.019217921
0.0024684 -0.000387043 0.0026817613 0.005587046 -0.01408589 -9.8321354e-05 -0.000115054914 0.021450948
0.006139311 0.000176842 0.00668728 0.022246609 0.0047908686 0.0056008366 0.021769285 -0.0012814137
0.0018252834 0.0015894512 0.0010200334 0.0003762412 -0.001331001 0.0020811243 -0.0040732897 0.0024998002
0.0143792005 -0.002386275 -0.0015673087 0.0041321325 -0.0006950502 -0.007702339 -0.0015558724 -0.011556291
0.0093492605 -0.0004335891 -0.0021949152 0.026555248 -0.00066694274 0.008639405 -0.0001786354 -3.8828523e-05
0.0021795358 0.014227367 -0.0018915116 -0.002514103 -0.007890165 -0.010309385 -0.0010497121 -0.0034366304
0.0022696855 -0.0033854274 0.014246779 0.0005622769 0.0035808522 0.0023816908 0.0063809333 -0.0017663885
-0.0029468683 0.0017772961 0.0020418216 -0.0014961187 0.025319187 0.007131121 0.004421442 -0.018967213
-0.0023415128 -3.0064708e-05 -0.0022891066 -0.005454743 0.015891392 -0.0038006813 -0.00080999586 -0.020606682

dist.dst_type_linears.1.bias f4 [2]
00000000: 39ac 363a aeac 36ba
0.0006968412 -0.00069684803

dist.dst_type_linears.2.weight f4 [2, 64]
00000000: 5809 0e3d 8474 07bd a4f0 2bbd be06 45bd
00000010: d11e 2cbd c5cf e23c 5b6e 00bd a826 12bd
00000020: 004f f4bc 7a28 1d3d 57ed 053d 2f28 0abd
00000030: 57aa 08bd 05af 0b3d 7f50 15bd 95ad 0f3d
00000040: d50b 22bd d4df 14bd da9e fbbc fe6c e03c
00000050: d255 093d 2d34 e63c 9039 0dbd 500a 563d
00000060: c039 dbbc ab2c 0abd 2f76 02bd 1285 47bd
00000070: a3b6 f63c 7eaf 49bd dbb2 03bd 59a7 053d
00000080: ca29 0b3d 4c12 88bc 8211 1dbd 69f4 083d
00000090: 15c6 07bd 4871 323d 32f7 063d 9b30 16bd
000000a0: 3658 233d a15d 12bd 3bd4 2ebd a797 1c3d
000000b0: f5ee f5bc 7fcd 003d 4f7a 17bd ef1d 1abd
000000c0: 2c17 0bbd a359 d9bc 0de2 153d 460c 053d
000000d0: bc3f 2abd 1393 fe3c 2926 03bd 0cc6 4d3d
000000e0: 0898 3a3d eddb 0c3d 51a0 0bbd 2a97 03bd
000000f0: 8c9f a3bc 74cd 0cbd 0b24 01bd efd2 0f3d
00000100: e97e 0dbd 2d46 043d b98c 293d dce5 533d
00000110: 2aae 223d aed3 c9bc 4716 ea3c e098 193d
00000120: 4adc 003d 9816 18bd 9170 03bd 71f5 113d
00000130: df3c fe3c d41a 10bd fb4d 173d 7a8f 13bd
00000140: 0e7b 1c3d 62a4 163d 6ac7 103d 9ce1 debc
00000150: 380a 0cbd c8d7 ebbc 1209 083d 5a5e 51bd
00000160: 9234 db3c 4e03 093d 1a84 ff3c b317 4c3d
00000170: f5a6 e7bc 912c 4e3d 354c 103d 8b93 03bd
00000180: d020 08bd fda2 8c3c 6a71 123d 3634 09bd
00000190: 7d5d 023d a5f5 26bd a4ad 05bd a448 0e3d
000001a0: c568 20bd c561 103d 8b8e 263d 9f94 1bbd
000001b0: 644c 003d 11be 11bd 5b10 1c3d 37ab 163d
000001c0: f29e 123d 00c1 dd3c e54d 08bd 57d4 0fbd
000001d0: a096 313d 2ab5 f6bc 41b1 033d 5f51 5dbd
000001e0: 3d38 3cbd 9fb7 09bd 3835 103d f131 f53c
000001f0: 30cf 9c3c f6d5 063d 7743 053d 293f 08bd
0.03467688 -0.033070102 -0.04197754 -0.048102133 -0.042021576 0.027686963 -0.031355243 -0.035681397
-0.029822826 0.03836868 0.032697048 -0.03372973 -0.033365574 0.03410246 -0.03645372 0.03507765
-0.039562065 -0.03634627 -0.030715395 0.027395722 0.03352911 0.028101051 -0.034478724 0.05225593
-0.026760936 -0.033734005 -0.03185099 -0.04871089 0.030116385 -0.049239628 -0.03215299 0.0326303
0.0339754 -0.016610287 -0.038346775 0.033436213 -0.03314789 0.043565065 0.032950588 -0.036667448
0.039879046 -0.035733823 -0.042682867 0.038230564 -0.03002117 0.031445976 -0.036981877 -0.037626203
-0.033957645 -0.026532 0.036592532 0.032482408 -0.041564688 0.03107599 -0.032018814 0.0502377
0.045555145 0.034389425 -0.034088437 -0.032126583 -0.019973539 -0.034375623 -0.031528514 0.03511327
-0.03454486 0.032293487 0.04139397 0.051732883 0.039716877 -0.02463707 0.028575076 0.03749931
0.031460084 -0.037130922 -0.032089774 0.03563446 0.031034885 -0.035181835 0.036939602 -0.0360255
0.03820329 0.03677786 0.035346426 -0.027207188 -0.034189433 -0.028789416 0.033211775 -0.05111537
0.026758466 0.033450417 0.03119092 0.04982729 -0.028277854 0.05033547 0.035228927 -0.03212313
-0.033234417 0.017167563 0.03575269 -0.033497058 0.03182744 -0.04076161 -0.0326363 0.034737244
-0.039162416 0.03524949 0.040663283 -0.037983533 0.03132285 -0.035581652 0.038101535 0.036784377
0.035796113 0.027069569 -0.03327741 -0.035114612 0.043356538 -0.030115683 0.032151464 -0.05403268
-0.04595207 -0.03362238 0.035207003 0.02993104 0.019141763 0.032918893 0.032535043 -0.03326336

dist.dst_type_linears.2.bias f4 [2]
00000000: a35a 033d a05a 03bd
0.03206886 -0.03206885

dist.dst_type_linears.3.weight f4 [2, 64]
00000000: c228 f43c 3181 21bd c835 dcbc e549 20bd
00000010: 2f9c f1bc 15d4 123d ceee 08bd bdfa 07bd
00000020: a108 2abd e6d7 e23c 61fa 153d 1bf0 11bd
00000030: 1211 2abd 6550 173d 0b80 dbbc 0222 e13c
00000040: 94f4 20bd 88f7 1abd 65c4 19bd 62c1 263d
00000050: 0f8a 283d 68e8 213d 5b41 1dbd b208 f83c
00000060: 9485 2dbd 95b0 22bd 2493 2fbd f844 10bd
00000070: a2dc 1a3d 1542 e7bc a8a0 2fbd bd71 343d
00000080: 25cd 253d 467e bbbc 9e34 efbc 9469 243d
00000090: 2335 e4bc 3bf4 293d 6f9c 283d ca11 0ebd
000000a0: 16d7 073d c957 11bd 816a 0cbd d891 f33c
000000b0: 6ecb 0fbd 8534 1d3d 13e6 01bd fcf6 0ebd
000000c0: c0f1 15bd 319a 27bd 83e1 0e3d 4bcd 1e3d
000000d0: 3bd5 1fbd a9b1 0a3d 3138 24bd ca04 fa3c
000000e0: 7eaa 0a3d 2154 223d 0629 18bd 6995 07bd
000000f0: c7b0 f0bc 5ba1 0fbd b511 22bd b8a2 153d
00000100: b8ea e6bc 8580 223d cb6c fe3c 5028 223d
00000110: 808c d13c efc0 11bd 01ce 0a3d 87ae 013d
00000120: 975e 223d a965 f3bc 86b7 26bd fcec 193d
00000130: 2663 2e3d e01f 12bd 9abe df3c 92d9 e9bc
00000140: 7eb7 293d 75fe 1d3d 65e4 1f3d b676 30bd
00000150: 9883 23bd 94e2 22bd 219a 1a3d 31ba 02bd
00000160: 484d 2d3d 871f 223d 242e 1e3d 54b5 0e3d
00000170: c998 12bd 9762 e33c dcb0 233d b37c 20bd
00000180: facf 1fbd f7e1 ae3c de67 ee3c 7b3f 28bd
00000190: bcd1 eb3c de53 25bd 33c7 1fbd 174a 183d
000001a0: e5ae 0ebd 0f3a 0d3d eca1 093d 6aba f5bc
000001b0: 86b5 103d 7528 27bd 9ada 0a3d 1e4f 113d
000001c0: 90fe 183d a632 323d b911 10bd ecdb 25bd
000001d0: ba3e 1f3d dcb0 04bd 075f 263d f4f4 ffbc
000001e0: 6276 0ebd b798 25bd 5f27 1f3d 07db 0a3d
000001f0: 8e47 f83c 9835 173d 541f 233d 5c48 12bd
0.029804591 -0.039429847 -0.026881114 -0.03913297 -0.02949342 0.03584679 -0.033430867 -0.033198107
-0.041512135 0.027690839 0.036615733 -0.035629373 -0.041520186 0.036941905 -0.026794454 0.027482037
-0.039295748 -0.03783372 -0.037540812 0.040711768 0.041147288 0.03952828 -0.038392406 0.030277584
-0.04236372 -0.039719183 -0.042864934 -0.035222024 0.037808068 -0.028229753 -0.042877823 0.04405378
0.040478844 -0.02288736 -0.029199895 0.04013975 -0.027857369 0.041492682 0.04116481 -0.034684934
0.033164106 -0.03548411 -0.034281258 0.02973263 -0.035106115 0.038380165 -0.031713556 -0.03490351
-0.036607504 -0.040918533 0.034883033 0.03877 -0.03902171 0.033860836 -0.04009265 0.030519862
0.033854 0.039631013 -0.037148498 -0.033101473 -0.029381169 -0.03506599 -0.039567668 0.036532134
-0.028188094 0.039673347 0.031057736 0.039589226 0.025579691 -0.035584386 0.033887867 0.031660583
0.03964099 -0.029711561 -0.040702365 0.03757952 0.042575024 -0.03567493 0.027312566 -0.028546128
0.041434757 0.038572747 0.039036173 -0.04308196 -0.03992042 -0.039766863 0.037744645 -0.031915847
0.04231003 0.039580848 0.038618222 0.034840897 -0.03579024 0.027756972 0.039963588 -0.039181422
-0.0390167 0.021347983 0.029102262 -0.041076165 0.028786533 -0.040363185 -0.03900833 0.037180033
-0.03483476 0.034479197 0.033601686 -0.029996116 0.035329364 -0.040810067 0.03389988 0.035475843
0.037352145 0.043505333 -0.03517315 -0.040492937 0.03887818 -0.03239523 0.04061797 -0.031244732
-0.034780867 -0.040428843 0.038855907 0.033900287 0.030307557 0.036916345 0.0398248 -0.03571354

dist.dst_type_linears.3.bias f4 [2]
00000000: e53a 253d e53a 25bd
0.04033937 -0.04033937

dist.dst_type_linears.4.weight f4 [2, 64]
00000000: 9b3d 843d c3dd 4fbd 8423 02bd 8d88 d5bc
00000010: 11a7 78bd 52aa 8f3c cba8 dfbc d21e 70bd
00000020: 8fcc bfbb 9bf4 803d d91a 5e3d a7a4 5cbd
00000030: 85a1 52bd 5bf9 5e3d 7032 8dbd feda 8d3d
00000040: 9b56 86bc 6339 5cbd 7455 68bd 7076 1d3c
00000050: ce10 583d af0a 80b7 f338 65bd 9247 463d
00000060: db95 f53a 68e8 52bd c659 46bd dee4 dbbc
00000070: ce10 473d fb6f 41bd 0465 4fbd 25dc 4b3d
00000080: 0c7a 573d e001 c4bc 7a9c 7fbd 59bb 513d
00000090: 4c23 8dbd 93a5 8d3c 4c74 4c3d f7e9 65bd
000000a0: 4515 6a3d c285 63bd 94ab 08bd 30d8 753d
000000b0: 739e adbb f511 553d a026 5cbd f2a0 61bd
000000c0: 84d0 60bd f17f 8cbb 2edb 643d 90a4 573d
000000d0: eb7f afbc b83e 473d 3d4d 4cbd 51f2 073d
000000e0: 12dc 4e3d 6c73 4c3d 7bbb 5bbd 0bac 41bd
000000f0: 4f24 d2bc af52 63bd c2b1 48bd d5ed 443c
00000100: a98c 85bd 76f0 5a3d 66b5 113d 9602 d53c
00000110: 6ad6 813d ef51 93bc 7116 ea3c be6b 6a3d
00000120: eb0e a43b 2c67 88bd 9d22 59bd e505 5c3d
00000130: 37e3 503d 635e 60bd cf7f 8e3d 76e4 84bd
00000140: 0258 753c 42df 583d 4dab 603d ae10 e9bb
00000150: c5f9 4bbd 7e42 51bb 2f82 5e3d a7ff 44bd
00000160: edb7 9abb cedd 4f3d ea80 4f3d 4c87 d03c
00000170: 9dcf 56bd 87a1 4a3d 3d65 503d e8d6 4bbd
00000180: 921d 59bd a926 b43c d292 803d 5b45 4bbd
00000190: 7bac 8d3d 124e 9cbc 1b7c 4fbd 895b 6e3d
000001a0: 0982 66bd 5ec6 623d c349 113d 254e 77bd
000001b0: a6e5 b53b 4931 55bd 486b 5c3d a725 633d
000001c0: d450 603d 6dbb d239 c494 60bd 19ab 59bd
000001d0: af8d b13c 9008 48bd a3f6 4c3d 8f8c 0ebd
000001e0: fa27 4ebd eaac 4dbd 4a30 663d 579b 453d
000001f0: 8e5c cd3c ad47 5f3d 47cf 553d 6623 63bc
0.06457063 -0.050748598 -0.03177215 -0.026066089 -0.060706202 0.01753727 -0.027302166 -0.058623143
-0.0058532427 0.06296655 0.054224823 -0.053867962 -0.05142357 0.054437023 -0.06894386 0.06926535
-0.016398719 -0.053765666 -0.05672212 0.009610757 0.0527504 -1.5263764e-05 -0.055962514 0.0484081
0.0018736677 -0.05149117 -0.04842546 -0.02684253 0.04860001 -0.047225934 -0.050633445 0.049770493
0.052606627 -0.023926675 -0.062405087 0.05120406 -0.06891498 0.017290866 0.049915597 -0.05613133
0.05714919 -0.055547483 -0.033366755 0.060020626 -0.0052984296 0.05201908 -0.053747773 -0.05508513
-0.054886356 -0.0042877127 0.05587309 0.052647173 -0.0214233 0.048643798 -0.049878348 0.033190075
0.050502844 0.049914762 -0.053645592 -0.047283214 -0.025652079 -0.055498775 -0.048997648 0.012019594
-0.065209694 0.053451978 0.035573386 0.02600221 0.06339724 -0.017983405 0.028575154 0.057231657
0.005006661 -0.066603035 -0.053011525 0.05371656 0.05099794 -0.054777514 0.06957971 -0.06488888
0.014974596 0.05294729 0.054850865 -0.007112584 -0.049798746 -0.0031930502 0.05432337 -0.04809537
-0.0047216327 0.05074864 0.05066005 0.02545514 -0.05244409 0.04947045 0.0508778 -0.049765497
-0.053006716 0.02199109 0.06278004 -0.04962669 0.06917664 -0.019080196 -0.050655466 0.058192763
-0.056276355 0.05536496 0.035470735 -0.06037726 0.005551058 -0.052048955 0.05381325 0.05545583
0.054764584 0.00040193964 -0.054829374 -0.053141687 0.021674005 -0.04883629 0.0500399 -0.034802016
-0.050331093 -0.05021373 0.056198396 0.048243847 0.025068548 0.054511715 0.05219963 -0.01386342

dist.dst_type_linears.4.bias f4 [2]
00000000: 415f 4c3d 3b5f 4cbd
0.04989553 -0.049895506
