route_dev/drl-or/model/test/agent9.pth (torch, 211205 bytes, 31 tensors)

base.actor.0.weight f4 [64, 321]
0	0xbd93bfd9	-0.072143264
1	0xbda49884	-0.080369025
2	0xbdd04afd	-0.10170553
3	0x3ab02e31	0.00134415
4	0xbcf06051	-0.029342802
5	0xbd9cd0ec	-0.07657036
6	0x3dbb7f13	0.09155097
7	0x3c9223c9	0.01783933
8	0xbb179401	-0.0023128989
9	0xbd4c35d7	-0.049856033
10	0x3da52d15	0.08065239
11	0x3d8d147f	0.06888675
12	0xbcdef263	-0.027215188
13	0x3d86ec23	0.06588008
14	0x3e107ede	0.14110896
15	0xbd2345d2	-0.039861508
16	0xba97fa04	-0.0011594896
17	0x3d45647c	0.048191532
18	0xbd4e1bce	-0.050319485
19	0xbdbe9a1e	-0.09306739
20	0xbd94fb22	-0.07274462
21	0x3bddc667	0.006768036
22	0xbc0e7ca5	-0.00869671
23	0x3b4d2b80	0.0031306446
24	0xbe3cc304	-0.18433768
25	0x3d3e923c	0.04652618
26	0x3dd7089b	0.10499688
27	0xbd368028	-0.044555813
28	0xbd44fea2	-0.0480944
29	0xbdf01405	-0.117225684
30	0x3dc817b3	0.09770145
31	0xbd86eca4	-0.06588104
32	0x3dfaa304	0.12238124
33	0xbd15c692	-0.036566325
34	0x3ca9ec59	0.020742582
35	0xbb99e55b	-0.0046965308
36	0x3ccfa30e	0.025346305
37	0x3c909b47	0.017652167
38	0x3c1df1c3	0.00964016
39	0xbe0c7843	-0.13717751
40	0xbe0a3d26	-0.13499889
41	0xbcf638fd	-0.030056471
42	0xbd541689	-0.051779304
43	0xbd0c4742	-0.034247644
44	0x3c6df4ce	0.014523698
45	0xbd184a64	-0.03718032
46	0xbd824a7e	-0.063618645
47	0xbd02a724	-0.03189768
48	0xbdc325bf	-0.09528684
49	0xbddf41bd	-0.109012105
50	0xbcafead3	-0.021474278
51	0xbda887bd	-0.08229015
52	0x3d862710	0.06550419
53	0x3c9be676	0.01903079
54	0xbc8c08c3	-0.017094022
55	0x3d72c62c	0.059271023
56	0xbc4ee115	-0.012626906
57	0x3d96533f	0.07340097
58	0xbd3516f3	-0.04421134
59	0xbd912bb0	-0.07088411
60	0x3dc2dd79	0.09514899
61	0x3e069aa5	0.1314493
62	0x3d93eaea	0.07222541
63	0xbdacf6de	-0.08445524
64	0xbc2fd249	-0.010731288
65	0x3dbb208b	0.091370665
66	0xbda2ee5a	-0.07955618
67	0x3d6b019c	0.05737458
68	0xbd896bfd	-0.0671005
69	0x3e2dd963	0.16977458
70	0x3d79aea7	0.060957577
71	0xbcf7c016	-0.03024296
72	0x3e0b4bb7	0.13603102
73	0x3d10a4af	0.035313305
74	0x3d5d97b6	0.05409976
75	0xbdc785f5	-0.09742347
76	0x3da444c0	0.080209255
77	0xbd249c72	-0.04018826
78	0xbdceb1c3	-0.10092499
79	0x3bd20daa	0.0064103203
80	0x3cab8983	0.020939594
81	0x3d30de69	0.043180857
82	0xbdd54715	-0.104139484
83	0xbad38483	-0.0016137514
84	0xbd9b7bd6	-0.07591979
85	0xbd3c6bfb	-0.046001416
86	0xbdee937e	-0.11649226
87	0xba8d7703	-0.0010792915
88	0xbb33a24e	-0.0027409974
89	0xbd688078	-0.056763142
90	0x3db162b3	0.086614035
91	0x3accce0b	0.001562537
92	0x3d9436a2	0.07236983
93	0xbb384c59	-0.0028121679
94	0xbdd9f694	-0.10642734
95	0x3da5b122	0.08090426
96	0xbbeabc41	-0.007163555
97	0x3e09a826	0.1344305
98	0x3d96254e	0.07331334
99	0xbdd5aab5	-0.104329504
100	0x3d6f1c77	0.058376756
101	0x3d7a1911	0.06105906
102	0xbd9749ac	-0.07387099
103	0xbd77966c	-0.060446188
104	0x3ca26bf5	0.019826869
105	0x3dc1f5bf	0.094707005
106	0xbb4ea542	-0.0031531607
107	0xbd88768c	-0.06663236
108	0xbb1810a6	-0.0023203283
109	0x3e261fda	0.16223088
110	0xbc53b090	-0.012920514
111	0xbdf08002	-0.117431656
112	0xbdbd69ee	-0.0924872
113	0xbde2cc99	-0.1107418
114	0x3b9600b3	0.00457772
115	0xbc945efc	-0.018111698
116	0x3d54f8fd	0.051995266
117	0xbd0623ec	-0.0327491
118	0x3d204d94	0.039136484
119	0x3d51dbd3	0.05123503
120	0xbd6a8197	-0.057252493
121	0xbc937e16	-0.018004458
122	0xbc19597a	-0.009359712
123	0x3d277ce2	0.040890582
124	0x3e11a4c2	0.14223006
125	0xbd5c4b16	-0.053782545
126	0x3d41c434	0.047306255
127	0xbc32d92b	-0.010916035
128	0x3c78ec8a	0.015193114
129	0xbd9cbf3b	-0.07653662
130	0x3d7dc49e	0.061955087
131	0x3c9c0638	0.019045934
132	0x3d9fc7bb	0.078017674
133	0x3cb1d3b7	0.021707399
134	0x3d677166	0.05650463
135	0x3d416724	0.047217503
136	0xbc89f173	-0.016838765
137	0xbdcd4dd6	-0.10024612
138	0x3e42cad9	0.19022693
139	0xbd17b458	-0.037037224
140	0xbcbe5674	-0.023234583
141	0xbd2c7703	-0.042105686
142	0x3dacc5c5	0.08436159
143	0x3d809317	0.06278055
144	0x3d87dd28	0.06633979
145	0xbca17b27	-0.019712044
146	0xbd957fc0	-0.07299757
147	0x3de6bb12	0.112661496
148	0x3c13b5eb	0.009015541
149	0xbdf531c3	-0.11972382
150	0xbda485b0	-0.08033311
151	0xbab3b568	-0.001371068
152	0x3dafbc2a	0.08580811
153	0xbd5c6cf0	-0.05381483
154	0xbb434362	-0.0029794802
155	0xbad7edb6	-0.0016474042
156	0xbe02b8f7	-0.12765871
157	0xbb057e16	-0.0020369343
158	0xbc4acada	-0.012377465
159	0x3e58a184	0.21155363
160	0x3cbc8589	0.023012893
161	0xbd57aa51	-0.05265266
162	0xbc413880	-0.011793256
163	0x3d169987	0.03676751
164	0xbcb227ea	-0.021747548
165	0xbd9dc816	-0.07704179
166	0x3bb398bf	0.0054808552
167	0x3d2a70e2	0.04161156
168	0x3cf8c23d	0.030366058
169	0xbd9261ef	-0.071475856
170	0xbd86c4ba	-0.06580491
171	0xbe0f6ad1	-0.14005591
172	0xbdda54e7	-0.10660725
173	0xbd27b411	-0.04094321
174	0xbd14cacb	-0.03632621
175	0x3d7ec6fe	0.062201492
176	0xbd2dab3d	-0.042399634
177	0xbe8cd20c	-0.27504003
178	0xbd2cb7b3	-0.042167377
179	0xbe060ac1	-0.1309004
180	0xbd006754	-0.03134854
181	0x3ceeb884	0.029140718
182	0x3d898fdf	0.06716894
183	0xbcb3fab1	-0.021970125
184	0xbd82d70f	-0.063886754
185	0x3c6bfdf3	0.014403808
186	0x3d8c6e65	0.068569936
187	0xbb249334	-0.0025112154
188	0xbe24ca5a	-0.16092816
189	0xbbdbefc5	-0.0067119324
190	0x3d22560f	0.039632853
191	0x3d7d0674	0.061773732
192	0x3db336c1	0.08750678
193	0x3d319c0e	0.043361716
194	0x3dcd5f77	0.10027974
195	0x3df61a53	0.1201674
196	0xbc4000cc	-0.01171894
197	0xbbac2390	-0.005253263
198	0xbca220e6	-0.019791078
199	0xbd8d708d	-0.06906233
200	0xbd2f4832	-0.04279346
201	0xbc0fca1b	-0.008776213
202	0x3c83b1ff	0.016076086
203	0xbdaaddf6	-0.08343117
204	0xbd090aec	-0.03345768
205	0xbd386214	-0.04501541
206	0x3d477bdf	0.048702117
207	0x3c3ccc02	0.011523249
208	0xbbb0a16c	-0.0053903367
209	0xbd606d33	-0.05479164
210	0xbd832f8a	-0.06405552
211	0xbd468030	-0.048462093
212	0x3e28081f	0.16409348
213	0xbd5a9718	-0.05336675
214	0x3e00f2f2	0.12592676
215	0xbdd45459	-0.103676505
216	0xbcab7e33	-0.0209342
217	0x3dd118c7	0.10209804
218	0xbdc7607c	-0.097352
219	0x3c87c236	0.0165721
220	0x3ccc186b	0.024913987
221	0x3d611983	0.05495597
222	0x3b3b9ddb	0.0028628025
223	0xbc0c0434	-0.008545924
224	0x3d7b9b79	0.061427567
225	0x3c89d1ef	0.016823737
226	0x3e244cfb	0.1604499
227	0x3d0734b5	0.03300925
228	0xbc52fd2e	-0.012877746
229	0x3d47b74b	0.048758786
230	0x3b55da0d	0.003263119
231	0xbc86a004	-0.016433723
232	0xbca1c382	-0.019746546
233	0xbe0cecba	-0.13762179
234	0xbdcca1c0	-0.09991789
235	0x3d40086a	0.046883024
236	0x3dc52bdf	0.09627508
237	0x3dc156a4	0.094403535
238	0x3df80ffd	0.121124245
239	0x3d18e2a2	0.03732551
240	0x3de11e95	0.10992161
241	0xbe169a47	-0.1470729
242	0x3c892396	0.016740602
243	0x3e0228d2	0.12710884
244	0xbd3a0fe5	-0.045425314
245	0xbd57be34	-0.052671626
246	0x3ddb3ea2	0.10705306
247	0xbdc0cb47	-0.09413772
248	0xbd895243	-0.06705143
249	0x3df148e4	0.11781481
250	0xbde9b4ee	-0.11411463
251	0x3e3c36aa	0.18380228
252	0xbda71871	-0.08158959
253	0x3d266ca8	0.040630966
254	0xbcf050cb	-0.0293354
255	0xbca1f8e2	-0.019771997

base.actor.0.bias f4 [64]
0	0x00000000	0.0
1	0x00000000	0.0
2	0x00000000	0.0
3	0x00000000	0.0
4	0x00000000	0.0
5	0x00000000	0.0
6	0x00000000	0.0
7	0x00000000	0.0
8	0x00000000	0.0
9	0x00000000	0.0
10	0x00000000	0.0
11	0x00000000	0.0
12	0x00000000	0.0
13	0x00000000	0.0
14	0x00000000	0.0
15	0x00000000	0.0
16	0x00000000	0.0
17	0x00000000	0.0
18	0x00000000	0.0
19	0x00000000	0.0
20	0x00000000	0.0
21	0x00000000	0.0
22	0x00000000	0.0
23	0x00000000	0.0
24	0x00000000	0.0
25	0x00000000	0.0
26	0x00000000	0.0
27	0x00000000	0.0
28	0x00000000	0.0
29	0x00000000	0.0
30	0x00000000	0.0
31	0x00000000	0.0
32	0x00000000	0.0
33	0x00000000	0.0
34	0x00000000	0.0
35	0x00000000	0.0
36	0x00000000	0.0
37	0x00000000	0.0
38	0x00000000	0.0
39	0x00000000	0.0
40	0x00000000	0.0
41	0x00000000	0.0
42	0x00000000	0.0
43	0x00000000	0.0
44	0x00000000	0.0
45	0x00000000	0.0
46	0x00000000	0.0
47	0x00000000	0.0
48	0x00000000	0.0
49	0x00000000	0.0
50	0x00000000	0.0
51	0x00000000	0.0
52	0x00000000	0.0
53	0x00000000	0.0
54	0x00000000	0.0
55	0x00000000	0.0
56	0x00000000	0.0
57	0x00000000	0.0
58	0x00000000	0.0
59	0x00000000	0.0
60	0x00000000	0.0
61	0x00000000	0.0
62	0x00000000	0.0
63	0x00000000	0.0

base.actor.2.weight f4 [64, 64]
0	0xbe847210	-0.25868273
1	0xbe521b49	-0.20518221
2	0x3e1c9194	0.15289909
3	0x3c13febf	0.009032904
4	0xbd9534b8	-0.07285446
5	0x3da3dfdc	0.08001682
6	0xbcddabb2	-0.02705941
7	0xbe62a82d	-0.22134466
8	0x3d3a0cd1	0.04542238
9	0xbe4ddc21	-0.20103504
10	0x3ea306a6	0.3184101
11	0x3dd02ff8	0.10165399
12	0xbe161a31	-0.14658429
13	0xbdd4a585	-0.10383133
14	0x3b8db315	0.0043243268
15	0x3e01bd56	0.12669882
16	0x3d23f831	0.040031616
17	0x3e0f91bc	0.14020437
18	0xbe23ec00	-0.16007996
19	0xbdb47fdc	-0.0881345
20	0xbe218cdb	-0.15776388
21	0xbe5915b6	-0.21199688
22	0x3eb19c4a	0.34689552
23	0x3db16a82	0.08662893
24	0xbe1e5013	-0.15460233
25	0x3ce2d13f	0.027687667
26	0x3d7a28e8	0.061074167
27	0xbd1c0759	-0.038092945
28	0xbd0946fb	-0.033514958
29	0x3e456ea0	0.19280481
30	0x3c8442ba	0.016145099
31	0x3e61b471	0.22041489
32	0xbddffe82	-0.109372154
33	0x3daa9c82	0.08330633
34	0x3e6d1908	0.2315408
35	0xbde48294	-0.11157718
36	0x3e9bd7e0	0.30438137
37	0xbdc7d6a2	-0.09757735
38	0xbe5e33cf	-0.21699451
39	0x3df765e9	0.12079985
40	0x3e68fa18	0.22751653
41	0xbeddb1d0	-0.43299723
42	0x3dfa4530	0.12220228
43	0xbe9d4818	-0.30719066
44	0xbe0c26cb	-0.13686673
45	0x3eab6212	0.3347326
46	0xbd5bcbe3	-0.05366124
47	0x3e431079	0.19049253
48	0x3d475707	0.04866698
49	0xbde8704c	-0.11349544
50	0xbe5237e7	-0.20529138
51	0x3cc583b2	0.024110649
52	0x3e2f4022	0.17114308
53	0xbe8eb752	-0.27874237
54	0x3d7fddc9	0.06246737
55	0xbed6c8ce	-0.41950077
56	0x3b8c4028	0.004280109
57	0x3d9d94b8	0.076943815
58	0x3dc77aea	0.09740241
59	0xbe70cff4	-0.23516828
60	0x3e169ac4	0.14707476
61	0xbe0a2a53	-0.13492708
62	0xbe07a79f	-0.13247536
63	0x3e1a29cf	0.15055011
64	0x3e7bf6b4	0.24605829
65	0x3e7907e0	0.2431941
66	0xbd72db9e	-0.059291475
67	0xbcc32002	-0.023818973
68	0x3da4e9d4	0.08052412
69	0xbe557a80	-0.20847511
70	0xbe253d88	-0.16136754
71	0x3dcb1ce8	0.09917623
72	0x3edbafe5	0.42907634
73	0xbe98e333	-0.2986084
74	0xbca12928	-0.019672945
75	0x3e0c6772	0.13711336
76	0xbe02c8a7	-0.12771855
77	0xbe29e3ea	-0.16590849
78	0xbe31f656	-0.17379126
79	0xbdf9a745	-0.12190107
80	0xbee04da2	-0.4380923
81	0xbe736cad	-0.23771925
82	0x3df874fb	0.12131687
83	0x3dd39e1a	0.1033289
84	0xbeab5038	-0.3345964
85	0xbe72a474	-0.23695546
86	0x3e2db17a	0.16962233
87	0xbeaa37de	-0.33245748
88	0xbe5b23d8	-0.21400392
89	0xbe585b26	-0.2112852
90	0xbe5ef346	-0.21772489
91	0xbe37f4ee	-0.17964527
92	0x3d993c27	0.07482176
93	0x3e1a3154	0.1505788
94	0xbe28b0c6	-0.16473684
95	0xbce16c86	-0.027517568
96	0xbd075adc	-0.033045635
97	0x3d9a3b29	0.07530815
98	0xbe81b1e1	-0.25331023
99	0xbea882b4	-0.3291222
100	0x3dcd7e67	0.10033875
101	0x3d469171	0.048478547
102	0x3c7948ce	0.015215112
103	0x3d819eb6	0.063291
104	0x3d2d66e9	0.04233447
105	0xbedaf5cd	-0.42765656
106	0x3dfc6e28	0.12325698
107	0xba73bc7c	-0.0009297801
108	0xbca43271	-0.020043584
109	0xbdcf9d83	-0.10137465
110	0xbde4a7b0	-0.11164796
111	0xbdac9acc	-0.08427963
112	0x3da66712	0.08125128
113	0xbae5479f	-0.0017492658
114	0x3e6e9bf8	0.23301685
115	0xbdf38ca4	-0.118920594
116	0xbe093678	-0.13399684
117	0x3d26e02c	0.04074113
118	0xbd6084d4	-0.054814175
119	0x3d9f3b88	0.077750266
120	0x3dd6f91a	0.10496731
121	0xbe473dde	-0.19457194
122	0x3ddf0dcc	0.108913034
123	0x3d83e5b6	0.06440298
124	0xbc42016c	-0.011841159
125	0xbd0c70c8	-0.034287244
126	0x3e900153	0.2812601
127	0xbce0bc45	-0.027433524
128	0x3e63d7ec	0.22250336
129	0xbe1db9ce	-0.1540291
130	0x3e483742	0.19552329
131	0xbdf13058	-0.11776799
132	0x3e5ec0e7	0.21753274
133	0x3e9b3878	0.3031652
134	0x3e9ad388	0.3023951
135	0x3e228c59	0.15873851
136	0x3d764e0a	0.060133018
137	0xbdf76e7b	-0.12081619
138	0xbeb0ce1e	-0.34532255
139	0x3d4b3237	0.049608435
140	0x3b8296a6	0.003985244
141	0xbe22b35b	-0.15888731
142	0xbe39c51c	-0.18141598
143	0x3e4210f3	0.18951778
144	0xbbdb79dd	-0.006697877
145	0x3e202949	0.15640749
146	0xbdec0086	-0.11523537
147	0xbd6ca459	-0.05777392
148	0xbeb4d8e9	-0.3532174
149	0x3dd6dc64	0.10491255
150	0x3e82f15e	0.25574774
151	0x3e2a98d5	0.16659863
152	0x3db7a7ae	0.08967529
153	0x3d846e3d	0.06466339
154	0x3e2eb9b0	0.17063022
155	0xbdde84ba	-0.10865159
156	0x3e27c054	0.16381961
157	0x3c4689b1	0.012117789
158	0x3c7bd8fc	0.015371557
159	0x3c6a0191	0.0142826
160	0x3eeeacd7	0.4661624
161	0x3d3dc175	0.046327073
162	0xbdc5b956	-0.09654491
163	0xbe7e54bf	-0.24837016
164	0xbc833186	-0.016014826
165	0xbe97389d	-0.2953538
166	0xbe2bf940	-0.167943
167	0x3ba97984	0.0051719565
168	0x3b3573d1	0.002768744
169	0xbdc46590	-0.09589684
170	0xbe2469c3	-0.1605597
171	0x3e9fc6bf	0.3120632
172	0xbe0bba8f	-0.13645385
173	0xba044637	-0.0005045863
174	0x3e68aabd	0.22721381
175	0xbe779ad4	-0.24180156
176	0x3d5eebcb	0.05442409
177	0xbccbd67e	-0.024882551
178	0xbcb51471	-0.022104474
179	0x3e497a60	0.19675589
180	0x3caf6c39	0.02141391
181	0xbe5f40e4	-0.21802098
182	0xbdf3b08a	-0.118989065
183	0xbe727c25	-0.2368017
184	0xbdc90438	-0.09815258
185	0xbe9d5dac	-0.30735528
186	0x3dc50ef0	0.0962199
187	0x3da40ab6	0.080098554
188	0xbea2eef5	-0.31822935
189	0x3e8a7703	0.27043924
190	0xbe07f434	-0.1327675
191	0xbe022c0a	-0.12712112
192	0x3d5699a8	0.05239263
193	0xbd6e34b6	-0.058155738
194	0x3d3c0791	0.045905653
195	0x3d1c789d	0.038200963
196	0xbd1f6dac	-0.03892295
197	0x3e745f38	0.23864448
198	0x3c824808	0.015903488
199	0x3d5f9ccd	0.054592896
200	0xbe7b29c2	-0.24527648
201	0xbd69c802	-0.057075508
202	0xbd3e5cc7	-0.046475198
203	0x3e267f2b	0.16259448
204	0xbe4af8cc	-0.19821471
205	0xbeb3a575	-0.3508717
206	0xbe965f2c	-0.29369485
207	0x3e2d1568	0.16902697
208	0xbdb29289	-0.087193556
209	0x3e10b9b6	0.14133343
210	0x3e263eb0	0.16234851
211	0xbddf0838	-0.108902395
212	0x3e25b577	0.16182505
213	0xbe963810	-0.29339647
214	0xbe326425	-0.17421015
215	0x3e47d9bc	0.19516653
216	0xbdba8759	-0.09107847
217	0xbd926f57	-0.07150143
218	0xbeacd913	-0.33759364
219	0xbe1784dc	-0.14796776
220	0xbe4c9e5f	-0.19982289
221	0xbd8cea47	-0.06880622
222	0x3e5d0b17	0.21586262
223	0xbe1f692b	-0.15567462
224	0x3e42ff21	0.19042636
225	0xbe5278fc	-0.20553964
226	0xbe5e0006	-0.21679696
227	0x3ea65539	0.32486895
228	0xbdd03c1b	-0.10167714
229	0x3e46ad6e	0.19402096
230	0xbee49a68	-0.44649053
231	0x3eca23ed	0.39480534
232	0x3e3cd8c7	0.18442069
233	0x3e3c274f	0.1837437
234	0x3d3a7a5c	0.045526847
235	0x3dd12c1f	0.102134936
236	0x3d288347	0.04114082
237	0x3dcc356b	0.09971126
238	0xbd4f8c94	-0.050671175
239	0x3d838dc4	0.06423524
240	0x3dd4e8a2	0.10395934
241	0x3db0b876	0.08628933
242	0x3e94dd6b	0.29075179
243	0xbe06942d	-0.13142462
244	0x3ded84e5	0.11597613
245	0x3e009466	0.1255661
246	0xbcd5e676	-0.026110869
247	0x3df08e99	0.11745948
248	0xbe1a49df	-0.15067242
249	0x3e9130e3	0.2835761
250	0x3e09e1ab	0.13464992
251	0xbe6cbae6	-0.23118171
252	0x3d923ef6	0.07140915
253	0xbbd800bd	-0.006591885
254	0x3e0be614	0.13661987
255	0x3d597eca	0.05309943

base.actor.2.bias f4 [64]
0	0x3c99e68d	0.018786693
1	0x3cb0e613	0.021594083
2	0x3ca39e49	0.019972937
3	0xbcf3a765	-0.029742906
4	0x3ca9ee09	0.020743387
5	0xbc91fbf1	-0.01782033
6	0x3c8e213e	0.017349835
7	0x3cd16d9b	0.02556496
8	0x3ca681c0	0.020325541
9	0x3d0c29ae	0.034219436
10	0x3c9d13d4	0.019174494
11	0x3d19db99	0.03756294
12	0xbc9602f7	-0.01831196
13	0xbc86bad0	-0.016446501
14	0x3c9c55f6	0.019083958
15	0x3cb87c47	0.022520198
16	0x3ca44b04	0.020055301
17	0xbc963241	-0.01833451
18	0xbc8b97ae	-0.0170401
19	0xbcac3fdc	-0.021026544
20	0xbcd65986	-0.026165735
21	0xbc98a337	-0.018632514
22	0x3ca18f41	0.01972163
23	0xbb9c6d68	-0.0047737844
24	0x3cb0354a	0.021509785
25	0x3cc304a1	0.023805918
26	0xbc8b40c5	-0.016998658
27	0xbcb8c862	-0.022556487
28	0x3c9edebe	0.019393321
29	0xbcb565df	-0.022143302
30	0xbca395ca	-0.019968886
31	0xbcc1fdf2	-0.02368066
32	0x3c909a19	0.017651604
33	0x3c970eb6	0.018439632
34	0x3ca67a84	0.020322092
35	0xbc9affdf	-0.018920837
36	0x3c9e2faa	0.019309837
37	0x3c7f48e9	0.015581348
38	0x3cbfa03d	0.023391837
39	0xbccd83e5	-0.025087306
40	0xbcd71c03	-0.026258474
41	0x3ca1c83e	0.019748803
42	0xbc9fae14	-0.019492187
43	0xbc9af64b	-0.01891627
44	0xbc773ca5	-0.015090142
45	0xbcd5aa04	-0.026082046
46	0x3c8a02b9	0.016847001
47	0x3d058cae	0.032604866
48	0xbcc25ddd	-0.023726398
49	0x3c19bc66	0.009383297
50	0xbca79cf7	-0.020460589
51	0x3cb62e5f	0.022238908
52	0xbc937645	-0.018000731
53	0x3c195414	0.009358425
54	0xbd0eecda	-0.034893848
55	0x3c95f8cd	0.018307114
56	0xbc57bc9c	-0.013167527
57	0x3cbd5fb2	0.02311692
58	0x3ce38675	0.027774075
59	0xbc8b5df9	-0.017012583
60	0xbd06e3ca	-0.03293208
61	0xbcaba1c6	-0.020951163
62	0xbc6142bb	-0.01374882
63	0xbc84e705	-0.01622344

base.critic.0.weight f4 [64, 310]
0	0x3dc59616	0.09647767
1	0x3dbd0547	0.09229522
2	0x3d588cec	0.05286877
3	0xbd00d8fc	-0.031456932
4	0x3d2fb74c	0.042899415
5	0x3d7c6ba3	0.061626088
6	0xbc908066	-0.01763935
7	0xbd9219a4	-0.07133797
8	0xbd7b8377	-0.06140467
9	0x3d1dd19e	0.038529985
10	0xbcfc16ee	-0.030772652
11	0xbe125d7a	-0.14293471
12	0xbc8ee852	-0.017444763
13	0xbd2560da	-0.040375568
14	0x3c84c4d4	0.016207136
15	0xbd3d16a4	-0.04616417
16	0xbd12ede5	-0.035871405
17	0xbd91138b	-0.07083806
18	0xbd308976	-0.043099843
19	0xbc38517f	-0.011249899
20	0x3d171875	0.03688856
21	0x3e042cf6	0.12907776
22	0xbd2aa0f1	-0.041657392
23	0xbdcda1c3	-0.10040619
24	0xbd106dce	-0.035260968
25	0xbc189a7a	-0.009314174
26	0xbc1ed52f	-0.009694382
27	0xbe45b05c	-0.19305557
28	0x3c604ea2	0.0136906225
29	0x3d80311f	0.06259369
30	0x3db71dfc	0.08941266
31	0x3df7693d	0.120806195
32	0xbd269507	-0.040669467
33	0x3db6b651	0.08921493
34	0x3dac5c96	0.08416097
35	0x3d273f94	0.040832117
36	0x3ddb838b	0.10718449
37	0xbdc1f168	-0.09469873
38	0xbdfa3713	-0.12217536
39	0xbd775386	-0.06038239
40	0x3d27f410	0.04100424
41	0x3d91ddd8	0.071223915
42	0xbd206f99	-0.039168928
43	0xbbe0fe82	-0.006866277
44	0xbd919480	-0.07108402
45	0xbce3aa9d	-0.027791316
46	0xbc46f37b	-0.012143011
47	0xbd5787fd	-0.052619923
48	0x3d1a93fc	0.037738785
49	0x3e134f26	0.14385661
50	0xbe05bd6b	-0.13060538
51	0x3dc0be1b	0.0941126
52	0x3b7d8f54	0.0038690167
53	0x3cede921	0.029041829
54	0xbd141bd8	-0.036159366
55	0x3cb2b66a	0.021815497
56	0x3c04dd71	0.008109436
57	0x3c84c11a	0.01620536
58	0x3e0474bc	0.12935156
59	0xba9d7973	-0.0012014344
60	0x3d9e41df	0.07727408
61	0x3e18caea	0.14921156
62	0x3d3a45e3	0.045476805
63	0xbc1b76c2	-0.009488763
64	0xbcd55950	-0.026043564
65	0x3d1e16ea	0.03859607
66	0xbbd6770a	-0.0065449523
67	0x3db4d1fa	0.08829112
68	0xbc92bc5d	-0.017912084
69	0x3d916a29	0.071003266
70	0xbd793926	-0.060845517
71	0xbe17d192	-0.14826038
72	0x3db362af	0.08759057
73	0xbd6e4b95	-0.05817755
74	0x3d31e7da	0.043434
75	0x3bc35410	0.0059609488
76	0xbd4b8ff2	-0.049697824
77	0xbc8860cb	-0.016647717
78	0x3ce22b24	0.027608462
79	0x3cc8f0f1	0.024528952
80	0xbe94e491	-0.29080632
81	0x3c80ca84	0.015721567
82	0x3e096471	0.13417222
83	0xbdfa1b97	-0.122122936
84	0xbd625b57	-0.05526289
85	0xbe0f88c4	-0.14017016
86	0x3df66700	0.120313644
87	0xbda1ab16	-0.0789396
88	0xbbb7a520	-0.005604401
89	0xbd988b9d	-0.07448504
90	0x3dedbfcd	0.11608849
91	0xbd94d526	-0.07267217
92	0x3d960ac6	0.073262736
93	0x3dcded04	0.10054973
94	0xbdacda44	-0.08440068
95	0xbd92b26e	-0.07162939
96	0xbcd39508	-0.0258279
97	0x3cdcfaa7	0.02697499
98	0xbe17d98c	-0.14829081
99	0xbd34608e	-0.044037394
100	0x3baa4b92	0.005196997
101	0x3ca994ed	0.020700896
102	0xbdeb48b2	-0.11488475
103	0xbd5b7642	-0.053579576
104	0x3e07e49f	0.13270806
105	0xbd06fdfa	-0.032957055
106	0xbd61997b	-0.05507801
107	0x3d3e90be	0.046524756
108	0x3d54ef91	0.05198628
109	0x3d5a12ba	0.053240515
110	0x3dd77499	0.10520286
111	0xbd55f6f1	-0.052237455
112	0xbb9bcbe8	-0.004754532
113	0xbd662a53	-0.056192707
114	0x3d4165cb	0.047216218
115	0x3e01baf4	0.12668973
116	0xbb925703	-0.004465939
117	0x3d65ab75	0.056071717
118	0xbd5d714c	-0.054063126
119	0xbd5c2806	-0.053749107
120	0xbc209857	-0.009801946
121	0xbd5620fd	-0.052277554
122	0xbd141fc3	-0.036163103
123	0x3e2d101a	0.16900674
124	0xbd298276	-0.041384183
125	0x3ca93748	0.020656243
126	0x3e26d9a1	0.16293956
127	0x3da0ec2b	0.078575455
128	0xbcb1bab4	-0.021695472
129	0x3e20e0c9	0.15710749
130	0xbe026927	-0.12735425
131	0x3dff6dd9	0.12472124
132	0x3d04ffb7	0.03247043
133	0xbdd9abf0	-0.106284976
134	0x3b1cb7fd	0.0023913376
135	0x3d48e340	0.049044847
136	0x3b1dd4c7	0.0024083124
137	0x3b3153f1	0.002705809
138	0x3d6c8e2a	0.057752766
139	0xbcfd3a2b	-0.030911526
140	0x3d349e3d	0.04409622
141	0x3d790a3d	0.06080078
142	0xbc310255	-0.010803779
143	0x3d840a77	0.064473085
144	0x3dcdaf4c	0.10043201
145	0x3e4884cf	0.19581912
146	0xbca56725	-0.020190785
147	0xbceb1157	-0.028694792
148	0xbc8ab27f	-0.016930817
149	0x3dc12860	0.09431529
150	0x3e11f0e9	0.14252056
151	0xbd3fb88a	-0.04680685
152	0x3e061591	0.13094164
153	0x3c8edaf0	0.017438382
154	0x3cc47554	0.023981728
155	0xbdcf25b7	-0.101146154
156	0xbcc5861b	-0.024111798
157	0x3bb1c262	0.0054247836
158	0x3b1da5e2	0.0024055173
159	0x3d862235	0.06549493
160	0xbcbf7d6d	-0.023375237
161	0xbd31e482	-0.043430813
162	0xbe16118a	-0.14655128
163	0x399f76cc	0.00030415354
164	0x3dcd41d0	0.10022318
165	0x3d98a8f5	0.07454101
166	0xbdc89345	-0.097937144
167	0x3d80f2f7	0.06296342
168	0x3d88476a	0.06654246
169	0x3a906f13	0.0011019431
170	0x3d92b5dd	0.07163594
171	0xbe4aa7d9	-0.19790591
172	0xbd50b0a5	-0.05094971
173	0xbdf363a3	-0.118842386
174	0xbd00f1ab	-0.031480473
175	0xbe12f3f3	-0.14350872
176	0x3c00262a	0.007821599
177	0x3d163850	0.036674798
178	0xbda9d77a	-0.08293052
179	0x3dec41f8	0.1153602
180	0x3bc27f32	0.005935573
181	0x3cbe0b90	0.023198873
182	0xbd0d0b8c	-0.03443484
183	0x3df2bffc	0.11853024
184	0xbdd8d886	-0.105881736
185	0x3d80debd	0.06292484
186	0xbe01b69b	-0.12667315
187	0x3dd64e26	0.104641244
188	0x3d8016db	0.06254359
189	0x3c1d69ca	0.009607742
190	0x3cd9712e	0.026543226
191	0x3d3ae1db	0.04562555
192	0x3c0d2482	0.008614661
193	0xbdd55008	-0.104156554
194	0x3d33325c	0.0437492
195	0x3aeea467	0.0018206955
196	0x3ceed1ba	0.02915274
197	0x3ce40d74	0.027838446
198	0x3cbf0394	0.023317136
199	0x3dde1048	0.10842949
200	0xbdb2711c	-0.0871298
201	0xbdbe6bb3	-0.09297886
202	0x3c19c207	0.009384639
203	0x3d16dbfa	0.03683088
204	0x3cde2014	0.027114905
205	0xbd2934b8	-0.041310042
206	0xbd3bceec	-0.045851633
207	0xbc85231d	-0.016252095
208	0x3d0a8e47	0.033827092
209	0xbd29e33b	-0.04147647
210	0xbda36d14	-0.079797894
211	0x3d84e33b	0.06488653
212	0xbd1ec0e4	-0.038758174
213	0x3e583330	0.21113276
214	0xbbe1c2bf	-0.0068896706
215	0xbcd85431	-0.026407333
216	0xbd71ed02	-0.05906392
217	0x3d192cbe	0.037396185
218	0x3e82e32c	0.25563943
219	0xbd8296f0	-0.06376445
220	0xbd114a87	-0.035471465
221	0x3dd3d8d2	0.103440896
222	0xbcd24045	-0.025665412
223	0x3e31f2a1	0.17377712
224	0xbd3c69fb	-0.04599951
225	0x3ddb4386	0.107062384
226	0x3da7418f	0.08166801
227	0x3dada92b	0.08479532
228	0xbc10f3e6	-0.008847212
229	0x3d8a8d16	0.06765191
230	0x3deb316a	0.11484034
231	0xbcb1e767	-0.021716787
232	0x3ca9a6f5	0.020709494
233	0xbd9d8b56	-0.07692592
234	0xbd9bc4a0	-0.076058626
235	0x3cc39b93	0.023877895
236	0x3d00c442	0.031437166
237	0x3d69e774	0.057105497
238	0x3cc7e9e7	0.024403526
239	0xbcff76d9	-0.0311846
240	0x3c154923	0.009111675
241	0x3d79ad33	0.06095619
242	0x3e14ef93	0.14544515
243	0xbdd1c0ed	-0.10241876
244	0xbe30ce78	-0.17266262
245	0x3dc26950	0.09492743
246	0xbd4c9e28	-0.049955517
247	0xbcd8caf6	-0.026463967
248	0xbbcf5719	-0.0063275215
249	0xbb20d0ee	-0.0024538594
250	0x3b7d5eb2	0.003866118
251	0xbdbf41d0	-0.093387246
252	0xbd061e71	-0.032743875
253	0x3ce85805	0.028362283
254	0x3e2ca7fe	0.16860959
255	0xbb9d81a9	-0.0048067165

base.critic.0.bias f4 [64]
0	0x00000000	0.0
1	0x00000000	0.0
2	0x00000000	0.0
3	0x00000000	0.0
4	0x00000000	0.0
5	0x00000000	0.0
6	0x00000000	0.0
7	0x00000000	0.0
8	0x00000000	0.0
9	0x00000000	0.0
10	0x00000000	0.0
11	0x00000000	0.0
12	0x00000000	0.0
13	0x00000000	0.0
14	0x00000000	0.0
15	0x00000000	0.0
16	0x00000000	0.0
17	0xb744458d	-1.1698704e-05
18	0x00000000	0.0
19	0x00000000	0.0
20	0x00000000	0.0
21	0x00000000	0.0
22	0x00000000	0.0
23	0x00000000	0.0
24	0x00000000	0.0
25	0x00000000	0.0
26	0x00000000	0.0
27	0x00000000	0.0
28	0x00000000	0.0
29	0x00000000	0.0
30	0x00000000	0.0
31	0x00000000	0.0
32	0x00000000	0.0
33	0x00000000	0.0
34	0x00000000	0.0
35	0x00000000	0.0
36	0x00000000	0.0
37	0x00000000	0.0
38	0x00000000	0.0
39	0x00000000	0.0
40	0x00000000	0.0
41	0x00000000	0.0
42	0x00000000	0.0
43	0x00000000	0.0
44	0x00000000	0.0
45	0x00000000	0.0
46	0x00000000	0.0
47	0x00000000	0.0
48	0x00000000	0.0
49	0x00000000	0.0
50	0x00000000	0.0
51	0x00000000	0.0
52	0x00000000	0.0
53	0x00000000	0.0
54	0x00000000	0.0
55	0x00000000	0.0
56	0x00000000	0.0
57	0x00000000	0.0
58	0x00000000	0.0
59	0x00000000	0.0
60	0x00000000	0.0
61	0x00000000	0.0
62	0x00000000	0.0
63	0x00000000	0.0

base.critic.2.weight f4 [64, 64]
0	0x3e4d8124	0.20068794
1	0x3e5a74d5	0.2133363
2	0xbcfe98d2	-0.03107873
3	0x3bbb75fd	0.0057208524
4	0x3c3f42ab	0.01167361
5	0x3bca9ee1	0.0061834906
6	0x3e377fa6	0.17919788
7	0x3cb41650	0.021983296
8	0xbdd02378	-0.10163015
9	0xbc2eca6f	-0.010668381
10	0x3dc7241a	0.09723683
11	0x3dfd6525	0.123728074
12	0x3dfe1325	0.12405995
13	0x3d5a4bd5	0.053294975
14	0xbdaf9324	-0.08572987
15	0xbe80c415	-0.251496
16	0xbd3c72ff	-0.046008106
17	0x3d13fc86	0.036129497
18	0xbe2bacaf	-0.16765092
19	0xbe1165c8	-0.14198983
20	0xbe14af90	-0.14520097
21	0x3e844811	0.25836232
22	0x3e968baf	0.29403445
23	0xbe3e6b8f	-0.18595718
24	0xbde48d5f	-0.11159777
25	0x3e8ddac0	0.27705956
26	0xbde50aca	-0.111836985
27	0x3da86232	0.08221854
28	0x3d9f0a9c	0.077656955
29	0xbeb96952	-0.36213166
30	0x3e347034	0.17620927
31	0xbe083c77	-0.13304316
32	0x3e20dbdc	0.1570887
33	0xbe47d9ac	-0.19516629
34	0x3e5311f5	0.20612319
35	0xbdaa5d73	-0.08318605
36	0x3dfe7dba	0.12426324
37	0xbea729f3	-0.32649192
38	0x3e8d969e	0.27653974
39	0x3cdd703a	0.027031053
40	0x3e4759f5	0.1946791
41	0x3e864523	0.26224622
42	0xbe42e7c3	-0.19033723
43	0x3e5b459d	0.21413274
44	0x3d520d2d	0.051282097
45	0xbd506ab3	-0.050883006
46	0xbec36387	-0.3816187
47	0xbeb54e7b	-0.35411438
48	0xbdb68c50	-0.08913481
49	0xbe6d391a	-0.23166314
50	0xbe486c49	-0.19572558
51	0x3dfeeaa8	0.12447101
52	0xbe7330b9	-0.23749055
53	0xbe696d4d	-0.22795601
54	0x3e9711bc	0.29505718
55	0x3d2757b5	0.04085513
56	0xbde637f8	-0.11241144
57	0x3d972525	0.07380132
58	0x3cbaa6f2	0.022784684
59	0xbe7ab695	-0.24483712
60	0xbdf0ef4d	-0.11764393
61	0xbcfd63b2	-0.030931327
62	0xbe2b7293	-0.16742925
63	0x3dc33176	0.09530918
64	0x3e8e225a	0.27760583
65	0x3deab50d	0.11460314
66	0xbda7ca29	-0.08192856
67	0xbc51278b	-0.012765775
68	0xbd4725b7	-0.048619952
69	0xbe6890a7	-0.2271143
70	0xbb973991	-0.0046150167
71	0x3dd6c65c	0.10487053
72	0x3e2676c1	0.16256239
73	0xbdb354af	-0.087563865
74	0xbe005984	-0.12534148
75	0x3d3db816	0.046318136
76	0xbe00afd1	-0.12567069
77	0xbe35d623	-0.17757468
78	0xbdbb846e	-0.09156118
79	0x3dcec405	0.100959815
80	0xbda1a751	-0.07893241
81	0xbe6fd054	-0.23419315
82	0x3e7c6b6d	0.24650355
83	0x3e4e8be8	0.20170557
84	0x3e34b09f	0.176455
85	0x3ed44075	0.41455427
86	0x3d77a1d7	0.060457077
87	0x3e080f9a	0.13287202
88	0x3e044317	0.12916218
89	0x3c32f9eb	0.010923843
90	0xbe74082d	-0.23831244
91	0x3e0756f5	0.13216765
92	0x3df04201	0.11731339
93	0x3e2c59d1	0.16831137
94	0x3dd02ab9	0.10164399
95	0xbd480521	-0.048833016
96	0xbe9b42a8	-0.30324292
97	0xbd7b86b3	-0.061407756
98	0x3c12f28b	0.00896896
99	0xbc8155f9	-0.015788065
100	0xbd461555	-0.048360188
101	0x3e2348c8	0.15945733
102	0xbe36a8c0	-0.1783781
103	0xbe42c2e9	-0.19019665
104	0xbdffd363	-0.12491491
105	0xbe794773	-0.24343662
106	0x3c8680d6	0.016418856
107	0x3e87d0a1	0.2652636
108	0xbdf93f80	-0.12170315
109	0x3cda495a	0.026646305
110	0xbec57ab9	-0.38570192
111	0x3e380a26	0.17972621
112	0xbe3ac448	-0.18238938
113	0xbdd8cf88	-0.105864584
114	0xbd938799	-0.072035976
115	0xbe2bd7c1	-0.16781522
116	0xbc9535ae	-0.018214073
117	0x3dde79aa	0.10863049
118	0x3ea7e298	0.32790065
119	0x3cb49ecc	0.022048377
120	0xbd8863c8	-0.06659657
121	0xbeb9a58b	-0.36259112
122	0xbe0ad213	-0.135567
123	0x3da6096a	0.08107264
124	0xbbdf8e4d	-0.0068223835
125	0x3e9723b3	0.29519424
126	0xbeadb861	-0.33929732
127	0xbe95e402	-0.2927552
128	0x3ccff69c	0.025386147
129	0x3cef3852	0.02920166
130	0x3cb71de6	0.022353124
131	0x3e12a023	0.143189
132	0xbe488d41	-0.19585134
133	0x3cc99c48	0.024610654
134	0x3e51618b	0.20447366
135	0x3daee298	0.08539313
136	0x3e49fc09	0.1972505
137	0xbe5a7817	-0.21334873
138	0xbe8b5371	-0.27212098
139	0xbe14f91f	-0.14548157
140	0xbe5955cf	-0.2122414
141	0x3c66a958	0.014078461
142	0xbe13ed52	-0.14446
143	0xbe37c9a1	-0.17948009
144	0x3e578e1d	0.21050306
145	0x3df79777	0.120894365
146	0xbe877e6e	-0.26463646
147	0x3e85487c	0.26031864
148	0x3c71c522	0.014756473
149	0x3d744acf	0.059641656
150	0x3e2d0056	0.1689466
151	0x3e0d8695	0.1382087
152	0x3dc48c48	0.09597069
153	0x3deb8290	0.11499512
154	0x3e6e57f3	0.23275737
155	0x3d964bca	0.07338674
156	0xbd8a90d8	-0.06765908
157	0xb7ea06e2	-2.7898179e-05
158	0x3c42c4b8	0.011887722
159	0x3e4765a0	0.1947236
160	0x3e69e749	0.22842135
161	0x3e35e366	0.17762527
162	0xbd79d86e	-0.06099742
163	0xbe462e68	-0.1935364
164	0xbe98414c	-0.29737318
165	0xbccc4fc4	-0.024940379
166	0xbe0ff117	-0.14056812
167	0x3e8fd154	0.28089392
168	0x3da9929a	0.08279915
169	0xbec3ba29	-0.38227966
170	0xbe440318	-0.19141805
171	0xbacdaa1a	-0.0015690953
172	0xbeb33907	-0.35004446
173	0xbe2b8eab	-0.16753642
174	0x3e30cb5e	0.17265078
175	0xbc804d88	-0.01566197
176	0xbd657d08	-0.056027442
177	0xbe083396	-0.13300928
178	0xbe61732c	-0.22016591
179	0xbeb135d6	-0.34611386
180	0xbe7fcfaf	-0.24981569
181	0x3c59f9c0	0.013304174
182	0x3e642c74	0.22282583
183	0x3e2abfc0	0.1667471
184	0xbc96bdf4	-0.018401124
185	0x3ebbcf32	0.36681515
186	0xbe4581f0	-0.19287848
187	0x3e0a79a9	0.13522972
188	0x3d90358e	0.07041465
189	0xbdef2942	-0.11677791
190	0xbba53cca	-0.005042647
191	0x3e7bc67a	0.24587432
192	0x3d05b470	0.03264278
193	0x3dc9177d	0.09818933
194	0xbdb42055	-0.08795229
195	0x3d33cb19	0.04389486
196	0x3d7efedc	0.06225477
197	0x3da402bb	0.08008333
198	0x3eac2525	0.3362209
199	0xbd0c8a30	-0.034311473
200	0x3e0151b3	0.12628822
201	0xbd294913	-0.041329455
202	0xbd78d83a	-0.060753085
203	0x3d0c02d2	0.034182377
204	0xbdb6222b	-0.08893236
205	0xbd37e38e	-0.044894747
206	0x3d961234	0.07327691
207	0xbe8ac2e3	-0.27101812
208	0x3d84b628	0.06480056
209	0x3e80cc42	0.25155836
210	0x3dddfae6	0.10838871
211	0x3e7a4cd3	0.24443369
212	0x3e45de16	0.19323
213	0xbdca9118	-0.09890956
214	0xbe1ed076	-0.15509209
215	0x3da4a4d8	0.08039254
216	0xbe7fa53f	-0.2496538
217	0x3db61dae	0.0889238
218	0xbd09cb4e	-0.033641152
219	0xbe50052c	-0.20314473
220	0xbedc17cf	-0.42986915
221	0x3de9ab79	0.11409659
222	0xbe9b69e6	-0.30354232
223	0xbdf84ee8	-0.12124425
224	0xbccb199d	-0.024792487
225	0x3ed38b16	0.41317052
226	0xbe46c841	-0.19412328
227	0xbe0f15e8	-0.139732
228	0x3ccf6d7b	0.025320759
229	0x3e7a5672	0.24447039
230	0xbd89f667	-0.06736451
231	0xbf07d10c	-0.53053355
232	0xbd79dfb4	-0.061004356
233	0x3e3ce797	0.1844772
234	0x3e2cdbfd	0.16880794
235	0xbc27738d	-0.010220421
236	0x3e0b0de9	0.13579525
237	0xbd490e72	-0.04908604
238	0xbdfb50ad	-0.12271247
239	0xbe556421	-0.20838977
240	0xbe8ca0b2	-0.2746635
241	0xbe9f975f	-0.31170174
242	0xbe519f14	-0.2047084
243	0x3e79554d	0.24348946
244	0x3e14cc04	0.14530951
245	0x3d1a4138	0.037659854
246	0x3db53ac9	0.08849103
247	0xbd4513ee	-0.04811471
248	0x3cc1220d	0.023575807
249	0xbdab93eb	-0.083778225
250	0x3db179f9	0.086658426
251	0xbcfe3147	-0.031029357
252	0xbe56512a	-0.20929399
253	0xbd4141cd	-0.047181893
254	0x3de9be36	0.11413233
255	0x3e2c72f1	0.16840722

base.critic.2.bias f4 [64]
0	0xbbcbc3e2	-0.0062184194
1	0xba14f87e	-0.000568278
2	0xbba425db	-0.0050093955
3	0x3c34c485	0.011033182
4	0xbac31a21	-0.0014885106
5	0xbc24ea73	-0.010065663
6	0x3bf40b6b	0.00744765
7	0xbb3f27c7	-0.0029167996
8	0xbb2e47c1	-0.0026593062
9	0xbb0cdee5	-0.002149516
10	0xbbcda779	-0.006276068
11	0x3c2af18b	0.010433565
12	0xbb0e84f5	-0.002174673
13	0xbbd4cd18	-0.0064941756
14	0xbc86548a	-0.016397733
15	0x3b8a15bc	0.0042140167
16	0xbc20cf5c	-0.009815063
17	0xbc287255	-0.010281165
18	0xbad7d166	-0.0016465604
19	0x3c191dec	0.009345513
20	0x397e5d70	0.00024258136
21	0x3b4d45bf	0.003132209
22	0x3b892bad	0.0041861148
23	0x3c20ce98	0.009814881
24	0x3bd1479a	0.0063867094
25	0xbc3d1f1b	-0.011543061
26	0xbbb2256d	-0.0054365904
27	0xbc0251f5	-0.00795411
28	0x3b0b8a5d	0.0021292188
29	0xbad03aed	-0.0015886702
30	0x3be680d5	0.007034401
31	0xbb46869d	-0.0030292638
32	0x3bb5d0d1	0.0055485745
33	0x3b990b8f	0.0046705673
34	0x3c26fd55	0.010192235
35	0x3be5ae03	0.007009269
36	0x3c10a539	0.008828455
37	0x39a1e922	0.0003088201
38	0xbc76e303	-0.015068772
39	0xbc3bdefc	-0.011466738
40	0xbb91d3b8	-0.0044502877
41	0xbc1d700a	-0.009609232
42	0x3ab5a871	0.0013859404
43	0xbb9c266b	-0.004765322
44	0x3bdde225	0.0067713433
45	0x3c6396b7	0.013890914
46	0xbb78f0d9	-0.0037985353
47	0x3ae6e29a	0.001761514
48	0x3c035b0b	0.008017312
49	0x3c09075c	0.008363571
50	0x3beea3db	0.0072827167
51	0x3c3fe954	0.011713345
52	0xbbe9fbf5	-0.0071406313
53	0xbba8349d	-0.005133225
54	0x3bd12ffa	0.006383893
55	0xbbd6b3e4	-0.0065522064
56	0x3bcce67b	0.0062530614
57	0x3c2dbcb0	0.010604069
58	0xbbaae5d4	-0.005215386
59	0xbb95624b	-0.0045588366
60	0x3b8933fe	0.004187106
61	0xbba3269f	-0.004978969
62	0x3a27e6e0	0.00064049475
63	0x3c5146aa	0.012773195

base.critic_linear.weight f4 [1, 64]
0	0x3daa27f1	0.083083995
1	0xbc1ca0c3	-0.009559813
2	0xbea29d15	-0.3176047
3	0x3de1339e	0.10996173
4	0x3d5332e1	0.051562194
5	0xbe27833d	-0.16358657
6	0x3d983759	0.07432432
7	0xbdadef12	-0.08492865
8	0x3daa374b	0.083113275
9	0x3e15ed82	0.14641383
10	0xbd973b37	-0.07384341
11	0x3e0433c4	0.12910372
12	0x3a9000b0	0.0010986533
13	0x3c3412bb	0.010990794
14	0x3878e484	5.934063e-05
15	0xbde9c2b8	-0.11414093
16	0xbe4a0d30	-0.19731593
17	0xbe96c70d	-0.2944874
18	0x3b1f3691	0.0024293999
19	0x3db9edf3	0.09078588
20	0x3b33efcf	0.002745617
21	0xbda8f22f	-0.08249318
22	0xbea66909	-0.3250201
23	0x3df37418	0.118873775
24	0xbe2d946b	-0.16951148
25	0xbe021a87	-0.12705432
26	0xbd73b6b0	-0.059500396
27	0xbd1faf46	-0.038985513
28	0x3d403da4	0.046933785
29	0xbe9d4bff	-0.30722043
30	0x3dd25fec	0.10272202
31	0xbdc2af71	-0.09506119
32	0xbe5257c9	-0.205413
33	0x3e18fecd	0.14940949
34	0xbeafbfbb	-0.34325966
35	0xbe2afca1	-0.16697933
36	0x3d60828a	0.05481199
37	0xbd4c7d3d	-0.049924124
38	0x3ef11524	0.47086442
39	0xbddad28a	-0.106846884
40	0x3e53cd68	0.20683825
41	0xbe0b4114	-0.13599044
42	0xbd0b2590	-0.03397137
43	0x3e932acb	0.28743586
44	0x3d79489f	0.060860272
45	0xbe9baf03	-0.3040696
46	0x3e170dc0	0.14751339
47	0xbcd28237	-0.025696857
48	0x3e5744ae	0.21022293
49	0x3d1f599a	0.03890381
50	0x3df4ca9e	0.11952709
51	0x3e4442f7	0.1916617
52	0x3e0ca520	0.13734865
53	0xbe196202	-0.14978793
54	0x3e9bced7	0.30431244
55	0xbe102f69	-0.14080586
56	0xbe56b9ca	-0.2096931
57	0x3e8e0667	0.2773926
58	0x3e384325	0.17994364
59	0xbd19240e	-0.0373879
60	0x3e166301	0.14686204
61	0x3d5b10d2	0.053482838
62	0xbc2e3ea5	-0.010635053
63	0xbdcaa7c4	-0.0989528

dist.dst_type_linears.0.weight f4 [2, 64]
0	0xbc7e7f7b	-0.015533323
1	0xbc2f36d7	-0.010694227
2	0xbc5b5fb7	-0.013389519
3	0x3c94fe84	0.018187769
4	0xbceaf5d4	-0.028681673
5	0x3c3fbd1e	0.011702804
6	0xbc5088fd	-0.012727973
7	0xbcd51af2	-0.026013825
8	0xbc3888fa	-0.0112631265
9	0xbc1f44da	-0.009721005
10	0xbc1b3ca5	-0.009474908
11	0xbc047ace	-0.00808592
12	0x3c451003	0.012027743
13	0x3c63b15c	0.013897266
14	0xbc480e8e	-0.012210501
15	0xbc072c34	-0.008250285
16	0xbc7a69ab	-0.015283982
17	0x3cc99624	0.024607725
18	0x3bbd9e0e	0.005786664
19	0x3c1f8499	0.009736204
20	0x3caefad3	0.021359837
21	0x3c5e6e31	0.013576076
22	0xbc6edff2	-0.01457976
23	0x3c37c6ec	0.01121686
24	0xbca047ba	-0.019565452
25	0xbc2e8bf7	-0.010653487
26	0x3c425b1b	0.011862542
27	0x3c35490e	0.011064781
28	0xbc634306	-0.01387096
29	0x3c9d8ed9	0.019233154
30	0x3c7a9806	0.015295034
31	0x3cc84014	0.024444617
32	0xbc28219c	-0.010261919
33	0xbbe72d40	-0.007054955
34	0xbc2c6edd	-0.010524479
35	0x3c4d5481	0.012532354
36	0xbcd0b18a	-0.025475282
37	0xbceac276	-0.02865718
38	0xbb8e0c94	-0.0043349955
39	0x3caaa4d7	0.020830555
40	0x3caae97e	0.02086329
41	0xbc4063fd	-0.011742589
42	0x3cbd62ec	0.023118459
43	0x3cd54c65	0.026037404
44	0x3bffa1b9	0.0078012613
45	0x3b2762e7	0.0025541128
46	0xbc5f8d39	-0.01364451
47	0xbc5a4cd5	-0.013323982
48	0x3c9eead9	0.019399093
49	0xbccb20d0	-0.02479592
50	0x3cc3c093	0.023895537
51	0xbc6e22fa	-0.014534706
52	0x3c3fb679	0.01170122
53	0xbcc9be78	-0.024626955
54	0x3ccb9d42	0.02485526
55	0xbc6e4aa2	-0.014544161
56	0x3bfbc20c	0.0076830443
57	0xbbdb11be	-0.0066854646
58	0xbc742809	-0.014902123
59	0x3c47b8d5	0.0121900635
60	0x3c35f2e1	0.01110527
61	0x3c69516a	0.014240602
62	0x3ca74978	0.020420775
63	0x3c4450cd	0.011982155
64	0x3c809bb5	0.015699247
65	0x3c133805	0.008985524
66	0x3c4d7c92	0.012541907
67	0xbc83ea87	-0.016103042
68	0x3cefdd8c	0.029280446
69	0xbc29ac7c	-0.010356065
70	0x3c67fb62	0.014159055
71	0x3cdf8af3	0.027287936
72	0x3c62bfb6	0.013839653
73	0x3c0aa398	0.008461855
74	0x3c2f681c	0.010705974
75	0x3c138b6c	0.009005409
76	0xbc4afc8d	-0.012389314
77	0xbc8989b8	-0.016789302
78	0x3c30557e	0.01076257
79	0x3c21f2fb	0.009884591
80	0x3c6a962d	0.014318031
81	0xbcd35326	-0.025796484
82	0xbc154dc4	-0.009112779
83	0xbc57902a	-0.01315693
84	0xbcc5fb73	-0.024167752
85	0xbc82c440	-0.01596272
86	0x3c60b6ea	0.013715485
87	0xbc539762	-0.01291451
88	0x3ca2155a	0.019785572
89	0x3c1bf2ff	0.009518384
90	0xbc8ad950	-0.016949326
91	0xbc375a83	-0.011191013
92	0x3c7a483a	0.015276009
93	0xbc8b0e9a	-0.016974736
94	0xbc70b770	-0.014692172
95	0xbcc8df07	-0.02452041
96	0x3c36dee6	0.011161542
97	0x3bff532d	0.0077918977
98	0x3c550960	0.013002723
99	0xbc6687fb	-0.014070506
100	0x3ccda019	0.025100755
101	0x3cfabc06	0.030607235
102	0x3bd9fb84	0.0066522975
103	0xbca7c567	-0.020479871
104	0xbcaebeb7	-0.021331174
105	0x3c3a9a31	0.011389301
106	0xbcaadae3	-0.020856326
107	0xbcc64655	-0.024203459
108	0xbbd2ca65	-0.0064328187
109	0xbb8006bb	-0.0039070523
110	0x3c6e4d77	0.014544836
111	0x3c538125	0.012909208
112	0xbca3ed0d	-0.020010496
113	0x3cb910e0	0.022591054
114	0xbca82246	-0.020524155
115	0x3c7f7df3	0.0155939935
116	0xbc1bf46f	-0.009518727
117	0x3cc410c4	0.023933776
118	0xbcddcbe2	-0.027074758
119	0x3c36e342	0.011162581
120	0xbbf2cbba	-0.00740954
121	0x3bf86d88	0.0075814165
122	0x3c4741f3	0.01216172
123	0xbc3080b0	-0.010772869
124	0xbc31fafc	-0.010863062
125	0xbc508520	-0.012727052
126	0xbca970c0	-0.020683646
127	0xbc4e19df	-0.01257941

dist.dst_type_linears.0.bias f4 [2]
0	0xbc690d22	-0.0142243225
1	0x3c690d22	0.0142243225

dist.dst_type_linears.1.weight f4 [2, 64]
0	0x3d35dcb8	0.044399947
1	0x3d12185f	0.035667773
2	0x3d0dd8f4	0.03463073
3	0xbd2a350e	-0.041554503
4	0x3d6f35fa	0.058401085
5	0xbd1f6aa5	-0.038920064
6	0x3d0d9f13	0.034575533
7	0x3d826cd1	0.06368411
8	0x3d1c25cf	0.038121995
9	0x3d3e094e	0.046395592
10	0x3d241da1	0.04006732
11	0x3d49f534	0.04930611
12	0xbd18d875	-0.037315805
13	0xbd0d6a1c	-0.034525022
14	0x3d16048f	0.03662544
15	0x3d1d250b	0.038365405
16	0x3d069811	0.032859866
17	0xbd73e654	-0.05954583
18	0xbd11476c	-0.035468504
19	0xbd1bc857	-0.038032856
20	0xbd533431	-0.051563445
21	0xbd0b6999	-0.034036253
22	0x3d065a68	0.032801062
23	0xbd0b8049	-0.03405789
24	0x3d584ce6	0.05280771
25	0x3d1ddc00	0.038539886
26	0xbd0eda3f	-0.034876104
27	0xbd1646b5	-0.036688525
28	0x3d13faa1	0.03612769
29	0xbd62ffaf	-0.05541962
30	0xbd0b05c8	-0.03394106
31	0xbd667278	-0.05626151
32	0x3d1d8531	0.0384571
33	0x3d166d05	0.036725063
34	0x3d20c32c	0.03924863
35	0xbd0c28a4	-0.034218445
36	0x3d7bd49a	0.06148205
37	0x3d28da76	0.041223966
38	0x3d11dbfe	0.03561019
39	0xbd67d692	-0.056601115
40	0xbd6136b2	-0.054983802
41	0x3d22067c	0.039556965
42	0xbd73f554	-0.059560135
43	0xbd786a98	-0.06064853
44	0xbc9ffd97	-0.0195301
45	0xbd1c22b9	-0.03811905
46	0x3d0d4a22	0.034494527
47	0x3d33f89f	0.043938275
48	0xbd5e9b98	-0.054347605
49	0x3d2c7abd	0.04210924
50	0xbd6698d4	-0.056298092
51	0x3d4a5049	0.049392972
52	0xbd170c9b	-0.036877256
53	0x3d333654	0.043752983
54	0xbd38449d	-0.04498731
55	0x3d1039f2	0.03521151
56	0xbb17cae4	-0.0023161704
57	0x3d0b402e	0.033996753
58	0x3d2009ea	0.039071955
59	0xbd1d644d	-0.038425732
60	0xbd28ac3e	-0.041179888
61	0xbd1a1f61	-0.03762758
62	0xbd13e264	-0.036104575
63	0xbd18871c	-0.037238225
64	0xbd31f01c	-0.043441877
65	0xbd1be118	-0.038056463
66	0xbd11a751	-0.035559956
67	0x3d3202a6	0.043459557
68	0xbd6ff720	-0.058585286
69	0x3d1ad2e8	0.037798792
70	0xbd130f30	-0.035903156
71	0xbd81b929	-0.063341446
72	0xbd1ae39d	-0.037814725
73	0xbd3e9907	-0.046532657
74	0xbd127c15	-0.035762865
75	0xbd487438	-0.04893896
76	0x3d1d7c07	0.03844836
77	0x3d0b1863	0.033958804
78	0xbd1a5e83	-0.03768779
79	0xbd223378	-0.039599866
80	0xbd0ba485	-0.034092445
81	0x3d757b15	0.059931833
82	0x3d0b667a	0.034033276
83	0x3d18c98e	0.037301593
84	0x3d573d65	0.052548785
85	0x3d1462cc	0.036227033
86	0xbd15f49e	-0.03661024
87	0x3d0c4d7d	0.034253586
88	0xbd5a4823	-0.05329145
89	0xbd220693	-0.03955705
90	0x3d0e638a	0.034762897
91	0x3d1fba3a	0.03899596
92	0xbd0cc0fa	-0.034363724
93	0x3d692015	0.05691536
94	0x3d0ef048	0.03489712
95	0x3d6295db	0.055318695
96	0xbd19e6ce	-0.037573628
97	0xbd15c824	-0.036567822
98	0xbd18ab02	-0.03727246
99	0x3d10cdcf	0.035352524
100	0xbd7c94b5	-0.061665256
101	0xbd20c5ec	-0.039251253
102	0xbd1b4234	-0.037904933
103	0x3d668780	0.056281567
104	0x3d60473c	0.054755434
105	0xbd134628	-0.035955578
106	0x3d59ae4c	0.053144738
107	0x3d7df2fd	0.06199931
108	0x3ca58669	0.020205693
109	0x3d2213a0	0.039569497
110	0xbd18cb06	-0.037302993
111	0xbd2f2468	-0.04275933
112	0x3d5d63b9	0.05405018
113	0xbd3a1913	-0.04543407
114	0x3d6c782b	0.05773179
115	0xbd408a5e	-0.047006957
116	0x3d1e6cc7	0.038677957
117	0xbd36450e	-0.04449945
118	0x3d3284a3	0.043583523
119	0xbd0d66b6	-0.03452178
120	0x3b7adaa1	0.0038277286
121	0xbd1318ad	-0.035912205
122	0xbd23a2e4	-0.039950266
123	0x3d1f1cc0	0.038845778
124	0x3d31869b	0.04334126
125	0x3d135cb2	0.035977073
126	0x3d1702a5	0.036867756
127	0x3d1d004c	0.03833036

dist.dst_type_linears.1.bias f4 [2]
0	0x3d0b4731	0.03400344
1	0xbd0b4734	-0.03400345

dist.dst_type_linears.2.weight f4 [2, 64]
0	0x3c946a5d	0.018117124
1	0x3d9b3849	0.07579095
2	0x3d767a9c	0.060175523
3	0xbcd63d5a	-0.026152302
4	0x3d4401a1	0.047853116
5	0xbda3ccbc	-0.07998034
6	0x3d7014cf	0.058613595
7	0x3d84ad74	0.06478396
8	0x3d8408d0	0.06446993
9	0x3d424c1d	0.04743587
10	0x3da3943f	0.0798726
11	0x3d754efb	0.059889775
12	0xbd8a0292	-0.067387715
13	0xbd69fd04	-0.05712606
14	0x3d939f8c	0.072081655
15	0x3da18992	0.078875676
16	0x3d6c01f1	0.05761904
17	0xbcb6d9d1	-0.02232066
18	0xbda19c65	-0.07891158
19	0xbd8de790	-0.06928933
20	0xbd535dde	-0.05160319
21	0xbd77e362	-0.060519584
22	0x3d6af8e0	0.057366252
23	0xbd64a976	-0.055825673
24	0x3d1a8cba	0.037731864
25	0x3da6fbcf	0.081534974
26	0xbd6dd281	-0.05806208
27	0xbd97a763	-0.07404973
28	0x3d72ad7a	0.05924747
29	0xbd7d8dcd	-0.06190281
30	0xbd6c8012	-0.057739325
31	0xbd36d1f1	-0.04463381
32	0x3d93dbe5	0.07219676
33	0x3da5a132	0.08087386
34	0x3d93de9b	0.07220193
35	0xbd6a37bf	-0.05718207
36	0x3d1abc01	0.03777695
37	0x3bf8a6ee	0.007588259
38	0x3d917415	0.07102219
39	0xbd69935d	-0.057025302
40	0xbd15bf10	-0.036559165
41	0x3da2a1f3	0.079410456
42	0xbd758eba	-0.059950568
43	0xbcf283d9	-0.029603885
44	0x3b1c478b	0.0023846354
45	0xbcbc2068	-0.022964671
46	0x3d7a3933	0.061089706
47	0x3d11f6b7	0.035635676
48	0xbd28b31c	-0.041186437
49	0x3cb26919	0.02177863
50	0xbd778f35	-0.060439307
51	0x3d8804c3	0.06641533
52	0xbd9d4e75	-0.0768098
53	0x3ca7ea70	0.02049753
54	0xbd7cc618	-0.061712354
55	0x3d80ad8a	0.062831
56	0x3bbce236	0.005764271
57	0x3d9fc52c	0.078012794
58	0x3c7802d1	0.01513739
59	0xbd9201e1	-0.071292646
60	0xbccea2fc	-0.025224201
61	0xbd85113f	-0.0649743
62	0xbc2cc68e	-0.010545386
63	0xbd86cd73	-0.06582155
64	0xbc8b0b5f	-0.016973196
65	0xbd9e7cec	-0.07738671
66	0xbd790130	-0.060792148
67	0x3cce850d	0.025209928
68	0xbd3de10c	-0.0463572
69	0x3da33846	0.07969718
70	0xbd73a8b2	-0.059487052
71	0xbd866b64	-0.06563452
72	0xbd8b05ae	-0.06788193
73	0xbd37f4ea	-0.044911303
74	0xbda4e492	-0.08051409
75	0xbd6b5519	-0.057454202
76	0x3d8a1185	0.06741623
77	0x3d695107	0.05696204
78	0xbd8fbd25	-0.07018498
79	0xbda08996	-0.078387424
80	0xbd6d5327	-0.05794063
81	0x3ccef911	0.025265248
82	0x3da00c8e	0.078148946
83	0x3d94b28b	0.07260617
84	0x3d58c637	0.052923407
85	0x3d74e76c	0.059791014
86	0xbd6d976b	-0.05800573
87	0x3d6bd021	0.057571534
88	0xbd1cba59	-0.038263652
89	0xbda18f97	-0.07888716
90	0x3d6a826b	0.057253283
91	0x3d9228d9	0.07136697
92	0xbd749e2f	-0.059721168
93	0x3d805ab5	0.06267301
94	0x3d6d4f5b	0.057937007
95	0x3d39ab96	0.045329653
96	0xbd91d014	-0.07119766
97	0xbd9f0860	-0.07765269
98	0xbd9a3c1a	-0.07530995
99	0x3d7850e1	0.060624007
100	0xbd1bed65	-0.038068194
101	0xbbafc8ca	-0.005364512
102	0xbd8ae239	-0.0678143
103	0x3d67e623	0.05661596
104	0x3d10a241	0.035310987
105	0xbda16a7b	-0.07881638
106	0x3d6b7ca7	0.057491925
107	0x3cf00673	0.02929995
108	0xbb89ebeb	-0.004209032
109	0x3cbed622	0.023295466
110	0xbd7ab3f7	-0.061206784
111	0xbd1808aa	-0.037117638
112	0x3d204e23	0.039137017
113	0xbc9a7be5	-0.018857906
114	0x3d6f4215	0.05841263
115	0xbd8bb2da	-0.068212226
116	0x3da16578	0.07880682
117	0xbca72a90	-0.020406038
118	0x3d8046f1	0.06263531
119	0xbd7a2d1d	-0.06107818
120	0xbbc00f09	-0.0058611673
121	0xbd9f1371	-0.0776738
122	0xbc650adb	-0.013979639
123	0x3d98c4ca	0.074594095
124	0x3ce4db53	0.027936613
125	0x3d86be49	0.06579263
126	0x3bf31543	0.007418306
127	0x3d8746aa	0.06605275

dist.dst_type_linears.2.bias f4 [2]
0	0x3d692df9	0.05692861
1	0xbd692df8	-0.056928605

dist.dst_type_linears.3.weight f4 [2, 64]
0	0x3c2a9834	0.010412265
1	0xbb63209d	-0.003465689
2	0xbb62f4f8	-0.0034630876
3	0xbd08b76f	-0.03337806
4	0x3c09bbfb	0.008406634
5	0xba89e17d	-0.0010519471
6	0xbb809be2	-0.0039248327
7	0x3c58e4ec	0.013238173
8	0xbb127f60	-0.0022353753
9	0xba3d6718	-0.000722514
10	0x3ab8381d	0.0014054809
11	0xbb3e7f2d	-0.0029067502
12	0x3b44a755	0.0030006964
13	0x3b3d4258	0.0028878655
14	0xbb3a96a9	-0.0028471148
15	0xbb8f56a2	-0.004374341
16	0xbb2ae493	-0.0026076182
17	0xbcd9f79e	-0.02660733
18	0xb9d48f6a	-0.00040542643
19	0x39d458ab	0.00040501854
20	0xbd0858f6	-0.033287965
21	0x3ba24504	0.004952075
22	0xbbbfb463	-0.005850361
23	0x3b0d1d98	0.0021532532
24	0x3c69bbc8	0.014265962
25	0x3adcaef3	0.0016836807
26	0x3b6b468d	0.0035900206
27	0x3b07e271	0.0020734335
28	0xbbb6e693	-0.005581686
29	0xbc4e7b8f	-0.012602701
30	0x3b90fa2f	0.0044243555
31	0xbd0f9ea3	-0.035063397
32	0xba081060	-0.00051904283
33	0x3b3bbd01	0.002864659
34	0xbb50cee5	-0.00318616
35	0x3b816541	0.003948838
36	0x3ce6f4b9	0.028192865
37	0x3d036d28	0.03208652
38	0xb9533810	-0.00020143413
39	0xbc06b377	-0.008221499
40	0xbd1a85b9	-0.037725184
41	0x3a886c24	0.0010408205
42	0xbc77d25d	-0.015125838
43	0xbce82590	-0.028338224
44	0xbc95a19a	-0.018265534
45	0xbb8c4bae	-0.0042814827
46	0xbb8b010e	-0.004242069
47	0x3d15b2fc	0.036547646
48	0xbbda5652	-0.006663122
49	0x3c22df7c	0.009940978
50	0xbc8f01ce	-0.017456915
51	0x3bb130e9	0.005407442
52	0xba7d3f38	-0.00096606044
53	0x3c77e078	0.015129201
54	0xbcfaf721	-0.030635418
55	0xbb99eabc	-0.004697172
56	0xbc21e62d	-0.009881538
57	0xb90ebb09	-0.00013611851
58	0x3d305d24	0.043057576
59	0x39407c5c	0.00018356874
60	0xbd188498	-0.037235826
61	0x3b74755a	0.0037301392
62	0xbc6019b6	-0.013678005
63	0x3bae4f40	0.005319506
64	0xbc3dd4a3	-0.011586341
65	0x3b103f3c	0.0022010347
66	0x3ba3a5c5	0.0049941265
67	0x3d093575	0.033498246
68	0xbc0a5a7c	-0.008444425
69	0x3b0c2f99	0.0021390675
70	0x3aabd551	0.0013109838
71	0xbc5b2141	-0.013374628
72	0x3b0c82c1	0.002144024
73	0x3b04593a	0.0020194785
74	0xba8fa538	-0.0010959273
75	0x3b39bf0e	0.0028342637
76	0xbb9776fe	-0.0046223393
77	0xbb5a81e6	-0.0033341586
78	0x3b77eb13	0.0037829324
79	0x3b964c06	0.0045866994
80	0x3b8d3973	0.004309827
81	0x3cec6bd1	0.028860005
82	0x389d74df	7.508112e-05
83	0xbb8e9846	-0.0043516485
84	0x3d07d8bb	0.033165675
85	0xbb03e2dd	-0.0020124235
86	0x3b6fa28d	0.0036565394
87	0xbace1cc4	-0.0015725126
88	0xbc4312bc	-0.011906322
89	0xb8964ada	-7.1664996e-05
90	0xbb1e526b	-0.0024158012
91	0xbad477d0	-0.0016210023
92	0x3b1d9bad	0.0024049089
93	0x3c4bed2c	0.012446683
94	0xbb1132f9	-0.0022155626
95	0x3d13b981	0.036065582
96	0x3aefefaf	0.0018305684
97	0xbabe66f2	-0.001452653
98	0xba0b5305	-0.00053148
99	0xbb927fd8	-0.0044708066
100	0xbcf0c463	-0.02939052
101	0xbd0d4e3d	-0.034498442
102	0x3aade75e	0.0013267805
103	0x3c09688a	0.00838674
104	0x3d14be14	0.036314085
105	0xb9f70a55	-0.0004711921
106	0x3c62ee33	0.013850736
107	0x3cfc98ce	0.030834582
108	0x3c9c8fc3	0.01911152
109	0x3b652323	0.003496357
110	0x3b7a558a	0.0038197958
111	0xbd138385	-0.0360141
112	0x3c208193	0.009796518
113	0xbc0b23bd	-0.008492407
114	0x3c807ac5	0.015683541
115	0xbb573ef4	-0.003284392
116	0xbb25c8f2	-0.0025296775
117	0xbc9493ed	-0.018136943
118	0x3d05a324	0.032626286
119	0x3b14be98	0.002269661
120	0x3c5154d0	0.0127765685
121	0x3b59cb22	0.003323265
122	0xbd35f7ef	-0.0444259
123	0xbb0aac88	-0.0021159966
124	0x3d180541	0.037114386
125	0xbb5ac18e	-0.0033379528
126	0x3c610f02	0.013736488
127	0xbb50e7e6	-0.0031876503

dist.dst_type_linears.3.bias f4 [2]
0	0xbb5f0ecf	-0.0034035926
1	0x3b5f0edf	0.0034035963
