route_dev/drl-or/model/test/agent4.pth (torch, 225285 bytes, 31 tensors)

base.actor.0.weight f4 [64, 343]
000000 bd d5 75 3d 29 d8 00 3d be 32 9b bd 17 f9 46 3c
       0.06001829 0.031456146 -0.07578038 0.012144349
000010 33 92 cd 3d e4 cf e2 3d 12 dc 5e 3d 25 ae 80 bd
       0.10037651 0.11074808 0.054409094 -0.062832154
000020 9d c2 15 3d 04 51 ed 3d 9c 59 4d 3e 92 61 28 3d
       0.03656255 0.11587718 0.20053715 0.041108675
000030 c2 e8 de bc c9 8f b5 bd f6 33 90 3d 1f 77 88 bd
       -0.027210597 -0.088653155 0.07041161 -0.066633455
000040 f7 67 90 bc 0f 25 52 bb 13 40 5e bd f4 7e 0a bd
       -0.0176277 -0.0032065546 -0.054260325 -0.03381248
000050 dd 39 06 be 3b 75 33 bc 78 f6 09 bd 71 13 24 3d
       -0.1310801 -0.010953243 -0.033682317 0.040057603
000060 11 4b c7 bd 0a 3b 3b 3d d6 ba 25 3d 2f f0 26 be
       -0.09731115 0.0457106 0.040461384 -0.1630256
000070 f3 31 6c bd 2c e0 1d bd cc 8b 30 3e f2 5d 07 be
       -0.057664823 -0.038543865 0.17240828 -0.13219431
000080 c2 b1 56 3e 26 da d2 bd 59 22 91 bd 8f d3 3c bd
       0.20966247 -0.10295515 -0.070866294 -0.046100195
000090 21 e8 de bd 31 2a 9e 3b c4 69 03 3d ce 1e e4 3c
       -0.10884119 0.004826807 0.032083288 0.02784672
0000a0 17 2e b7 3d e8 8e 04 3d 38 96 7b 3d 35 13 0a 3e
       0.08944338 0.03236285 0.061422557 0.1348389
0000b0 bb a3 65 bb b9 e1 8e bd e5 95 37 3c fe 61 fa 3c
       -0.0035040218 -0.06976647 0.011205171 0.030564304
0000c0 33 de ad bd b8 c3 28 3d 43 3a b2 bd 38 5c c4 bd
       -0.08489647 0.041202277 -0.08702519 -0.09587902
0000d0 df e0 f3 bc 23 06 2a 3e 14 03 a8 bd ce c2 a4 3d
       -0.029770313 0.16603903 -0.08203712 0.080449685
0000e0 8a 9f fd 3d e3 48 db bd f2 5e 09 bc 48 40 9f 3d
       0.12383945 -0.107072614 -0.008384453 0.077759326
0000f0 a1 c5 0e be 57 55 d4 3c 2b e2 89 bd 2d a4 90 bd
       -0.13942577 0.0259196 -0.06732591 -0.07062564
000100 66 ee fd bc 31 6d c0 bc 37 b9 f8 3b 4b 72 8d 3c
       -0.030997466 -0.023489567 0.0075904387 0.017266413
000110 3a 40 c0 3d 47 99 5c bc c7 97 0b be 3e fa 7e 3d
       0.0938725 -0.013464279 -0.13632117 0.06225037
000120 e5 58 27 bd 97 32 8b 3c f0 cf 00 3e 42 97 bf bc
       -0.04085626 0.016991897 0.12579322 -0.023387555
000130 95 54 62 bd a3 08 b4 bc 98 f5 bf 3d b4 e1 8b 3d
       -0.055256445 -0.021976775 0.09373015 0.06830159
000140 7e 6a 34 3c 21 cd 0b be c2 09 b8 bb 13 f7 63 3d
       0.011011718 -0.13652469 -0.0056163976 0.05565555
000150 5a 28 a5 bd dc 39 ff 3d 9a 49 78 bd da 68 a0 3d
       -0.08064337 0.12462208 -0.060617067 0.07832499
000160 87 ec a7 bd ba 0b ef 3d b6 cf c7 bd 5e 78 2d 3d
       -0.08199411 0.116721585 -0.097564146 0.04235112
000170 fd 36 ca 3d e8 bf 14 3d 8b 54 1f 3e 42 ee b0 bd
       0.098737694 0.03631583 0.15559594 -0.08639194
000180 15 bd 08 3e 00 f4 48 3d 79 cb ad 3c de 60 0b be
       0.13353379 0.04906082 0.021215187 -0.1361117
000190 92 62 d5 bc 28 7b 25 3c 73 18 55 bc da 88 d7 3d
       -0.026047979 0.0101001635 -0.013006317 0.10524149
0001a0 45 21 98 bd fa f7 0c 3d 33 0c 3e bc e9 90 05 bc
       -0.07428221 0.034416176 -0.011599588 -0.008152225
0001b0 e9 32 38 bd 31 20 3f bd ac f0 d0 bd fe d6 90 3b
       -0.044970427 -0.04666156 -0.102021545 0.0044201603
0001c0 bd 12 0d 3e 41 52 d9 bc c3 b5 91 3d c2 04 14 be
       0.1377668 -0.02652848 0.071147464 -0.1445494
0001d0 63 c1 12 be 6d ea c0 bd 6a 0b 04 3d 97 75 ad 3d
       -0.14331584 -0.09419713 0.032237448 0.08469694
0001e0 73 0a 54 bd 2f fc 95 bd fe 06 ad 3d 5d df 29 3d
       -0.051767778 -0.07323491 0.08448599 0.04147278
0001f0 0f b2 31 bc f4 4f b2 bc 43 8e cc 3c b5 a7 35 3d
       -0.010845675 -0.02176664 0.02497018 0.04434939
000200 9f aa f5 bd 68 b9 22 bd a2 97 9b 3c 62 fa 80 3d
       -0.11995434 -0.0397276 0.018993203 0.06297757
000210 5f 19 2d be 10 ab 2b bd bd c6 8d bd 57 d6 c3 bd
       -0.1690421 -0.041911185 -0.06922672 -0.095623665
000220 cb 66 94 3a c3 9b 2b bd 66 4f b1 bd 7c 8e af bd
       0.0011322139 -0.041896593 -0.08657722 -0.085720986
000230 18 f7 56 3d d9 d3 5c 3d e8 97 e5 bd 47 05 85 bd
       0.05248174 0.05391297 -0.112106144 -0.06495147
000240 16 7b ca 3d 1c 91 1c bd ec f3 58 3d db a0 c6 bb
       0.09886758 -0.038224325 0.052966997 -0.006061656
000250 c1 ac 5f 3c 87 ec b5 bc 15 72 35 3e 26 9c 8a 3d
       0.013652028 -0.022207512 0.177193 0.06768064
000260 6a d0 29 bd 89 60 0d 3d cc 9a 3a bd 29 4b b9 bd
       -0.041458525 0.03451589 -0.045557782 -0.09047539
000270 67 ca 17 be dd f4 46 3d 96 b1 70 bd 9b 96 dc 3c
       -0.14823304 0.048573364 -0.05876311 0.026927283
000280 f0 d7 6a 3e 48 dc 36 bd b3 7d 9d bd bb d5 57 bd
       0.22933936 -0.04464367 -0.07689991 -0.052694064
000290 61 a3 46 bd 60 34 0f bd ab ce 45 bd e4 08 9f bd
       -0.048495654 -0.034962058 -0.048292797 -0.077653676
0002a0 de db be bd c3 af a2 3b 0a ca 88 bc c9 1c 01 bd
       -0.0931928 0.0049648 -0.016697902 -0.031521592
0002b0 87 12 91 bc 6f ec 06 3e 7f d5 de 3d 60 33 df bd
       -0.01770903 0.1317613 0.10880565 -0.10898471
0002c0 d9 b1 a1 bc e6 7f d3 3c 20 24 18 bd b4 71 70 3d
       -0.019738125 0.025817823 -0.037143826 0.058702186
0002d0 e0 09 72 3c df 6c 2d 3d 07 ef 54 3b d9 d4 45 3d
       0.014772862 0.042340156 0.0032491104 0.04829869
0002e0 40 2c 27 3c d1 b6 8e 3d d1 ad f9 3d 69 bf 5b 3c
       0.010203421 0.06968463 0.12191356 0.013412335
0002f0 4b 02 96 3c bd 69 a9 bc f3 58 7f bc 73 80 f6 bd
       0.01831164 -0.020680303 -0.015585172 -0.120362185
000300 27 61 2f bd 2c bf ce bd 8a a4 9c bd f1 fe 1d bd
       -0.04281726 -0.10095057 -0.07648571 -0.03857321
000310 9c b1 21 bd dc 26 bd 3d ab db 97 bd de c6 56 3d
       -0.039476022 0.092359275 -0.07414945 0.05243575
000320 b7 c2 39 bd a2 a9 07 bd f9 43 d0 3d 0d 16 34 be
       -0.04535171 -0.03312076 0.10169215 -0.17586537
000330 c0 80 77 bd 60 2d c0 bd e7 f8 cd bd ec a5 9d 3c
       -0.06042552 -0.093836546 -0.1005724 0.019244157
000340 18 b3 e8 3d d5 53 21 3d 83 b9 68 bd 9b fb 3f 3d
       0.113622844 0.03938659 -0.056817543 0.04687081
000350 1b cf 4b 3d 19 3e e0 3c e8 56 d7 3d 27 f8 eb 3c
       0.049758058 0.02737336 0.10514623 0.028804852
000360 f4 47 1e 3d 03 09 6a 3d 6f dc fc bd 25 b5 84 3d
       0.03864284 0.0571375 -0.12346732 0.06479863
000370 ae 31 cc bd 5c bf 2f 3e 97 5a 09 bd bb 16 1d 3b
       -0.09970413 0.17162842 -0.03353366 0.0023969847
000380 ae 57 c2 bd c2 f3 83 bd f9 16 cf 3c a1 a9 5c bc
       -0.0948938 -0.064429775 0.025279509 -0.013468177
000390 59 ca 46 bd f6 03 f8 bd 4d 41 55 3d 5a 26 ea 3c
       -0.048532818 -0.121101305 0.05206423 0.02858274
0003a0 8e ff d4 bd a4 36 49 3d dc f9 c3 bd d6 14 d9 3d
       -0.10400306 0.049124375 -0.09569141 0.10599677
0003b0 29 48 91 bd c4 3d b1 3b e9 7b 0b 3e 3e 5c d3 bc
       -0.070938416 0.0054089744 0.13621487 -0.02580082
0003c0 0d ac 5c bd 31 cc c9 bd 0e 1e ec 3d cd 5f 0f be
       -0.053875018 -0.098533995 0.1152917 -0.14001389
0003d0 92 26 f9 bd c8 8f 21 3d a9 3b f0 bc 03 b0 fd 3c
       -0.1216556 0.03944376 -0.029325323 0.030967718
0003e0 96 2e 62 3d 83 5a ae 3d f6 c6 f1 3c 60 f6 6c 3d
       0.05522021 0.085133575 0.029513817 0.05785215
0003f0 ce 86 95 3c 61 b7 0a 3d d7 0a e8 3d 3b 3f 37 3d
       0.018252756 0.03386629 0.113301925 0.044738036

base.actor.0.bias f4 [64]
000000 00 00 00 00 41 1d 8d b3 00 00 00 00 00 00 00 00
       0.0 -6.5711454e-08 0.0 0.0
000010 00 00 00 00 00 00 00 00 00 00 00 00 00 00 00 00
       0.0 0.0 0.0 0.0
000020 00 00 00 00 00 00 00 00 00 00 00 00 00 00 00 00
       0.0 0.0 0.0 0.0
000030 00 00 00 00 00 00 00 00 00 00 00 00 00 00 00 00
       0.0 0.0 0.0 0.0
000040 00 00 00 00 00 00 00 00 00 00 00 00 00 00 00 00
       0.0 0.0 0.0 0.0
000050 00 00 00 00 00 00 00 00 00 00 00 00 00 00 00 00
       0.0 0.0 0.0 0.0
000060 00 00 00 00 00 00 00 00 00 00 00 00 00 00 00 00
       0.0 0.0 0.0 0.0
000070 00 00 00 00 00 00 00 00 00 00 00 00 00 00 00 00
       0.0 0.0 0.0 0.0
000080 00 00 00 00 00 00 00 00 00 00 00 00 00 00 00 00
       0.0 0.0 0.0 0.0
000090 00 00 00 00 00 00 00 00 00 00 00 00 00 00 00 00
       0.0 0.0 0.0 0.0
0000a0 00 00 00 00 00 00 00 00 00 00 00 00 00 00 00 00
       0.0 0.0 0.0 0.0
0000b0 00 00 00 00 00 00 00 00 00 00 00 00 00 00 00 00
       0.0 0.0 0.0 0.0
0000c0 00 00 00 00 00 00 00 00 00 00 00 00 00 00 00 00
       0.0 0.0 0.0 0.0
0000d0 00 00 00 00 00 00 00 00 00 00 00 00 00 00 00 00
       0.0 0.0 0.0 0.0
0000e0 00 00 00 00 00 00 00 00 00 00 00 00 00 00 00 00
       0.0 0.0 0.0 0.0
0000f0 00 00 00 00 00 00 00 00 00 00 00 00 00 00 00 00
       0.0 0.0 0.0 0.0

base.actor.2.weight f4 [64, 64]
000000 cb 06 56 3e 2e 2f bd 3d d7 16 56 be 92 4a 98 bc
       0.20901029 0.092375144 -0.2090715 -0.018590245
000010 f2 ed 98 bd 43 6b a4 3e 5e f3 51 be af b0 7e 3e
       -0.074672595 0.32113084 -0.20502993 0.24872087
000020 3d c7 1f be 0b cb 3d 3e 8e ae d7 3d e2 22 67 be
       -0.15603347 0.18534486 0.105313405 -0.225719
000030 80 5b 16 3e 60 82 58 be fd c0 76 bd fa a9 c5 bd
       0.14683342 -0.21143484 -0.06024264 -0.09651561
000040 e3 2a 18 be ad 06 93 3e 95 47 9a 3d 37 1c 52 3e
       -0.1486011 0.2871603 0.075331844 0.20518576
000050 2f 20 a0 3e ae ee a4 bc 4a 19 b7 3e 44 4e 30 3e
       0.31274554 -0.020133343 0.35761482 0.17217356
000060 70 a7 42 3d 96 ab 67 3d b2 f5 2a be e4 a4 12 bd
       0.047522962 0.05656012 -0.16695288 -0.035801783
000070 c1 da 2d be aa 97 11 3d c0 02 b4 3d 4c cf 1e 3e
       -0.16977979 0.03554503 0.08789587 0.15508765
000080 94 ab 3f 3c 35 67 b7 be 09 54 79 3e 75 f3 50 3e
       0.011698622 -0.35820928 0.24348463 0.20405371
000090 31 20 54 bd 66 c6 48 be 6c 9d e8 bd 23 f9 0f be
       -0.051788513 -0.19606933 -0.11358151 -0.14059882
0000a0 0f b1 93 3e 4d fe 04 be 2f 7c b1 be ec f1 09 be
       0.28846022 -0.12987633 -0.34665057 -0.13471192
0000b0 a2 ab 3e 3b 8d 89 3b be 0e 4b 22 bd 42 07 8a 3d
       0.0029094 -0.1831419 -0.03962236 0.067396656
0000c0 0e 0b 8a be 90 ea d0 3e 6e 5b a2 3d 08 bd 0d be
       -0.2696156 0.40803957 0.07927595 -0.13841641
0000d0 7a 8a fe bd 64 53 11 3d b8 e4 09 3d 1d 1c 67 be
       -0.12428756 0.035479918 0.03366539 -0.22569318
0000e0 d4 d4 6b 3c 74 27 c7 3d 4b cb 2a 3d e3 1e 3b be
       0.014394004 0.09724322 0.04169778 -0.18273501
0000f0 56 ab 4a be d5 f4 6d 3c 90 93 f5 bc bf be eb 3d
       -0.19791922 0.014523705 -0.02997759 0.11510991
000100 bb 80 6d 3e 52 6b 16 be 36 c0 29 3d 7b e8 80 3d
       0.23193638 -0.14689377 0.041443072 0.06294342
000110 75 24 ae 3d 7b 6b 23 be fe 81 59 bd 68 bf 33 3c
       0.085030474 -0.1595897 -0.053102486 0.010970928
000120 b6 00 aa 3b d1 7e c7 bc b7 87 c7 be 26 1a 2c 3e
       0.005188073 -0.024352463 -0.3897073 0.1680685
000130 8a 23 29 3e 66 71 37 3e 23 78 fa bc 47 ad 44 be
       0.16517463 0.17914352 -0.030574864 -0.19206725
000140 d9 52 94 be c1 9f 3a 3e c1 cf 9a be 55 81 b7 3d
       -0.28969458 0.18225004 -0.3023663 0.08960215
000150 45 da 05 bd af 10 55 3e 98 46 72 3e d7 e9 5d 3e
       -0.03267886 0.20807146 0.23659742 0.21671234
000160 20 da 6c bd b9 e4 68 be 45 2b ec 3d 13 d6 ba bd
       -0.057825208 -0.22743501 0.115316905 -0.09122863
000170 3b 57 8a be 53 c9 d9 bc 69 2a b3 be bb 4f b1 bc
       -0.27019677 -0.026585257 -0.34993294 -0.021644464
000180 ab 14 ad bd a5 b0 af 3a 3f 50 be 3d 7a 3d 1a be
       -0.08451208 0.0013404085 0.092926495 -0.15062514
000190 01 aa 8b 3e 3a 3c 47 3e 44 4a 9a 3d e1 71 3b bd
       0.2727814 0.19456568 0.07533696 -0.0457629
0001a0 3a bb 29 3e 1c eb a1 bd 4e 54 79 be d5 09 f8 bc
       0.16575328 -0.07906172 -0.24348566 -0.030278126
0001b0 5f be be be ed 6b ae 3d 99 e1 dd 3d a5 88 81 bd
       -0.37254617 0.08516679 0.10834045 -0.06324891
0001c0 b7 39 f4 3e 38 05 2a be b1 16 2e be 90 65 6f be
       0.47700283 -0.16603553 -0.17000844 -0.23378587
0001d0 bb 2b d2 bc d1 d6 ae 3d 8c 1a 9f bb 57 78 85 be
       -0.025655618 0.08537067 -0.0048554596 -0.26068375
0001e0 81 51 4a 3e 29 3e a1 bd f1 4c 8d 3d 97 a6 82 3e
       0.19757654 -0.07873184 0.06899441 0.25517723
0001f0 71 4d 8e 3e 01 4b 11 be 62 cc ba bd f5 de ac 3d
       0.27793458 -0.14188768 -0.09121014 0.08440963
000200 02 df 6e 3e be 06 99 bd e4 a5 a6 3e a5 51 4a 3d
       0.23327258 -0.07471989 0.3254844 0.04939427
000210 6c 20 fe 37 f7 64 cd 3d a6 ab 31 3e 83 70 ec bd
       3.0294257e-05 0.10029023 0.17350635 -0.115448974
000220 a3 b5 c6 3d 51 a4 82 3e c5 84 92 3d 49 5b c3 3d
       0.09702613 0.25515988 0.0715423 0.09538896
000230 b4 43 1a 3e 9b 57 e4 3d 85 73 a9 3d 31 6c 76 be
       0.15064889 0.11149522 0.08273987 -0.24064709
000240 cf d2 cc bd aa 84 99 3c 4e af 2d 3d bb 0a c5 3d
       -0.10001146 0.018740017 0.04240351 0.09621187
000250 a1 f2 8b bd c6 37 5d be c2 68 93 3e 95 c8 90 be
       -0.06833387 -0.21603307 0.2879086 -0.28278032
000260 c3 94 21 be 6e ad 2f 3e 61 81 8f bd b9 65 cf be
       -0.15779404 0.17156002 -0.07007099 -0.40507296
000270 12 d3 af bc d5 b3 de bd 0d a9 25 be 0b b5 dc 3d
       -0.02146295 -0.10874144 -0.16177769 0.10776719
000280 dc 56 42 3d 30 de de 3e 0c 74 32 3e a7 c4 d0 3d
       0.047446117 0.4352889 0.17427081 0.101937585
000290 7d 6f be bd 0a 3d 31 bc 92 89 f8 3d 60 ad cb be
       -0.092986085 -0.0108177755 0.121356145 -0.39780712
0002a0 8a 35 78 3e f4 64 39 3d 5d 73 99 3e be df 88 3d
       0.24239174 0.045262292 0.29970828 0.066833004
0002b0 22 4a 5e 3d 04 cc 62 bd c2 77 7b 3c eb 0e a7 bd
       0.054269917 -0.055370346 0.015348377 -0.08157142
0002c0 df f1 1e be ac d7 32 be 4f e2 91 3e 49 5c e0 3d
       -0.15521954 -0.17465085 0.28492972 0.10955102
0002d0 18 bd d1 bc 91 b3 05 3e 17 bf 28 3e 59 12 ec bd
       -0.025602862 0.1305678 0.16479145 -0.11526937
0002e0 5e ad 93 be 16 2b a5 be 91 63 c5 3d a6 17 03 bc
       -0.28843206 -0.32259434 0.096381314 -0.008001244
0002f0 dc 6e 31 be d0 6d 92 3e 76 f8 fc 3d 29 b6 a7 3d
       -0.17327446 0.28599405 0.12352078 0.08189041
000300 f5 8e b3 3d 1f 12 e4 3d d7 a1 58 3d 20 bc 09 3e
       0.08767501 0.11136269 0.052888718 0.1345067
000310 0b dc e5 bd d8 a8 cc 3e b7 d5 96 be 17 a8 8b bd
       -0.112236105 0.39972568 -0.29459926 -0.0681917
000320 a0 c6 16 3e b5 ae 1f be 59 8e 07 3e f7 38 d4 3d
       0.14724207 -0.15593989 0.13237895 0.10362428
000330 d7 3f ac 3e 2c f7 7b 3e b5 22 fc 3e 4d 0f e6 3d
       0.33642456 0.24606007 0.4924523 0.11233387
000340 52 cb b9 be 11 86 a6 3d 02 87 58 3e c2 16 0a bd
       -0.36287934 0.0813104 0.21145251 -0.03371311
000350 8d 6f bb 3d 80 5d 55 bc cd 32 bb bc a9 80 cf 3d
       0.09152136 -0.01302278 -0.022851372 0.10131962
000360 91 7c c3 bd 27 8c f7 3d ff 5a cd 3c 19 f3 40 3e
       -0.095452435 0.12087279 0.025067804 0.18842734
000370 1f b5 b8 bd 2d dc b3 bd 25 02 06 3e 57 90 df bc
       -0.09018921 -0.087822296 0.13086756 -0.027290506
000380 01 1b b9 bd 6b 41 47 3e 23 9e b8 3d 45 ba 2e be
       -0.09038354 0.19458549 0.09014537 -0.17063244
000390 92 21 58 bc ef c7 9f be c3 e4 12 3e d1 b2 24 3e
       -0.013191598 -0.31207225 0.14345078 0.16083838
0003a0 4f d0 6f 3e e7 b9 7e 3e 35 e7 69 3e e3 8b 72 3d
       0.23419307 0.24875604 0.22842105 0.059215438
0003b0 a5 37 9f 3d c9 eb b4 be 14 f3 94 be 31 e7 06 be
       0.07774285 -0.3533614 -0.29091704 -0.1317413
0003c0 4c e7 f2 3d 0f 73 d4 bd ab ed 36 be 16 6a 37 3d
       0.11860523 -0.10373508 -0.178641 0.044778906
0003d0 d0 6d 90 3e 7a c1 07 be 85 4d 02 be ed fc bd 3c
       0.2820878 -0.13257399 -0.12724884 0.023191893
0003e0 85 10 e6 3c 05 ef b7 3d bd 47 5d bd dc 80 4d be
       0.028084049 0.08981136 -0.054023493 -0.20068687
0003f0 6d df c7 3d 85 ff a3 bd 3e 51 82 be 53 d6 1b be
       0.09759412 -0.08007721 -0.25452608 -0.15218477

base.actor.2.bias f4 [64]
000000 bd 7c f3 bc a3 4b bb 3c bf 54 0e bd 3d e2 ca bc
       -0.029722566 0.022863215 -0.03474879 -0.024766082
000010 1f 98 93 bc d8 b8 0b bd c6 86 76 bc a4 0f 8c 3c
       -0.018016873 -0.034111828 -0.015046781 0.017097302
000020 86 1d 86 bc 3d fb 86 3c e5 2e 25 3d 78 f0 cb 3c
       -0.0163715 0.016477222 0.040327925 0.024894938
000030 2d 7b 3f 3d 44 d0 83 bc 06 9c 96 bc a6 8a 84 3c
       0.04674833 -0.01609052 -0.018384945 0.016179394
000040 c3 e2 31 3d 95 7c c5 bc f4 f7 18 3d 84 46 f8 3c
       0.043429147 -0.024107257 0.03734584 0.030307062
000050 0d e2 a8 3c 13 a9 01 bd 56 c4 91 bc 52 ad 9a bc
       0.020615602 -0.031655382 -0.017793816 -0.018881474
000060 4a da 07 bd 3d 57 93 bc 70 2a 0b 3d 1b f7 b0 bc
       -0.03316716 -0.017985934 0.03397602 -0.021602204
000070 d5 35 8e 3c f5 10 d0 3b b5 89 22 3d b9 00 c2 bc
       0.017359653 0.0063496777 0.03968211 -0.023681985
000080 88 8c 96 3c 13 57 48 bc a7 d7 f9 bb 56 d8 a9 3c
       0.018377557 -0.012227791 -0.0076245847 0.02073304
000090 0e 69 78 3c ed db 42 bd ef 6d b6 3c d2 24 7e 3c
       0.015161766 -0.04757302 0.022269217 0.015511708
0000a0 fb c3 a1 3c ae 95 95 3c 96 14 bd 3c 1c ec 8f 3c
       0.019746771 0.01825985 0.023081105 0.01756864
0000b0 4d d3 42 3d 67 3c 78 bc 6d de 63 bb f3 67 9a 3c
       0.047564793 -0.01515112 -0.0034770027 0.018848395
0000c0 17 a5 04 bd 5b 06 f9 bc f5 a0 8d 3c 34 22 80 3c
       -0.032384004 -0.030398538 0.017288664 0.01564131
0000d0 1a 1e 12 3d 63 6f fb bc 80 0f 8f bc 9f f7 eb 3c
       0.03567324 -0.030692762 -0.017463446 0.028804598
0000e0 84 dc 87 3c 1d da 90 bb 8b 4b 72 bc c8 28 91 3c
       0.016584642 -0.0044205324 -0.014788519 0.017719641
0000f0 c2 00 b9 3c 70 8d 5b 3c a8 4a e0 3c b0 a9 b2 3c
       0.02258337 0.013400421 0.027379349 0.021809429

base.critic.0.weight f4 [64, 332]
000000 50 72 b4 bd 16 d5 ab bd ae 58 fc 3b b0 f1 5b bd
       -0.08810866 -0.08390252 0.007701001 -0.053697288
000010 71 e1 b0 3d e8 1f 90 3c d9 ab 57 bc 52 6d 8a bd
       0.086367495 0.01759334 -0.01316353 -0.067591324
000020 b4 fb 8d 3d a6 50 60 bd 96 2e 36 bd 6b f9 be bd
       0.06932774 -0.054764412 -0.04447802 -0.093249165
000030 79 ea 0f 3e 42 35 59 3c 86 99 5c bd 95 90 c9 3d
       0.14054288 0.013257327 -0.05385735 0.0984203
000040 45 08 8c bd 70 85 ff 3c d1 17 cc bd 96 ed 84 bd
       -0.06837515 0.031191558 -0.0996548 -0.064906284
000050 eb 12 a0 3a ff 59 77 3d 9b 6f c9 3a 6e fa 20 be
       0.0012212669 0.06038856 0.0015368344 -0.15720531
000060 64 e2 38 3d 6a f3 ca bd cd 55 24 bd bd 73 d7 3d
       0.045137778 -0.09909709 -0.04012089 0.10520122
000070 40 31 f1 3c 59 5d 8e 3c 3f e6 63 3c fd 65 6e bc
       0.02944243 0.017378496 0.013909875 -0.014550683
000080 e2 16 61 3c a0 c7 23 3e bd 95 5b bd 49 0c 9f 3d
       0.013738366 0.1599412 -0.0536096 0.07766015
000090 6d b5 dd bd 87 57 be 3c fb e2 30 bd e3 1c 1d bc
       -0.1082562 0.023235096 -0.043185215 -0.009589407
0000a0 53 37 b6 3d b0 97 4f bd 5e bd 5b bd 0a 5a 0e bd
       0.08897271 -0.05068177 -0.05364739 -0.034753837
0000b0 e1 14 12 3e 6e 71 8a bd 16 cd ec bc 45 44 e0 bd
       0.14265777 -0.06759916 -0.028906386 -0.109505214
0000c0 5f ca 91 bd 59 25 98 bc 29 e4 1c bc a9 5f 96 3d
       -0.07118677 -0.018572496 -0.009575882 0.073424645
0000d0 dd 6c 84 bd 31 dc 87 bd 94 1c f7 3d fb 4b da 3d
       -0.064660765 -0.06633795 0.12065998 0.106590234
0000e0 47 73 53 3d 32 02 fa bd 74 df a8 bc cf 70 d5 3c
       0.05162361 -0.1220745 -0.020614363 0.026054768
0000f0 2c 5d d0 bd a2 5d 55 bc 31 a0 02 3d c3 5e 74 bd
       -0.10174021 -0.013022812 0.03189105 -0.059660684
000100 7f 59 59 bd 26 39 75 3d b3 05 15 3d f6 29 cd 3d
       -0.053063866 0.059868954 0.03638239 0.10017769
000110 e6 12 87 bd c1 36 93 3d e4 2d c6 bd a1 ba a8 3d
       -0.065954015 0.07188178 -0.09676722 0.08238722
000120 6b f6 9d bd c4 9f 5a 3d df db d7 bd 7d 2b 80 3d
       -0.07713016 0.05337502 -0.10539984 0.06258295
000130 09 e9 d6 3d 05 c4 95 3d 62 92 1a be 65 b1 5b 3d
       0.10493667 0.073127784 -0.15094903 0.053635973
000140 a6 e1 7c bc 51 4f 17 be 05 ba f4 bc 44 30 4b 3e
       -0.015434658 -0.1477635 -0.029873857 0.1984263
000150 a4 67 cb bd a1 87 97 3d 36 f4 a4 3d c4 9a d8 39
       -0.09931877 0.07398916 0.08054392 0.0004131404
000160 bf 8c 6c bc ff a0 55 3e 3c 93 57 3e 38 6c 22 3e
       -0.014437853 0.20862196 0.21052259 0.15861595
000170 70 30 ad bd b8 d7 fb 3c 77 90 3b be 00 6f 24 3b
       -0.08456504 0.030742511 -0.18316828 0.0025090575
000180 de db c0 3b 9c 83 df bc 4e 41 28 3e 6b ea 0e 3d
       0.005885585 -0.027284436 0.16431162 0.034891527
000190 74 50 db bc 77 6f a4 bc bf e1 0e 3d 89 47 05 be
       -0.026771761 -0.020072682 0.034883257 -0.1301557
0001a0 06 78 6d bc 04 c5 4b 3d 76 8d c9 3d d8 5b e3 3d
       -0.014493948 0.049748436 0.09841435 0.11101502
0001b0 d2 05 9e 3d bc 50 95 bd db 47 ba 3d a7 5d ae 3d
       0.07715954 -0.072907895 0.090957366 0.085139565
0001c0 b3 f7 c4 3d f8 96 e5 bc e9 d4 61 3d 2c 1f 26 3c
       0.096175574 -0.02802609 0.055134688 0.010139268
0001d0 7f e9 09 3e 22 7d 85 3d f4 dd ff 3c 9e 00 b1 bc
       0.13467978 0.06518008 0.031233765 -0.02160674
0001e0 b3 05 68 3c b3 ca 14 bc ca 99 5c bd 8a 82 bc 3d
       0.014161515 -0.00908153 -0.053857602 0.09204586
0001f0 1f ed 97 bd 54 a2 65 3d 3b 76 52 bc d8 83 50 be
       -0.07418274 0.05606301 -0.012845571 -0.20362794
000200 88 51 d8 bb d9 56 27 bd 67 ca b8 bc d2 83 27 3d
       -0.006601516 -0.04085431 -0.02255745 0.040897198
000210 a7 31 0a 3d c4 2d ac bd 71 96 f7 ba a8 41 52 bd
       0.03373876 -0.084071666 -0.001888944 -0.051332146
000220 f0 8e a3 3d 8b 1c 08 3d 2e 6c 3e bd 20 83 1f 3d
       0.079862475 0.033230346 -0.046489887 0.03894341
000230 83 5e 20 3d 5f 41 a5 bc ce b5 b4 bd 14 10 3d 3e
       0.039152633 -0.020172773 -0.08823739 0.18463165
000240 13 fa c2 3c d5 71 74 3d b9 84 ad bc 46 3f 23 3c
       0.023800885 0.05967887 -0.021181451 0.009963816
000250 93 7e 00 3e 24 e9 25 bd 31 d1 e0 3d 79 81 31 3c
       0.12548284 -0.040505543 0.109774 0.010834091
000260 53 3e aa bc bd 95 ea bc 20 fc d1 3d 4b 06 4a 3d
       -0.020781672 -0.028635854 0.10253167 0.049322408
000270 5f b5 8d bd 74 52 d2 3c e5 69 b9 3c 22 ef c5 bc
       -0.069193594 0.025674082 0.022633502 -0.024161879
000280 31 58 b7 bd 70 34 e5 bb 1f 81 76 bd af 99 d5 3b
       -0.08952368 -0.0069947764 -0.060181733 0.0065185647
000290 61 7f 97 bc a7 a1 5e bb fa 24 1c bc 72 af 87 3c
       -0.018493356 -0.0033970864 -0.0095303 0.016563151
0002a0 c1 f7 ac 3d 20 57 f7 3c 3e bd 8a bd 1f f4 eb 3d
       0.08445693 0.030192912 -0.06774376 0.11521172
0002b0 3c e6 42 be f4 7d 28 bc a4 f1 d7 bc c4 d6 40 bd
       -0.1903314 -0.010283936 -0.02636034 -0.047079816
0002c0 54 56 f1 bb e0 12 03 be 4c 0e 93 3d 9d 81 33 3d
       -0.0073650274 -0.12800169 0.07180461 0.04382478
0002d0 7c ad b8 bd aa 48 10 bb 3d f6 28 bd f0 de 66 bc
       -0.090174645 -0.0022015967 -0.041250456 -0.014091238
0002e0 a7 c6 83 3c 1f 0c 88 bd ce bd 8e bd 1c 64 ef 3c
       0.016085936 -0.06642937 -0.06969796 0.02922254
0002f0 70 bf 12 be 8f 91 32 3d 56 72 09 bc af 69 9a 3d
       -0.1433084 0.043595847 -0.008389076 0.07539689
000300 7d da 0c 3c d1 4d 4b bc 16 e6 4b bc bd 73 12 bd
       0.008597014 -0.01240869 -0.0124449935 -0.035754908
000310 c2 cc 82 3c bd a0 98 3d c5 2c 79 bd ef 07 3e 3c
       0.015966777 0.074525334 -0.06083371 0.011598571
000320 16 86 22 bd 0e 7d 1b be 99 0a 66 3d 54 ec b6 bd
       -0.039678656 -0.15184423 0.05616245 -0.08931795
000330 cb 92 af bd 7f f1 bc bd 02 9b 62 bd b7 bc 4f bd
       -0.085729204 -0.09225749 -0.05532361 -0.050717082
000340 60 2f 9b 3d f0 bc 23 3e e8 b4 a6 3d a7 fb f2 bc
       0.075773954 0.15990043 0.08139974 -0.029661013
000350 78 be d5 bd 8f d2 20 3e dd d8 d4 3d e1 42 a5 3c
       -0.1043672 0.15705322 0.10392926 0.020173492
000360 fa f6 8d bd 48 3e be 3d f6 11 af bd cd 5f 0b 3e
       -0.06931873 0.09289223 -0.08548348 0.13610764
000370 46 94 25 3e e3 24 0f bd d3 09 57 be f6 7a 53 3c
       0.16169843 -0.034947287 -0.20999841 0.012907734
000380 7c eb 2d bd db c3 18 be b1 61 a7 bc 63 09 9e bd
       -0.042460904 -0.14918463 -0.020432325 -0.07716634
000390 21 b9 ef 3c dc c8 07 bc c0 7c 50 bd 38 18 22 3e
       0.029263081 -0.008287635 -0.05090022 0.15829551
0003a0 c6 62 4d 3d ce a0 06 3b 7f 58 c8 bc 72 e0 09 3e
       0.050143026 0.0020542624 -0.02445626 0.13464525
0003b0 1d 55 b4 3d 5e 75 9d 3d 7e 5f 65 3d 28 9f bf bd
       0.088052966 0.07688402 0.05599927 -0.093565285
0003c0 50 7a 04 3e e6 7f dd 3c 7b 88 66 bd 22 b8 a0 3d
       0.12937284 0.027038526 -0.0562825 0.078476205
0003d0 b1 d6 93 bd 95 ad 0a bd ad 3d 33 3c f6 c9 25 bd
       -0.072186835 -0.033856947 0.010939998 -0.040475808
0003e0 de b3 9d bd 13 ee fb 3b a6 eb 28 bd 5d a3 45 bc
       -0.077003226 0.007688293 -0.041240357 -0.012062875
0003f0 0e de 91 bd ec 18 c5 bd ef ac be 3d 97 a8 bc 3c
       -0.07122432 -0.09623894 0.09310328 0.023029609

base.critic.0.bias f4 [64]
000000 00 00 00 00 00 00 00 00 00 00 00 00 00 00 00 00
       0.0 0.0 0.0 0.0
000010 00 00 00 00 00 00 00 00 00 00 00 00 00 00 00 00
       0.0 0.0 0.0 0.0
000020 00 00 00 00 00 00 00 00 00 00 00 00 00 00 00 00
       0.0 0.0 0.0 0.0
000030 00 00 00 00 00 00 00 00 00 00 00 00 00 00 00 00
       0.0 0.0 0.0 0.0
000040 00 00 00 00 00 00 00 00 00 00 00 00 00 00 00 00
       0.0 0.0 0.0 0.0
000050 00 00 00 00 00 00 00 00 00 00 00 00 00 00 00 00
       0.0 0.0 0.0 0.0
000060 00 00 00 00 00 00 00 00 00 00 00 00 00 00 00 00
       0.0 0.0 0.0 0.0
000070 00 00 00 00 00 00 00 00 00 00 00 00 00 00 00 00
       0.0 0.0 0.0 0.0
000080 00 00 00 00 00 00 00 00 00 00 00 00 00 00 00 00
       0.0 0.0 0.0 0.0
000090 00 00 00 00 00 00 00 00 00 00 00 00 00 00 00 00
       0.0 0.0 0.0 0.0
0000a0 00 00 00 00 00 00 00 00 00 00 00 00 00 00 00 00
       0.0 0.0 0.0 0.0
0000b0 00 00 00 00 00 00 00 00 00 00 00 00 00 00 00 00
       0.0 0.0 0.0 0.0
0000c0 00 00 00 00 f0 6d 7c 38 00 00 00 00 00 00 00 00
       0.0 6.018387e-05 0.0 0.0
0000d0 00 00 00 00 00 00 00 00 00 00 00 00 00 00 00 00
       0.0 0.0 0.0 0.0
0000e0 00 00 00 00 00 00 00 00 00 00 00 00 00 00 00 00
       0.0 0.0 0.0 0.0
0000f0 00 00 00 00 00 00 00 00 00 00 00 00 00 00 00 00
       0.0 0.0 0.0 0.0

base.critic.2.weight f4 [64, 64]
000000 1c 8d 9c be 22 84 12 3c 15 11 2a bb 55 96 b3 bd
       -0.30576408 0.008942636 -0.0025950123 -0.08768908
000010 07 28 54 be 25 1f 8c 3d 56 6f 2a be 82 aa 08 be
       -0.20718394 0.06841878 -0.16644034 -0.13346294
000020 2d 9e 98 be 5d d3 60 3e 31 8c a1 3d 5b 55 90 3e
       -0.2980818 0.21955629 0.078880675 0.2819012
000030 9f 93 8d 3e 34 0c 4a be ec 27 82 3e 8e da 32 bc
       0.27651688 -0.19731218 0.25421083 -0.010916365
000040 41 54 39 3e 0b a3 8b 3e a7 ac df 3c fb 98 9f be
       0.18098547 0.2727283 0.027304007 -0.31171402
000050 3e f0 2c 3d 03 00 f4 3d cf cf 87 3d f5 6e 9b bd
       0.0422213 0.11914065 0.06631433 -0.07589523
000060 4d bc 13 3e 29 3b c0 bd 86 8a 99 3d cc b5 8f bd
       0.144273 -0.09386284 0.074971244 -0.07017097
000070 6e 6e 47 3e 96 1e 83 bd 11 90 99 bc 0e 89 b3 3e
       0.1947572 -0.06402318 -0.018745454 0.35065502
000080 a1 e9 c3 3c f0 1a f9 bd 59 0a 8d 3e 91 2f 87 3d
       0.023915114 -0.12163341 0.27546957 0.066008694
000090 c2 78 7f bd 89 c3 32 3e 46 26 1f bc e2 ee 46 be
       -0.062371023 0.17457403 -0.009713715 -0.19427064
0000a0 d7 e3 90 3b 45 9e ba bc af 05 c4 bd 4e 8f 04 3d
       0.004421692 -0.022780547 -0.095713966 0.03236323
0000b0 3f 01 8f be c9 d2 4c 3e 63 4d c2 bd 3c 74 16 3d
       -0.27930638 0.20002283 -0.094874166 0.036731943
0000c0 e8 a9 96 be 0f b4 4d 3e 5f 2e 3c 3e 0e 51 85 3e
       -0.29426503 0.20088218 0.18377064 0.26038402
0000d0 b4 80 9f bd e7 51 8a 3e dd 10 b8 3e d4 33 3a be
       -0.0778822 0.27015612 0.35950366 -0.18183833
0000e0 f5 34 a8 bc b5 bd 31 3e 63 3f 9f 3e 4d 24 20 bd
       -0.020533064 0.17357524 0.31103048 -0.03909712
0000f0 e0 57 2f 3c 4d 8a 10 be 6c b6 0d 3c 78 92 98 3e
       0.010702103 -0.14115258 0.00864945 0.29799247
000100 78 01 ec 3d f0 48 8d bd f6 52 8f 3d 5e d1 10 3e
       0.11523718 -0.06898677 0.069982454 0.14142367
000110 0b 9e 94 bd 15 f6 00 3e 2d 22 cb bd 32 0a a6 bd
       -0.07256707 0.12593873 -0.09918628 -0.08107413
000120 83 62 5e 3d fe d0 5a be 58 ee fe bd 2b ac 2b 3d
       0.054293167 -0.21368787 -0.12447804 0.04191224
000130 dd 17 54 bd 07 4f 95 be 0c 47 af bd d4 f0 99 3e
       -0.05178057 -0.29161856 -0.08558473 0.3006655
000140 42 81 8c be a5 4e 6e be 31 7a 12 bd 7c 78 12 be
       -0.27442366 -0.23272188 -0.035761062 -0.14303774
000150 3e 7c 74 3d a6 bf 84 3b 85 05 85 3d 44 54 ba 3d
       0.0596888 0.0040511666 0.064951934 0.09098104
000160 48 99 09 3e 0b 38 fd bb e7 59 a7 bd 33 9f 88 3e
       0.13437378 -0.007727628 -0.081714444 0.2668396
000170 40 50 4a 3e 4c 49 49 be dc 50 09 be df ba 41 3d
       0.19757175 -0.19656867 -0.13409752 0.047297355
000180 5e 6f 85 3d f5 3c e4 bd 41 99 c0 3d c5 fb 03 be
       0.06515382 -0.11144439 0.09404231 -0.12889011
000190 ca 96 9c 3e a4 ba 4c be e1 b0 26 bd ab a7 de be
       0.30583793 -0.19993073 -0.04069603 -0.43487296
0001a0 ec 59 20 3e 08 77 14 3f dc 2f 94 3d 33 83 2a 3e
       0.15659302 0.5799413 0.07235691 0.16651611
0001b0 aa 2f 7e bd 3d e5 b2 3d ee 98 91 bd 9d 2e bf 3d
       -0.062057175 0.0873513 -0.07109247 0.09335063
0001c0 d5 a7 a9 3c 81 be 28 3e d6 6c 26 be fb 1a 57 bd
       0.020709911 0.16478921 -0.16252455 -0.052515965
0001d0 4e be c9 3e 29 06 89 be 1f c2 44 3c a1 c3 cd 3d
       0.39403003 -0.26762512 0.012009173 0.10047079
0001e0 b4 23 5c be d7 a5 dd bc 12 7a b0 3b ad 3e cd be
       -0.21497995 -0.027056618 0.0053856457 -0.4008688
0001f0 69 35 69 be e3 83 5f bc af be 1d be bf 6e 1c 3d
       -0.2277428 -0.013642284 -0.15404771 0.038191553
000200 2e 4c 8e 3d 54 08 8e 3d 8f 31 f2 be 8c 32 c0 bd
       0.06948124 0.06935182 -0.47303435 -0.09384641
000210 5c 2b bf 3d e1 73 7f bb f1 7e 3b 3d d5 20 53 3e
       0.09334442 -0.0038978981 0.045775358 0.20617993
000220 da 44 e4 3c 1e 2e 99 3e e9 77 f2 3c 43 a2 76 3d
       0.027864862 0.29917997 0.029598193 0.06021334
000230 59 58 e7 3d 4d 5c 06 bf 2d aa 9a be fa 4f 61 3b
       0.11296148 -0.5248459 -0.3020796 0.0034379945
000240 75 61 10 be 1a 57 08 be 36 80 a5 bd 27 e3 50 3e
       -0.14099677 -0.13314477 -0.08081095 0.20399152
000250 e2 07 09 bb b1 ea a7 bd fa 62 64 be 67 3e 3f bd
       -0.002090924 -0.08199061 -0.22303382 -0.04669037
000260 5d f9 b5 3e 57 6d 16 bd 42 da 9b 3d f7 33 6a 3d
       0.35541812 -0.03672537 0.07609989 0.057178464
000270 b5 6f 07 be 7f 7c ab 3e 32 77 8b 3e a1 5f 83 bd
       -0.13226207 0.3349342 0.27239376 -0.06414724
000280 16 bc 86 3e 83 39 05 3d ef 5b ed 3d bf d7 9c 3d
       0.26315373 0.03252555 0.115898006 0.07658338
000290 17 9e 63 bd df 22 34 3e 75 25 18 3d 63 f8 92 bd
       -0.055570688 0.17591427 0.037145097 -0.07176282
0002a0 d3 43 5a be 72 b5 1e 3c 6b 03 74 bc 00 2e fa bd
       -0.21314935 0.009686815 -0.014893393 -0.12215805
0002b0 f5 89 7e bd 02 bb 92 3e 23 8c 4c bd 78 a9 ee bd
       -0.062143285 0.286583 -0.049938332 -0.11653417
0002c0 49 43 1d be fd 09 88 3e bc c0 69 be 99 54 58 be
       -0.15357699 0.2657012 -0.22827429 -0.21126021
0002d0 3c 4d 2f 3c 8c c6 8c 3d 8f 36 cc bd 79 1d b4 bd
       0.010699566 0.06873807 -0.09971344 -0.08794684
0002e0 58 72 8b be c1 0e 69 bd 5c fe a8 be 49 6d 5d bd
       -0.27235675 -0.056898836 -0.3300656 -0.0540593
0002f0 9c 4e 61 3e e9 17 0a be df 9a fa 3c 1b 95 8b bd
       0.22002643 -0.13485684 0.030591426 -0.06815549
000300 28 35 fa bd 5a ec 7e bd 2f 19 9c 3e 06 01 28 be
       -0.1221717 -0.06223712 0.30487964 -0.1640664
000310 c2 99 ab 3d 20 f5 8b 3c b6 a1 32 3d c6 a8 be bc
       0.08378936 0.017084658 0.04361125 -0.023273837
000320 3a de d6 3d 42 a7 19 be 4b 23 25 bf b8 a9 72 be
       0.10491605 -0.1500521 -0.6450698 -0.23697555
000330 f9 2e 7f 3e 43 01 81 bd b8 86 b8 3d 96 44 e6 bd
       0.24920262 -0.06299069 0.090100706 -0.112435505
000340 76 a2 02 3e 6e fb 1e 3e d8 2a 5d 3d e2 f2 a8 3d
       0.12757286 0.155256 0.053995937 0.08249451
000350 34 c5 8c 3d f4 e1 5d bc 62 29 74 3d c4 5b d6 3d
       0.06873551 -0.013542641 0.05960978 0.10466722
000360 d0 b9 86 3c bb 36 bc bb aa 93 ce 3d 8c a2 75 3e
       0.016446024 -0.005743829 0.100867584 0.23987788
000370 58 1f a6 3e 68 c5 ac 3c 96 69 42 3c 7c ad 8d be
       0.32445788 0.021090224 0.011865994 -0.2767142
000380 9e b6 a8 3d 06 4b 02 be 70 d8 e6 3d 42 3e c5 3e
       0.082379565 -0.12723932 0.11271751 0.3852406
000390 de 7d b5 bd ce da 34 be 30 31 22 be e8 8f 12 be
       -0.08861898 -0.17661592 -0.15839076 -0.14312708
0003a0 a8 01 34 be 79 7b 9a be e6 95 5d bd f7 88 d8 3e
       -0.17578757 -0.30172327 -0.054098032 0.42291996
0003b0 ac b3 32 3e 0b 5b 0a bd 06 3c 13 be 8e b0 20 3d
       0.17451352 -0.03377823 -0.14378366 0.039230876
0003c0 90 0f 18 be 1e 0e ae bb bc 17 ac be b0 b4 93 be
       -0.14849687 -0.0053117415 -0.33611858 -0.2884879
0003d0 6b e8 fb bd 5a 48 1d 3e 48 ff e3 3c 80 18 bd bd
       -0.123001896 0.15359631 0.027831689 -0.09233189
0003e0 26 70 17 be 86 71 2c 3d f6 e2 df bd 37 56 00 be
       -0.14788875 0.042100452 -0.10931961 -0.12532888
0003f0 60 10 a2 3d 68 fa f0 3c 90 fe 67 be 08 b0 ae bd
       0.079132795 0.029416278 -0.22655702 -0.08529669

base.critic.2.bias f4 [64]
000000 56 96 57 bc 62 57 73 3c 99 c3 75 3c 08 95 6d 3c
       -0.0131584015 0.014852377 0.015000247 0.014500864
000010 f9 cd 9c bb 8c 60 d3 3b 1a 41 20 bc 09 cb 49 bc
       -0.004785296 0.0064507183 -0.009781146 -0.012316474
000020 7c 16 69 bc e9 a3 80 bc 1f 4e 3a 3c c6 c9 70 3c
       -0.014226552 -0.015703158 0.011371165 0.014696544
000030 1e ae 69 3c 1c cc 48 3c eb 45 25 bc 7b 5b ac bb
       0.014262704 0.012255695 -0.0100874705 -0.0052599288
000040 c3 62 44 bc 37 11 64 bc 6f e6 1d 3c 2d 69 6b 3c
       -0.011986437 -0.01392012 0.009637459 0.014368338
000050 5a 54 82 bc b5 f7 6c bc 7b f4 aa bb 10 15 13 3b
       -0.015909363 -0.014463355 -0.0052171326 0.0022442974
000060 22 53 75 3c de 4e af bb d9 96 92 bc b1 2c 5f bb
       0.014973434 -0.005349978 -0.017894195 -0.0034053738
000070 b7 f8 12 bc 58 d6 10 38 03 d5 71 bc fb 36 71 bb
       -0.008970431 3.45319e-05 -0.014760259 -0.0036806453
000080 ce 8e fb bc 4a 1b 81 bc a4 c0 71 bc d4 1d 6d bc
       -0.030707743 -0.015760083 -0.014755402 -0.014472444
000090 14 33 16 bc c6 74 57 3c c6 56 71 3c 67 24 2e 3c
       -0.009167451 0.0131504 0.014730161 0.010628796
0000a0 ac d2 0b 3b 19 a1 57 3c 85 1f aa bb 66 14 2b bc
       0.0021335287 0.013160967 -0.0051917457 -0.010441875
0000b0 85 67 89 3b 24 3e 4d 3c ef 9e d9 bc 84 c1 80 bc
       0.0041932487 0.0125270225 -0.026565043 -0.015717275
0000c0 1f a0 3d bc 5a 37 81 3c 2b 22 d2 bb 9a c2 e6 3b
       -0.01157382 0.015773464 -0.0064127645 0.0070422413
0000d0 4f 7d 88 ba 4a 0f 3f bc 51 23 f6 bb ff 96 87 3b
       -0.0010413321 -0.01166136 -0.0075115343 0.004137873
0000e0 48 26 1f bc 1e 36 96 3c f8 91 cb b9 62 a4 83 3c
       -0.009713717 0.018336352 -0.00038827932 0.016069595
0000f0 3a c8 c6 bb db 9e 18 bc d2 5d 5a 3c ed f2 90 bb
       -0.0060663493 -0.009315218 0.013328033 -0.0044234903

base.critic_linear.weight f4 [1, 64]
000000 6a 63 00 3e 88 e2 55 be e3 84 ab bd de 9e ba 3e
       0.12537923 -0.20887196 -0.083749555 0.3644933
000010 93 c0 84 3c 08 60 33 38 e9 32 0d be 9f b5 a1 be
       0.016205108 4.276636e-05 -0.13788952 -0.31583878
000020 7e bd ea 3d 11 ec 35 3e 39 84 0a 3e 1e 71 bc bd
       0.11461924 0.17765833 0.13527001 -0.09201263
000030 a7 5e 48 be 2c e6 41 3e 16 74 7b 3c ea 8c 4b 38
       -0.19567357 0.1893546 0.015347501 4.8530208e-05
000040 8a 4b 7b be 81 f7 c9 3e 1e d5 8f bd 81 9f 83 3e
       -0.24540535 0.39446643 -0.07023071 0.2570763
000050 44 7c 86 3e a7 13 c4 3d 4e ab 7b 3c fb c0 61 3e
       0.26266682 0.09574061 0.015360666 0.22046272
000060 29 d4 04 be 7d 52 f8 bd fe 59 21 be 1a c5 95 b2
       -0.12971558 -0.121251084 -0.15756986 -1.7435514e-08
000070 e9 ac 9a bd a6 54 0c 3d 6f 32 fb 3d 30 f2 35 3d
       -0.07552511 0.034260415 0.12265479 0.04442042
000080 29 bd c6 b1 96 6c c9 3e 9e 6a 76 3e 4d e7 de 3d
       -5.7840635e-09 0.39340657 0.24064109 0.10883961
000090 a3 86 83 bd ab 61 01 3e cf 35 12 3e d2 95 8f be
       -0.06422164 0.12634914 0.14278339 -0.2804399
0000a0 91 ed 07 3c 8e a2 da 3d 18 9b 31 3c 46 3f 7c bd
       0.008296386 0.10675536 0.0108402 -0.06158378
0000b0 d6 8d 6c 35 ca 72 f4 bd a3 61 05 b3 d2 64 1e 3e
       8.812325e-07 -0.11935957 -3.1055276e-08 0.15468147
0000c0 ad 0a 80 be f8 fe 5e be 2d 6c 18 33 d2 d6 d2 bc
       -0.25008145 -0.2177695 3.5488643e-08 -0.0257372
0000d0 c7 1d 17 3a 81 c0 fd 3d 9c 4e b5 3c 96 86 9d 3d
       0.000576463 0.12390233 0.02213221 0.07691686
0000e0 78 94 8f 3d 4a c1 7a 3e 47 9e 0e b4 7f dc 90 be
       0.0701074 0.24487796 -1.3282362e-07 -0.28293225
0000f0 82 31 71 be 53 d1 e1 bd 17 79 57 be 03 c8 99 3c
       -0.23554042 -0.110262536 -0.21042286 0.01877213

dist.dst_type_linears.0.weight f4 [3, 64]
000000 e2 1c 5d bd be e4 87 3d a2 f9 86 bd 30 50 57 bd
       -0.053982623 0.06635426 -0.065905824 -0.052566707
000010 83 68 6f bd 52 d1 84 bd ab 94 76 bd b7 bf 3f 3d
       -0.05844928 -0.06485237 -0.060200375 0.046813693
000020 79 df 70 bd 99 f3 82 3d 88 fa 81 3d 3d 33 84 3d
       -0.05880687 0.06394119 0.06346613 0.064550854
000030 1d 98 be 3d 5d 20 8b bd 70 e8 7d bd 69 12 84 3d
       0.09306357 -0.06793282 -0.061989248 0.06448824
000040 95 8d 4b 3d db 2d 7b bc d7 7e 59 3d af cd 0f 3d
       0.04969557 -0.015330757 0.05309948 0.035108265
000050 c0 cc 70 3d 71 fa 1d bd 04 f8 6b bd b9 6a 73 bd
       0.058789015 -0.038568918 -0.057609573 -0.05942795
000060 00 b5 80 bd b2 1b 8c bd 51 88 92 3d c8 7e 8a bd
       -0.06284523 -0.0684122 0.071549065 -0.06762463
000070 dc 0a f3 3c 1b b9 be b8 84 95 82 3d 52 b6 98 bd
       0.029668264 -9.0943846e-05 0.06376174 -0.0745665
000080 82 23 7b 3d 11 49 87 bd 76 97 01 bc 20 65 83 3d
       0.06131316 -0.06605733 -0.007909646 0.064157724
000090 a6 df 6d 3d 5b 57 9b bd 76 e9 86 3d 71 1f a6 3c
       0.058074616 -0.07585021 0.06587498 0.020278664
0000a0 77 85 8d 3d e3 93 6f 3d 7c d1 20 3d 93 cc 79 3d
       0.06910222 0.058490645 0.03926228 0.060986113
0000b0 60 38 7f 3d ce 12 75 bd e7 f3 d9 bb a1 9a 71 3d
       0.062309623 -0.059832387 -0.00665139 0.058985356
0000c0 a9 b9 a7 bd 29 26 82 bd e6 1d a0 3d b5 4e 84 3d
       -0.08189709 -0.06354935 0.07818203 0.06460325
0000d0 84 8f 4f 3d f4 80 e1 bc a4 51 8a bc d5 56 99 3d
       0.050673977 -0.02752731 -0.016884632 0.07487265
0000e0 39 f8 6f 3d 94 1b 6d bd b2 88 d7 bc bb c1 7f 3d
       0.058586333 -0.05788763 -0.026310299 0.062440615
0000f0 92 6c 90 3d 06 04 79 3d 32 55 8f 3d 3c 81 b3 3c
       0.07051958 0.060794853 0.069986716 0.02191221
000100 16 e7 d3 3c ae 5d 24 bd 37 ad fa 3c af 77 17 3d
       0.025867026 -0.040128402 0.030600173 0.036979374
000110 f9 03 1b 3d 33 aa 0e 3d 94 4d 2c 3d a2 ad e8 bc
       0.037845585 0.034830283 0.04206617 -0.028403107
000120 33 5d 1b 3d 85 f2 2b bd 34 2f 16 bd f4 a9 d8 bc
       0.03793068 -0.04197933 -0.03666611 -0.026448227
000130 1d 42 10 bd 85 30 38 3d d0 31 21 3d 30 e8 2c bd
       -0.0352193 0.044968147 0.039354146 -0.04221362
000140 e2 95 9b bc dd e5 a5 3c 18 6f 12 bd 29 18 e6 bc
       -0.018992368 0.020251209 -0.03575048 -0.028087692
000150 1c 2b 1a bd a6 38 e0 3c 31 81 1c 3d cb 9b 29 3d
       -0.03763877 0.027370762 0.038209144 0.04140834
000160 cf a1 31 3d 2e 62 30 3d d5 de 29 bd 58 97 15 3d
       0.043367203 0.04306238 -0.041472275 0.036521286
000170 48 2a de bb 82 0f ca bb 7a 9e 04 bd b5 3f 2a 3d
       -0.0067799427 -0.0061663995 -0.032377698 0.041564662
000180 cd bf 22 bd 78 3e 2c 3d ef 27 54 3c 3b 61 2e bd
       -0.039733697 0.042051762 0.012948974 -0.042573195
000190 b6 7f 17 bd 30 c1 29 3d 07 22 2c bd 95 b3 59 bc
       -0.03698703 0.041444004 -0.04202464 -0.013287445
0001a0 77 ed 2e bd ed e0 1c bd 23 79 b4 bc ed ac 19 bd
       -0.042706933 -0.038300443 -0.022030419 -0.03751843
0001b0 b5 fa e6 bc 0b cd 2c 3d e4 12 81 b9 c9 62 1e bd
       -0.028195718 0.04218773 -0.00024618872 -0.038668428
0001c0 50 07 16 3d 33 85 09 3d 5f d9 1d bd e0 cb 28 bd
       0.036628067 0.033574294 -0.03853738 -0.041210055
0001d0 ae fd 1f bd 7a 5c d1 3c 36 b7 3c 3c 45 d3 34 bd
       -0.039060287 0.025556792 0.01151829 -0.044146795
0001e0 7a 54 19 bd 42 f5 11 3d e6 39 73 3c 5d b7 25 bd
       -0.03743408 0.035634287 0.014845347 -0.040458072
0001f0 f3 b9 2a bd 80 78 25 bd 79 c3 04 bd 8b 0f bd bc
       -0.04168124 -0.04039812 -0.03241298 -0.0230787
000200 73 84 1e 3d 23 62 1e bd 5f 0d 52 3d da fc 0b 3d
       0.038700532 -0.03866781 0.051282283 0.034176685
000210 09 35 0d 3d c6 6b 43 3d 2f 7f 09 3d 2d 5b 01 bd
       0.034474406 0.047710203 0.033568557 -0.031581093
000220 f5 a7 1e 3d dd 82 1e bd ad 56 37 bd 93 bc 43 bd
       0.038734395 -0.03869902 -0.044760395 -0.04778726
000230 cd 2e ac bd 34 03 27 3d f7 ed 10 3d 3e 5c 14 bd
       -0.08407364 0.04077454 0.03538319 -0.03622078
000240 7d bd 2d bd 7e e3 eb 3a ff 0f 1b bd af 27 69 bc
       -0.04241704 0.0017996875 -0.037857052 -0.014230653
000250 8f cd 08 bd 98 9f ef 3c a1 a6 07 3d c8 b2 0f 3d
       -0.03339916 0.029250905 0.033117894 0.03508261
000260 cd 00 1a 3d dd 02 34 3d ff 67 60 bd c5 de 48 3d
       0.03759842 0.043948043 -0.05478668 0.049040575
000270 fb 15 f6 bc 17 cf 1b 3c 69 e4 63 bd d4 65 4d 3d
       -0.030039778 0.009509823 -0.05563775 0.05014594
000280 4c 74 1a bd 76 8b 2c 3d e1 c6 71 bb 50 35 1a bd
       -0.037708566 0.042125188 -0.0036892223 -0.0376485
000290 90 36 17 bd 78 52 7b 3d 91 ed 20 bd 52 3f 9b bc
       -0.03691727 0.061357945 -0.03928906 -0.018951092
0002a0 93 18 3e bd 36 18 08 bd 37 1d bb bc 58 b1 09 bd
       -0.046410155 -0.033226214 -0.02284108 -0.033616394
0002b0 2d f8 58 bd 05 b1 1a 3d b4 e0 f5 3b b3 05 0d bd
       -0.052971054 0.037766475 0.0075035933 -0.034429263
0002c0 06 b8 7e 3d 67 94 18 3d a9 03 5d bd 38 2d 2e bd
       0.062187217 0.037250903 -0.05395857 -0.042523593
0002d0 8a f2 ff bc 35 78 71 3c c7 03 2e 3c ee e2 4f bd
       -0.031243581 0.014738132 0.010621018 -0.050753526
0002e0 b2 0c 11 bd 5a ba 00 3d 99 0f 43 3c f7 d4 16 bd
       -0.035412498 0.03142772 0.011905574 -0.036824193
0002f0 9c 82 48 bd ec 86 15 bd 6d 0a 65 bd 93 7a 22 bc
       -0.048952684 -0.036505625 -0.055918146 -0.009916919

dist.dst_type_linears.0.bias f4 [3]
000000 1a 23 6e 3d 47 89 17 bd a6 98 0b bd
       0.058138944 -0.036996152 -0.034081124

dist.dst_type_linears.1.weight f4 [3, 64]
000000 4a 9f c1 3c 9f d1 4b bd 8a 56 15 3d 3a 29 c4 3c
       0.023635525 -0.049760457 0.036459483 0.02394544
000010 95 6d 43 3d db be 0a 3d 5e 20 53 3d 93 24 d9 bb
       0.047711927 0.03387342 0.05154454 -0.0066266744
000020 2e c1 44 3d 06 09 41 bd 24 03 da bc 11 33 cc bc
       0.048035793 -0.047127746 -0.026612826 -0.024926694
000030 eb b8 b6 bc d6 0a 41 3d 66 06 4a 3d a2 54 41 bd
       -0.022304973 0.047129475 0.04932251 -0.047199853
000040 fa 56 c3 bb 9f f1 22 bb 31 a7 01 bd c8 f7 03 bc
       -0.005961296 -0.0024863256 -0.031653587 -0.008054681
000050 a4 33 48 bd 06 19 0e bc 72 fb 46 3d d1 36 4d 3d
       -0.048877373 -0.008672958 0.04857964 0.050101105
000060 db ce 02 3d 0b 46 44 3d 08 93 3e bd 70 9e 0f 3d
       0.031935554 0.04791836 -0.04652694 0.035063207
000070 c0 47 ae bc da 7b cc 3a fa 39 58 bd e7 db 2a 3d
       -0.021274447 0.0015600875 -0.052789666 0.04171362
000080 90 91 4d bd 50 be 31 3d df da 8a bb 0c a9 40 bd
       -0.050187647 0.043394387 -0.0042375172 -0.047036216
000090 0e d9 14 bd 48 13 01 3d c5 de 45 bd 17 d3 83 bc
       -0.036339812 0.03151253 -0.048308153 -0.016091866
0000a0 40 ac 3e bd 5a 0c 49 bd b8 e7 bf bb f3 22 46 bd
       -0.04655099 -0.049084045 -0.0058564804 -0.048373174
0000b0 e4 0a 0a bc 29 58 42 3d 80 1f 12 3c d9 de 43 bd
       -0.008425448 0.047447357 0.008918643 -0.047819946
0000c0 cf fc 07 3d ae 6e a4 3c c6 21 01 bd d6 13 40 bd
       0.03320008 0.020072307 -0.03152635 -0.046893917
0000d0 01 19 0c bd c6 98 a7 3b 9c 50 dc bb ae 9e 2f bd
       -0.034203533 0.0051146476 -0.0067234766 -0.042875938
0000e0 e4 f7 4d bd 4f ac 40 3d 71 1c f1 ba 0d 66 41 bd
       -0.050285235 0.047039326 -0.0018395317 -0.047216464
0000f0 63 ca 26 bd b0 e2 3d bd bb 49 12 bd 69 9b 5a bc
       -0.040720355 -0.046358764 -0.035714846 -0.013342717
000100 22 70 70 bc eb 93 8e 3d 77 5b 0f bd fa 9c a5 bd
       -0.014675172 0.06961807 -0.034999337 -0.080865815
000110 bf 8a 7a bd 87 4a 05 bd 92 0e 7f bd de 74 26 3d
       -0.061167475 -0.032541778 -0.062269755 0.040638797
000120 03 60 7d bd 4b 3d 8d 3d d2 bc 08 3d e8 fe 4f 3d
       -0.061859142 0.06896456 0.033383198 0.050780207
000130 ef 49 33 3d d8 b7 9a bd 85 5a 7a bd 70 8e 91 3d
       0.04377168 -0.07554597 -0.061121482 0.07107246
000140 1d 8a e0 3b 90 72 16 bd f0 3e 1f 3d 1d 6e 60 3d
       0.006852402 -0.03673035 0.03887838 0.054792512
000150 a6 6a 77 3d f5 fd 84 bc 46 21 79 bd 06 06 7a bd
       0.060404442 -0.016234377 -0.060822748 -0.0610409
000160 fd 69 b0 bd a9 08 9b bd 1a 2b a4 3d 4a 29 a6 bd
       -0.08613966 -0.07570011 0.080160335 -0.08113344
000170 39 cc 96 3b cd 86 d0 b9 d1 28 5c 3d 1a 9b a3 bd
       0.004601982 -0.00039773286 0.053749863 -0.07988568
000180 9e b7 86 3d a5 bc 90 bd 5b 95 33 bc ad 5a 8b 3d
       0.06577991 -0.07067231 -0.010960902 0.068044044
000190 92 28 5d 3d 79 0c 13 bd d4 84 9a 3d 73 d3 1d bc
       0.05399377 -0.035900567 0.07544866 -0.009632933
0001a0 ee 35 a0 3d c1 7b 7a 3d 9f 23 1f 3d 5a 94 80 3d
       0.07822786 0.061153177 0.03885233 0.06278296
0001b0 58 67 12 3c a5 fb 83 bd 02 70 a4 3a 74 05 7f 3d
       0.008935772 -0.06444482 0.0012545588 0.06226106
0001c0 d5 ec 79 bd 37 fc 9f bd 38 1c 90 3d 9a da 96 3d
       -0.061016876 -0.07811778 0.07036632 0.07365914
0001d0 4a 13 35 3d f3 4c 43 bd a6 e0 73 bc d1 9b ae 3d
       0.04420785 -0.047680806 -0.014885103 0.08525813
0001e0 62 18 70 3d 4a 32 6c bd c1 fd 17 bc f6 75 8c 3d
       0.058617003 -0.057665147 -0.009276808 0.06858437
0001f0 e0 b5 ba 3d 82 cf 82 3d 4a 38 db 3c 6e ca de 3b
       0.09116721 0.06387235 0.02676024 0.006799034
000200 0b d5 8d 3b 1c 49 d1 bc 6f 5f 22 3c 48 08 41 3d
       0.004328375 -0.025547557 0.009910448 0.04712704
000210 9c d1 b5 3c 2e 07 56 3c f5 b1 dd 3c fd 44 d5 bc
       0.022194676 0.013063235 0.027062396 -0.026033873
000220 30 2e a8 3c ac ce cf bc 5b fc 59 bc ca ef e7 bc
       0.020529836 -0.025367104 -0.013304795 -0.028312583
000230 d4 e9 00 bd a2 2f f8 3c c4 3c af 3c 75 ab db bc
       -0.031472996 0.03029615 0.02139128 -0.026815156
000240 56 7d 7c bb 55 87 f6 3c ed 39 35 bc a5 63 47 bd
       -0.0038526854 0.030093828 -0.011061174 -0.048679013
000250 7e 7a 92 bc 6b b0 eb 3c e8 83 a7 3c 36 71 b3 3c
       -0.017880674 0.028770646 0.02044864 0.02190457
000260 4e cf 6b 3d e4 b3 05 3d 28 42 73 bd b5 4d 4b 3d
       0.057570748 0.03264226 -0.059389263 0.049634654
000270 f3 bc 32 3c a7 aa ea 3a 86 3d 92 bc 51 d5 1c 3d
       0.010909307 0.0017903642 -0.017851602 0.038289372
000280 3b 66 bb bc 40 46 e2 3c 2c c5 28 3c d0 c9 d3 bc
       -0.022875896 0.027621388 0.010300916 -0.025853068
000290 2c c2 a9 bc fc 1d 64 3c 55 3c 00 bd a2 cf c7 3c
       -0.020722471 0.013923164 -0.031307537 0.024391
0002a0 c5 97 1a bd 82 93 9e bc 2c 71 03 bd 29 22 9f bc
       -0.037742395 -0.019357447 -0.03209035 -0.019425469
0002b0 a4 05 a3 bb 35 e5 c3 3c 6f 92 f2 bb 26 cc 95 bc
       -0.0049750376 0.023913005 -0.00740271 -0.018285822
0002c0 ea df f3 3c 4b 93 48 3d e4 cb 03 bd 98 b5 08 bd
       0.029769856 0.048968595 -0.032176867 -0.033376306
0002d0 dc 81 a6 bc ee 19 39 3d 37 8b 94 3c 2f b8 4d bd
       -0.020325594 0.045190744 0.018132789 -0.05022448
0002e0 30 21 a3 bc 44 3e 9e 3c e3 77 a3 3b ad 14 be bc
       -0.019913286 0.0193168 0.004988657 -0.023203218
0002f0 75 d2 54 bd 2b 4e c3 bc f6 5f 6d bc 5e 3c 40 3b
       -0.05195852 -0.023840984 -0.014488211 0.0029332857

dist.dst_type_linears.1.bias f4 [3]
000000 89 8d 44 bd f8 54 6f 3d aa ad 98 bc
       -0.04798654 0.058430642 -0.018637497
