route_dev/drl-or/model/test/agent2.pth (torch, 225285 bytes, 31 tensors)

base.actor.0.weight f4 [64, 343]
0.035463873 -0.13514678 -0.12568185 0.15808485 0.06710137 -0.005608729 0.021101665 -0.05197252
0.03713523 0.032035742 0.058928158 -0.0121597145 0.07256926 0.07521628 -0.0059539774 -0.02340244
-0.079379745 0.13986503 0.025833936 -0.030445637 0.06020789 -0.03602163 0.083468236 0.14386456
-0.01222443 -0.1393085 -0.1303462 -0.049499825 -0.124024116 -0.0099146785 -0.022438955 0.027119318
-0.02073924 0.0573924 0.004474527 0.059880123 -0.03007397 0.08591458 -0.06439233 -0.13395037
0.031706437 0.06140469 0.09480748 -0.020839633 0.013890975 0.017905585 -0.12753953 -0.06299377
0.05853801 -0.029370818 -0.074393764 0.031614758 -0.12667325 -0.049171854 0.0023624704 0.0018413167
0.03308332 0.005737958 -0.04158433 0.005589628 0.07563992 0.023911742 0.029000187 0.012312833
-0.045989208 -0.0679344 -0.056279518 -0.007459265 0.0036963115 0.03942372 -0.10290857 -0.10683136
0.012461035 0.16919406 -0.016832385 -0.00076292385 -0.16937263 -0.09644643 -0.014266251 0.1445494
-0.062069714 0.009929867 -0.06294368 0.069727436 -0.020230979 -0.08996964 -0.041424315 0.16655914
-0.048939317 -0.07850963 -0.046333104 -0.034759015 -0.0458499 0.018778546 -0.10403274 -0.05607506
-0.022146082 -0.2034224 -0.036177333 -0.0041795964 -0.028838748 -0.06230642 0.10444852 0.028626084
0.007928026 0.11768809 0.07347783 0.029450247 0.033884756 -0.09378405 0.100496374 -0.025723403
0.02352344 -0.06292579 -0.048617627 -0.09309048 0.057618335 0.08038872 0.037525773 -0.030409116
0.010062349 -0.013726155 0.09744446 0.011975598 0.10298794 -0.13405824 -0.0064521255 0.048775226
-0.043011013 -0.100714654 -0.05834347 -0.020200077 -0.0099925045 0.050181944 0.14369419 -0.08794029
0.015479315 0.024802743 -0.07742076 0.036979377 0.101761945 -0.038055312 -0.05090171 -0.06702463
0.080776766 0.12602118 0.027879141 0.02917762 0.008329244 0.022666378 -0.056615274 -0.023821894
0.06432527 -0.06234102 0.098373756 -0.09950994 -0.05906285 0.13613604 -0.0037695013 0.032843586
-0.10427725 0.034074612 -0.08006067 -0.024860173 0.1663965 -0.027235266 -0.07871536 -0.035707813
-0.03596429 0.006696883 0.07993364 0.029576285 0.016931621 -0.042771496 -0.04596403 0.09090413
0.06253342 0.06551084 0.04731614 -0.09714311 0.17693432 0.015832923 -0.1380309 0.12807173
0.13352893 0.00525622 -0.01993288 0.029453982 -0.050556492 0.06261469 0.0063041286 0.10111276
-0.045554385 0.03513933 0.016001172 0.10261666 -0.010325748 -0.07555383 0.05231141 -0.12021838
-0.17827137 0.12500282 0.033575702 -0.058790743 -0.040251095 -0.050504085 -0.08969373 -0.1244762
0.1642429 -0.003795245 -0.15580595 0.012836298 0.13355404 -0.0007136178 0.03270889 -0.15053755
-0.11886271 0.09626969 -0.02790961 0.01592843 -0.0005122495 -0.07123895 -0.028551394 0.08552691
-0.08288047 -0.08686008 0.033829164 0.046958227 0.0615507 0.04101505 -0.0012085568 -0.097751595
0.0093543725 0.090379566 0.039230887 0.051633365 0.123106845 -0.14594203 0.036318 0.06124845
-0.14563772 0.07703249 -0.0972715 0.14364877 -0.10211331 0.14856073 -0.02862232 -0.03664017
-0.04245467 0.045846324 -0.09352286 0.105003856 -0.07692298 -0.11733518 -0.0050874623 0.03937165
00000000: 9142 113d eb63 0abe beb2 00be ffe0 213e
00000010: 716c 893d 6ec9 b7bb 66dd ac3c 23e1 54bd
00000020: 1c1b 183d e937 033d a75e 713d 8a39 47bc
00000030: 319f 943d fe0a 9a3d 9519 c3bb 79b6 bfbc
00000040: d991 a2bd c738 0f3e b1a1 d33c 2169 f9bc
00000050: 8c9c 763d 6b8b 13bd 65f1 aa3d 3b51 133e
00000060: fa48 48bc e3a6 0ebe 7979 05be 54c0 4abd
00000070: 5b00 febd 2d71 22bc e6d1 b7bc 5529 de3c
00000080: 57e5 a9bc 4b14 6b3d 0e9f 923b dc44 753d
00000090: b05d f6bc fcf3 af3d 20e0 83bd 492a 09be
000000a0: 9cde 013d 7c83 7b3d 6d2a c23d e1b7 aabc
000000b0: f996 633c bcae 923c b999 02be e102 81bd
000000c0: 8dc5 6f3d 129b f0bc c25b 98bd 7a7e 013d
000000d0: a2b6 01be 6d68 49bd add3 1a3b 5658 f13a
000000e0: 6082 073d 7b05 bc3b 5554 2abd 3329 b73b
000000f0: 1ae9 9a3d 8fe2 c33c cd91 ed3c c4bb 493c
00000100: 2e5f 3cbd 3121 8bbd 5a85 66bd da6c f4bb
00000110: d13d 723b c47a 213d bac1 d2bd 66ca dabd
00000120: 5e29 4c3c 3541 2d3e 12e4 89bc f4fe 47ba
00000130: 0570 2dbe b585 c5bd febc 69bc c204 143e
00000140: d03c 7ebd e2b0 223c 9ee8 80bd 42cd 8e3d
00000150: 70bb a5bc 0142 b8bd 8bac 29bd 7b8e 2a3e
00000160: 9874 48bd a8c9 a0bd c8c7 3dbd 785f 0ebd
00000170: 1bcd 3bbd 77d5 993c 1e0f d5bd f6ae 65bd
00000180: b36b b5bc f64d 50be af2e 14bd fff4 88bb
00000190: 3d3f ecbc 0435 7fbd 1be9 d53d 4081 ea3c
000001a0: 8de4 013c 7406 f13d 8b7b 963d a541 f13c
000001b0: beca 0a3d da11 c0bd 0bd1 cd3d e3b9 d2bc
000001c0: 3bb4 c03c 3ddf 80bd 4723 47bd 39a6 bebd
000001d0: 3401 6c3d d7a2 a43d a0b4 193d 8a1c f9bc
000001e0: 8ddc 243c abe3 60bc f690 c73d 4c35 443c
000001f0: 57eb d23d 9046 09be 5a6c d3bb 88c8 473d
00000200: 512c 30bd 7c43 cebd 90f9 6ebd a27a a5bc
00000210: 9ab7 23bc 958b 4d3d 9224 133e 0a1a b4bd
00000220: f49c 7d3c 1f2f cb3c c78e 9ebd b077 173d
00000230: 9168 d03d e3df 1bbd 507e 50bd 3644 89bd
00000240: 4a6e a53d b20b 013e cc62 e43c e705 ef3c
00000250: 6277 083c d7ae b93c 6be5 67bd 2226 c3bc
00000260: f8bc 833d 4c59 7fbd 2e78 c93d decb cbbd
00000270: e3eb 71bd 3f67 0b3e bd09 77bb ff86 063d
00000280: 508f d5bd d291 0b3d d9f6 a3bd 90a7 cbbc
00000290: d863 2a3e 7e1c dfbc 8535 a1bd 5b42 12bd
000002a0: 4b4f 13bd 8771 db3b 40b4 a33d f749 f23c
000002b0: 2fb4 8a3c 2a31 2fbd c744 3cbd f22b ba3d
000002c0: 8611 803d 8c2a 863d 92ce 413d f8f2 c6bd
000002d0: 452e 353e 0cb4 813c f957 0dbe 3c25 033e
000002e0: cfbb 083e 5f3c ac3b 474a a3bc 7a49 f13c
000002f0: 5314 4fbd 213c 803d dd92 ce3b 3514 cf3d
00000300: 3c97 3abd 42ee 0f3d e414 833c af28 d23d
00000310: 532d 29bc f7bb 9abd 7d44 563d 0e35 f6bd
00000320: c58c 36be bd00 003e ad86 093d 90ce 70bd
00000330: 55de 24bd 5fdd 4ebd 59b1 b7bd 61ed febd
00000340: 4a2f 283e a5b9 78bb 988b 1fbe 564f 523c
00000350: 64c2 083e 1412 3bba c2f9 053d 8426 1abe
00000360: 4b6e f3bd 0b29 c53d b2a2 e4bc 577c 823c
00000370: 7b48 06ba bae5 91bd 9de4 e9bc bc28 af3d
00000380: 3cbd a9bd b3e3 b1bd 7390 0a3d 4557 403d
00000390: 961c 7c3d 66ff 273d 7068 9eba fd31 c8bd
000003a0: 1543 193c ec18 b93d 91b0 203d 827d 533d
000003b0: 711f fc3d d471 15be 2fc2 143d a8df 7a3d
000003c0: 0e22 15be 36c3 9d3d 4836 c7bd aa18 133e
000003d0: c820 d1bd 4e20 183e 5b79 eabc 0114 16bd
000003e0: f3e4 2dbd 5bc9 3b3d ea88 bfbd 430c d73d
000003f0: cc89 9dbd 6d4d f0bd bab4 a6bb 2b44 213d

base.actor.0.bias f4 [64]
0.0 0.0 0.0 0.0 0.0 4.0772448e-09 0.0 0.0
-0.00014071829 0.0 0.0 0.0 0.0 0.0 0.0 0.0
0.0 0.0 0.0 0.0 0.0 0.0 0.0 0.0
0.0 0.0 0.0 0.0 0.0 0.0 0.0 0.0
0.0 0.0 0.0 0.0 0.0 0.0 0.0 -7.5640295e-05
0.0 0.0 0.0 0.0 0.0 0.0 0.0 0.0
0.0 0.0 0.0 0.0 0.0 0.0 0.0 0.0
0.0 0.0 0.0 0.0 0.0 0.0 0.0 0.0
00000000: 0000 0000 0000 0000 0000 0000 0000 0000
00000010: 0000 0000 d317 8c31 0000 0000 0000 0000
00000020: c78d 13b9 0000 0000 0000 0000 0000 0000
00000030: 0000 0000 0000 0000 0000 0000 0000 0000
00000040: 0000 0000 0000 0000 0000 0000 0000 0000
00000050: 0000 0000 0000 0000 0000 0000 0000 0000
00000060: 0000 0000 0000 0000 0000 0000 0000 0000
00000070: 0000 0000 0000 0000 0000 0000 0000 0000
00000080: 0000 0000 0000 0000 0000 0000 0000 0000
00000090: 0000 0000 0000 0000 0000 0000 13a1 9eb8
000000a0: 0000 0000 0000 0000 0000 0000 0000 0000
000000b0: 0000 0000 0000 0000 0000 0000 0000 0000
000000c0: 0000 0000 0000 0000 0000 0000 0000 0000
000000d0: 0000 0000 0000 0000 0000 0000 0000 0000
000000e0: 0000 0000 0000 0000 0000 0000 0000 0000
000000f0: 0000 0000 0000 0000 0000 0000 0000 0000

base.actor.2.weight f4 [64, 64]
-0.059432376 -0.09355672 -0.104825154 0.27115145 -0.20028795 0.052636098 -0.22345872 -0.1351124
-0.11624251 0.21985771 0.099767156 -0.089170694 -0.2630364 -0.06876619 0.2392381 0.06909339
0.025079662 -0.0026745992 -0.14983648 0.08666814 0.007265827 0.067670815 0.06381351 -0.09690869
0.19427441 -0.06918278 -0.17899561 0.04136607 0.26551375 -0.13752195 0.14003293 0.19395423
-0.041583877 0.2069564 0.07128866 0.21930937 -0.040967543 0.1574129 -0.32416084 0.14862636
0.15382567 -0.29622063 -0.0658359 -0.1834819 0.22088192 -0.026030023 -0.15520614 0.06843213
-0.427655 0.020878997 -0.29420242 -0.19846022 0.062130462 -0.008320023 -0.12451687 -0.103143424
0.039306063 -0.2780439 0.1526156 -0.5740225 0.3222511 -0.13068873 0.08882448 -0.021832718
-0.0068595787 -0.05018717 0.35229945 0.11691894 -0.2622352 0.0049472987 -0.22716518 -0.06680915
0.1973491 -0.05628577 0.09462604 0.32440233 -0.1658154 0.065726876 -0.08468628 -0.15104951
0.110298835 0.32786834 0.0088325115 -0.0040961755 0.114729285 0.17472659 -0.19441523 -0.062451757
-0.11537649 -0.39127094 0.03481856 0.14896423 -0.15566659 -0.03954949 0.040547475 -0.043910284
0.19646497 0.0025587904 0.10983289 0.16294122 0.15778343 0.1397567 0.11073943 0.2558004
0.33835804 -0.11969668 0.22227705 -0.3131563 -0.05359643 -0.1002852 0.008974971 -0.11928952
0.13140331 -0.13358952 -0.21132472 0.060343668 0.13263759 -0.10340378 0.16694987 0.60169536
-0.11224634 -0.11403608 -0.058741506 0.09673178 0.051901273 -0.044761855 -0.20409009 0.2521901
-0.038524188 -0.0143792005 -0.0129939625 0.26595494 -0.114333674 0.16607144 0.082914695 -0.029973587
-0.03913207 0.09119472 -0.25382146 0.3374271 -0.11521583 0.17153665 -0.018449549 0.015878525
0.22616225 -0.12592062 -0.012220879 -0.010340329 0.020736 -0.06725246 0.20656532 -0.21119782
0.104453534 0.06332679 -0.1739822 -0.30845433 0.05576107 0.018628394 0.080827065 0.54340714
-0.13659185 0.060196474 -0.31598732 -0.22200558 -0.21981034 -0.04698576 0.2036367 -0.1370412
0.39732334 0.05600198 -0.26683927 0.0544662 -0.041677672 -0.15817055 -0.4326936 -0.107454106
0.28099597 -0.048650414 0.0037716755 -0.17459634 -0.04318186 -0.116184354 -0.07793646 0.17993742
0.30787495 0.034722116 -0.025055423 0.1599837 0.04128845 -0.052674018 -0.23683584 -0.053760976
0.06458701 0.035650983 -0.050280236 -0.020677371 0.28976628 0.12337714 -0.18840685 0.082772925
0.15503147 -0.1806833 0.23408441 -0.08118743 -0.17977312 -0.13138539 0.045975275 0.30601147
0.08067312 0.23027548 -0.15916678 0.24912576 -0.26158836 0.1705902 0.0060120528 0.105299085
-0.17972118 -0.26742077 -0.12700467 -0.024762033 0.0043472056 0.087513775 0.19491005 0.0036795891
0.17689282 -0.32834974 -0.392455 -0.108737156 0.16727284 -0.07451844 0.19994424 -0.10745851
0.039587032 -0.017657844 -0.34239486 -0.1703933 -0.35900584 -0.1165483 0.1312443 0.11325014
-0.1350001 0.029729594 -0.19933142 -0.2544196 -0.34126434 -0.28793094 -0.07541282 0.039267834
0.0021116585 0.18179658 -0.09437188 -0.25597098 -0.15677008 -0.07913164 -0.011530948 -0.18264435
00000000: 5d6f 73bd aa9a bfbd 92ae d6bd 5dd4 8a3e
00000010: 4918 4dbe f398 573d 5dd2 64be e85a 0abe
00000020: 8e10 eebd 6122 613e b952 cc3d 209f b6bd
00000030: b5ac 86be 4ad5 8cbd d5fa 743e d680 8d3d
00000040: dd73 cd3c 5448 2fbb bc6e 19be 117f b13d
00000050: 2d16 ee3b ff96 8a3d a8b0 823d 1078 c6bd
00000060: dfef 463e b4af 8dbd a04a 37be 786f 293d
00000070: 6bf1 873e 8ed2 0cbe cb64 0f3e f09b 463e
00000080: db53 2abd 61ec 533e caff 913d a392 603e
00000090: 95cd 27bd d930 213e 69f8 a5be 8231 183e
000000a0: 7a84 1d3e 3baa 97be f9d4 86bd aee2 3bbe
000000b0: df2e 623e ea3c d5bc 5cee 1ebe 2526 8c3d
000000c0: 99f5 dabe 6e0a ab3c b3a1 96be 2839 4bbe
000000d0: 837c 7e3d b550 08bc b302 ffbd dc3c d3bd
000000e0: 65ff 203d c55b 8ebe 4447 1c3e 23f3 12bf
000000f0: 19fe a43e 44d3 05be 9ce9 b53d 87da b2bc
00000100: 51c6 e0bb 1091 4dbd 9860 b43e 3273 ef3d
00000110: b143 86be f31c a23b fd9d 68be 3cd3 88bd
00000120: e215 4a3e e88b 66bd 4ccb c13d 1018 a63e
00000130: 83cb 29be d09b 863d 0070 adbd b9ac 1abe
00000140: 5be4 e13d 5cde a73e 3db6 103c 3639 86bb
00000150: 30f7 ea3d 87eb 323e c914 47be 6acd 7fbd
00000160: 824a ecbd aa54 c8be e89d 0e3d 148a 183e
00000170: 1067 1fbe a5fe 21bd 1c15 263d 45db 33bd
00000180: 1d2e 493e 61b1 273b 11f0 e03d 10da 263e
00000190: fb91 213e 611c 0f3e 5bcb e23d 45f8 823e
000001a0: 443d ad3e 8823 f5bd 989c 633e 0656 a0be
000001b0: ee87 5bbd 5462 cdbd c20b 133c 104e f4bd
000001c0: 978e 063e b1cb 08be 8265 58be ec2a 773d
000001d0: 26d2 073e 5cc5 d3bd e8f4 2a3e b508 1a3f
000001e0: 69e1 e5bd c08b e9bd ef9a 70bd 501b c63d
000001f0: 6e96 543d 3558 37bd fefc 50be 101f 813e
00000200: 8acb 1dbd bd96 6bbc a1e4 54bc 3f2b 883e
00000210: c627 eabd a20e 2a3e 2ecf a93d 2b8b f5bc
00000220: f348 20bd 4cc4 ba3d e3f4 81be 3fc3 ac3e
00000230: 47f6 ebbd 4ea7 2f3e 8223 97bc ae13 823c
00000240: 1497 673e 56f1 00be 153a 48bc 7c6a 29bc
00000250: 8bde a93c a8bb 89bd dc85 533e 3e44 58be
00000260: bceb d53d 7ab1 813d 6428 32be baed 9dbe
00000270: b865 643d 939a 983c a988 a53d bb1c 0b3f
00000280: bcde 0bbe 9490 763d 17c9 a1be 6e55 63be
00000290: f615 61be 2474 40bd 2486 503e 8754 0cbe
000002a0: f76d cb3e 5562 653d 289f 88be f317 5f3d
000002b0: 35b6 2abd 76f7 21be 048a ddbe e610 dcbd
000002c0: b4de 8f3e a845 47bd 372e 773b 62c9 32be
000002d0: 76df 30bd 10f2 edbd 279d 9fbd 8441 383e
000002e0: c9a1 9d3e c738 0e3d 0841 cdbc c4d2 233e
000002f0: 141e 293d b6c0 57bd 1885 72be 7834 5cbd
00000300: 3246 843d c406 123d a6f2 4dbd 9763 a9bc
00000310: 3f5c 943e 27ad fc3d baed 40be da84 a93d
00000320: 92c0 1e3e 0b05 39be d3b3 6f3e 9845 a6bd
00000330: 7216 38be e489 06be 9250 3c3d 89ad 9c3e
00000340: f337 a53d 56cd 6b3e 9efc 22be d31a 7f3e
00000350: e9ee 85be 33af 2e3e c100 c53b 0ca7 d73d
00000360: d408 38be 60eb 88be 830d 02be bfd9 cabc
00000370: 0173 8e3b 6c3a b33d 8096 473e 4325 713b
00000380: 6423 353e 751d a8be ddef c8be 96b1 debd
00000390: 9249 2b3e 209d 98bd 2fbe 4c3e 3513 dcbd
000003a0: 0326 223d 2fa7 90bc 614e afbe 957b 2ebe
000003b0: 9dcf b7be e0b0 eebd e864 063e b0ef e73d
000003c0: 773d 0abe 7a8b f33c 891d 4cbe 4943 82be
000003d0: 33ba aebe af6b 93be 0972 9abd 4fd7 203d
000003e0: c063 0a3b e228 3a3e 0b46 c1bd a10e 83be
000003f0: 5688 20be c50f a2bd 4dec 3cbc 1f07 3bbe

base.actor.2.bias f4 [64]
0.03173867 0.016586166 0.0155423535 0.018153733 -0.015515887 -0.027982203 0.045178983 0.03535923
0.01188418 0.019943256 -0.05022231 -0.0071206694 0.02149625 -0.022444136 -0.02931455 0.034548566
0.02711591 0.019634388 0.017619202 -0.048009217 0.022093156 0.018374527 -0.017681992 -0.032309383
0.01634203 -0.0084690275 -0.025850514 0.0017032357 -0.01819428 0.017841764 -0.016519392 -0.020663016
0.016788835 0.020536784 -0.036910523 0.024017995 0.03719081 0.05456638 -0.027646812 -0.013317256
0.043631714 0.0151924025 0.023678908 0.03695017 -0.034286156 0.009819986 -0.021758411 -0.055330284
-0.027920574 0.0008776202 -0.024669195 0.05127806 -0.017213026 0.03988016 0.009327524 0.030129606
0.03067433 -0.023760004 0.0149298785 -0.04294565 0.016699923 0.02512907 0.03994701 -0.029699175
00000000: 6800 023d b6df 873c 5ba5 7e3c 23b7 943c
00000010: 5936 7ebc ef3a e5bc 990d 393d d7d4 103d
00000020: ddb5 423c 0a60 a33c e9b5 4dbd 8154 e9bb
00000030: e718 b03c c4dc b7bc 1125 f0bc cc82 0d3d
00000040: 2f22 de3c 4cd8 a03c 2556 903c 50a5 44bd
00000050: b5fc b43c 2d86 963c d3d9 90bc d856 04bd
00000060: b9df 853c adc1 0abc 75c4 d3bc 1b3f df3a
00000070: 2c0c 95bc e428 923c ad53 87bc 7c45 a9bc
00000080: bd88 893c c23c a83c 7d2f 17bd 63c1 c43c
00000090: 6455 183d ff80 5f3d 917b e2bc 9f30 5abc
000000a0: 2bb7 323d 8ee9 783c 45fa c13c 1059 173d
000000b0: a46f 0cbd 02e4 203c b23e b2bc 02a2 62bd
000000c0: b0b9 e4bc 1810 663a 0d17 cabc f108 523d
000000d0: 5502 8dbc 6159 233d 79d2 183c 5dd2 f63c
000000e0: bc48 fb3c 57a4 c2bc 739c 743c c7e7 2fbd
000000f0: 47ce 883c 7bdb cd3c 7a9f 233d af4b f3bc

base.critic.0.weight f4 [64, 332]
0.03463493 0.05225647 0.07939936 0.04776771 -0.023661692 -0.07229705 0.024980882 0.043519843
-0.071428835 0.049488656 -0.0319762 0.099955626 -0.045228958 -0.014265713 0.029712055 -0.014934703
-0.07717578 -0.030387951 0.045910183 -0.08195806 0.100018695 -0.061381463 -0.0584652 -0.07751923
-0.016107004 0.046303384 -0.007270085 -0.027506458 0.09233801 -0.11583357 0.16245897 -0.042118724
0.11102398 -0.123426095 0.042076122 0.16423072 0.07722469 -0.14423372 0.01437615 0.110172965
0.018326472 -0.06639572 -0.0421434 -0.09533909 -0.16574238 -0.0019972923 0.13489237 0.06947312
-0.07422278 -0.011255211 0.06483645 0.063336946 0.06555583 -0.08863136 -0.010427438 -0.003452997
0.17970224 0.05958453 -0.036337372 -0.14967458 0.054884274 -0.003646886 0.02031203 -0.091985494
4.5980745e-05 0.055916738 -0.06443139 -0.03250989 -0.060010068 -0.023676453 -0.06046257 0.11600614
0.08739158 -0.11640817 0.021676525 -0.05863218 0.025230085 0.04138453 0.18985505 -0.030021444
-0.027112134 0.12947078 -0.020998094 -0.0030929476 -0.08595211 -0.115238525 -0.10991621 0.012943364
0.055904686 -0.014523693 -0.06916127 -0.0684728 -0.04825084 -0.11870993 -0.018098624 0.16805013
0.0022353278 -0.004317578 -0.066987716 0.05408732 -0.032365546 0.011604796 0.11142003 0.009082371
0.019299077 0.03826418 -0.08900602 -0.06217467 -0.028548928 -0.120705694 -0.099837504 0.17093213
-0.025922924 0.04366651 -0.029934103 0.010257558 -0.08240076 0.06639485 -0.062984645 0.04124903
-0.053682666 0.034338355 0.04927812 -0.013564278 0.050413504 0.07556338 0.058994357 0.028929701
0.0016021678 0.05721254 0.0083514005 0.12050591 0.03901497 -0.14367309 0.038924433 0.04476546
0.021959018 -0.07123791 -0.0044066464 0.036492042 0.040697493 0.026129473 0.096870966 -0.09045871
0.070728675 0.10222024 0.052063327 -0.09971565 0.06446543 -0.077663034 0.025509862 0.015324183
-0.015600188 0.023334835 -0.10507902 -0.07586505 0.02055445 0.102931134 -0.09793925 0.10713837
-0.0008716284 -0.0124104405 -0.08447671 -0.0192594 0.18438393 0.16055954 0.0055871387 0.14303324
-0.019087845 0.0074369917 0.0129500935 0.016139042 -0.06122732 -0.05997233 0.10601432 -0.11555193
-0.17316231 0.040871277 0.07286855 0.048718825 0.09661654 -0.21070383 0.12703887 0.027803425
-0.03972366 -0.008983094 0.074192755 0.0015866274 0.018134745 0.0053887344 -0.055912193 0.17248455
-0.08964355 -0.011871944 0.041727304 0.017590245 0.09422523 0.03194208 -0.050817598 -0.1528306
0.108928084 -0.031104015 0.047291327 0.078189336 0.0061394284 0.08893295 0.2036988 -0.16230057
0.033716694 0.053853035 -0.017284103 0.059869464 0.027614078 0.08997611 -0.0020465255 -0.020066183
0.005444806 0.07329554 -0.013051449 0.050278336 0.023354964 0.040600657 -0.01052654 -0.061396424
0.032684397 0.012236921 -0.07487063 0.018987404 -0.009122492 -0.0242941 0.005542061 -0.00088577345
-0.08363077 -0.040329702 -0.0020243593 0.113060266 -0.018233215 -0.08992189 -0.083869316 -0.023876129
0.07160464 -0.07094686 -0.019310355 -0.0030214759 0.00816876 -0.03298774 0.05754153 0.04264461
0.044058457 0.0363129 0.013110693 -0.022420587 -0.042096455 0.112474255 -0.06885339 0.0035410651
00000000: 5bdd 0d3d e10a 563d 229c a23d 13a8 433d
00000010: 2ad6 c1bc 7a10 94bd b5a4 cc3c dd41 323d
00000020: 4849 92bd 9eb4 4a3d 7af9 02bd 89b5 cc3d
00000030: 0042 39bd bdba 69bc b266 f33c afb0 74bc
00000040: 560e 9ebd 27f0 f8bc 510c 3c3d a1d9 a7bd
00000050: 9ad6 cc3d 216b 7bbd 3579 6fbd 67c2 9ebd
00000060: d6f2 83bc 9ea8 3d3d e539 eebb 3955 e1bc
00000070: b61b bd3d 273a edbd a55b 263e af84 2cbd
00000080: 8a60 e33d d2c6 fcbd 0358 2c3d 192c 283e
00000090: fa27 9e3d 01b2 13be f289 6b3c 5da2 e13d
000000a0: 6621 963c 7bfa 87bd 8f9e 2cbd 2441 c3bd
000000b0: 5fb8 29be 01e5 02bb 3a21 0a3e ec47 8e3d
000000c0: 1d02 98bd c767 38bc f9c8 843d cdb6 813d
000000d0: 2342 863d 5c84 b5bd d8d7 2abc ad4b 62bb
000000e0: dd03 383e e80e 743d 7fd6 14bd 4b44 19be
000000f0: 55ce 603d 9800 6fbb 6a65 a63c e462 bcbd
00000100: 73db 4038 f308 653d 9bf4 83bd 1729 05bd
00000110: 1ecd 75bd 1ff5 c1bc 9aa7 77bd a194 ed3d
00000120: 5bfa b23d 6867 eebd f892 b13c 4c28 70bd
00000130: 53af ce3c d382 293d 5d69 423e 88ef f5bc
00000140: 441a debc fd93 043e 3204 acbc 0db3 4abb
00000150: a907 b0bd 2d02 ecbd c01b e1bd 6710 543c
00000160: 50fc 643d c9f4 6dbc 6da4 8dbd 783b 8cbd
00000170: aca2 45bd 311e f3bd 9143 94bc 5515 2c3e
00000180: 947e 123b 787a 8dbb db30 89bd aa8a 5d3d
00000190: bc91 04bd 0b22 3e3c 2f30 e43d 3ace 143c
000001a0: 1919 9e3c e7ba 1c3d ca48 b6bd deaa 7ebd
000001b0: 71df e9bc 8c34 f7bd 9b77 ccbd d508 2f3e
000001c0: 505c d4bc a8db 323d 5d38 f5bc 510f 283c
000001d0: bbc1 a8bd 06fa 873d 18fe 80bd bef4 283d
000001e0: 5be2 5bbd 60a6 0c3d dbd7 493d b53c 5ebc
000001f0: 647e 4e3d f9c0 9a3d 11a4 713d fbfd ec3c
00000200: d5ff d13a b257 6a3d 50d4 083c cdcb f63d
00000210: 29ce 1f3d 0a1f 13be 3a6f 1f3d fd5b 373d
00000220: 66e3 b33c 2ee5 91bd a165 90bb ae78 153d
00000230: 6ab2 263d 7a0d d63c 4964 c63d 6b42 b9bd
00000240: 32da 903d d858 d13d 5b40 553d b837 ccbd
00000250: 7406 843d cc0d 9fbd 0ffa d03c 4812 7b3c
00000260: ee97 7fbc b228 bf3c ab33 d7bd 235f 9bbd
00000270: ce61 a83c 8fcd d23d 6094 c8bd 5d6b db3d
00000280: fe7d 64ba 2955 4bbc 2002 adbd e4c5 9dbc
00000290: 24cf 3c3e b869 243e 5114 b73b 4e77 123e
000002a0: 1d5e 9cbc 02b2 f33b a12c 543c 0636 843c
000002b0: 80c9 7abd 8ca5 75bd 091e d93d 7ea6 ecbd
000002c0: 7651 31be a468 273d 1b3c 953d 648d 473d
000002d0: e4de c53d bfc2 57be 7a16 023e 02c4 e33c
000002e0: 47b5 22bd d42d 13bc 5ff2 973d 62f6 cf3a
000002f0: 518f 943c fb93 b03b 2f04 65bd ca9f 303e
00000300: 0a97 b7bd 8b82 42bc 40ea 2a3d 6b19 903c
00000310: 28f9 c03d b3d5 023d 1d26 50bd a07f 1cbe
00000320: b015 df3d d9cd febc 8db4 413d bb21 a03d
00000330: 422d c93b 7a22 b63d 6b96 503e 1f32 26be
00000340: 841a 0a3d 0095 5c3d 6497 8dbc af39 753d
00000350: eb36 e23c 6545 b83d 001f 06bb d661 a4bc
00000360: 586a b23b f91b 963d bfd5 55bc a8f0 4d3d
00000370: e952 bf3c e04c 263d 8277 2cbc d17a 7bbd
00000380: 13e0 053d 5e7d 483c c655 99bd 798b 9b3c
00000390: 8176 15bc 6c04 c7bc 2d9a b53b 4033 68ba
000003a0: 9c46 abbd c230 25bd 1dab 04bb 248c e73d
000003b0: d35d 95bc f828 b8bd adc3 abbd df97 c3bc
000003c0: 74a5 923d 964c 91bd c030 9ebc f403 46bb
000003d0: 43d6 053c 271e 07bd abb0 6b3d 1dac 2e3d
000003e0: a476 343d d6bc 143d 3bce 563c 61ab b7bc
000003f0: 556d 2cbd e758 e63d 0203 8dbd 3711 683b

base.critic.0.bias f4 [64]
0.0 0.0 0.0 0.0 0.0 0.0 0.0 0.0
0.0 0.0 0.0 0.0 0.0 0.0 0.0 0.0
0.0 0.0 0.0 0.0 0.0 0.0 0.0 0.0
0.0 0.0 0.0 0.0 0.0 0.0 0.0 0.0
0.0 0.0 0.0 0.0 0.0 0.0 0.0 0.0
0.0 0.0 0.0 0.0 0.0 0.0 0.0 0.0
0.0 0.0 0.0 0.0 0.0 0.0 0.0 0.0
0.0 0.0 0.0 0.0 0.0 0.0 0.0 0.0
00000000: 0000 0000 0000 0000 0000 0000 0000 0000
00000010: 0000 0000 0000 0000 0000 0000 0000 0000
00000020: 0000 0000 0000 0000 0000 0000 0000 0000
00000030: 0000 0000 0000 0000 0000 0000 0000 0000
00000040: 0000 0000 0000 0000 0000 0000 0000 0000
00000050: 0000 0000 0000 0000 0000 0000 0000 0000
00000060: 0000 0000 0000 0000 0000 0000 0000 0000
00000070: 0000 0000 0000 0000 0000 0000 0000 0000
00000080: 0000 0000 0000 0000 0000 0000 0000 0000
00000090: 0000 0000 0000 0000 0000 0000 0000 0000
000000a0: 0000 0000 0000 0000 0000 0000 0000 0000
000000b0: 0000 0000 0000 0000 0000 0000 0000 0000
000000c0: 0000 0000 0000 0000 0000 0000 0000 0000
000000d0: 0000 0000 0000 0000 0000 0000 0000 0000
000000e0: 0000 0000 0000 0000 0000 0000 0000 0000
000000f0: 0000 0000 0000 0000 0000 0000 0000 0000

base.critic.2.weight f4 [64, 64]
-0.1567618 -0.10005033 0.13207576 0.1056965 -0.05886705 0.14397213 0.017598389 0.12043983
0.05460116 -0.18232529 0.0366229 -0.040680718 0.051321227 -0.08683245 0.30162743 -0.10439546
-0.14051755 0.14467877 0.2573638 0.051385242 0.22879295 -0.15155044 -0.23400773 0.15475436
0.29542473 -0.17740847 0.1228641 0.4875398 0.010572477 -0.101599835 0.14144818 0.31933895
0.040256407 0.051385973 0.12173113 0.080694854 -0.015135071 0.22335938 0.22430302 0.12309126
-0.16508712 -0.30425146 0.09301591 0.085790284 -0.087657355 0.27000615 -0.18178935 0.14619346
-0.033149783 0.14247309 0.03781728 -0.09536052 0.057649907 0.031159049 -0.23953345 -0.033541586
-0.40752628 0.4045756 0.23817286 -0.008135679 0.10674837 -0.2107676 -0.0579038 0.2994277
-0.10583409 0.2648331 -0.0033986468 0.077182345 0.11588607 0.28435194 0.19117732 -0.21389107
0.04204719 -0.23268996 0.04280721 -0.010033367 0.20162086 0.11911584 0.17365542 0.07111018
0.18529598 0.019932725 -0.05442713 -0.047897045 0.15828691 0.31691638 -0.08968244 -0.12577124
0.0024509782 0.0376514 -0.15864961 0.014813257 -0.2096876 -0.09813737 0.09736482 -0.033384044
-0.18071868 -0.43757457 0.0083831865 0.017933153 0.2765468 -0.057085898 -0.002684213 -0.10362687
0.1283345 -0.24695349 0.09931318 0.21116422 0.041901503 0.066300385 -0.29206777 -0.04782636
-0.06493256 -0.37429035 0.12356422 0.3997396 0.15101139 0.38135505 0.11965092 0.19570069
0.2189078 -0.03856462 0.36901096 0.018045468 0.03823452 0.028768297 0.19582829 -0.0071777087
0.07755712 -0.1284763 -0.15259103 -0.15356198 0.3517844 -0.15220563 0.11358009 -0.35062253
-0.112681955 0.2460998 -0.022946853 0.07150765 -0.028037414 -0.06516997 -0.07489367 -0.15716732
0.02160282 -0.04302609 0.22919266 0.023394328 -0.0017468522 -0.13352531 -0.109831795 0.08813417
0.3222534 -0.039579093 -0.11083907 -0.12100577 0.34826767 -0.024340197 0.048438266 -0.5595112
-0.17148869 0.099221766 -0.031985298 0.18387239 -0.034196068 -0.025454115 -0.08370714 -0.14974105
0.07374494 0.08459562 0.029324748 -0.0076153227 -0.021896139 -0.25271162 -0.028746761 0.2707005
0.08524667 -0.2275043 -0.040044576 0.059520476 -0.071063176 -0.095573425 -0.19923961 0.24493401
-0.36580956 -0.030030347 0.44210446 -0.003352001 0.041429184 -0.3049068 0.13454571 0.12086351
-0.0045092106 0.27790067 -0.023969973 0.014315608 0.1971913 0.21642068 -0.17710721 0.045639504
0.09685374 0.00915872 -0.369462 -0.14677712 0.14810148 0.39849457 0.33293402 0.20101753
-0.31222278 -0.118769266 0.0028800278 0.16989735 0.03268544 0.14240065 0.23151475 0.25108993
0.2558573 0.17342219 -0.03423787 -0.14205557 0.107456826 -0.04389449 -0.12557475 0.2397641
-0.17003211 -0.112691425 -0.23082352 0.072850905 -0.42954537 0.038151782 -0.14408866 -0.094515644
0.007539355 0.050712477 -0.112521894 -0.07028366 0.12652299 0.14099649 -0.12544218 0.030800486
0.22234493 0.015111777 -0.26166308 0.09410464 -0.022582019 -0.14412391 0.09032596 0.04707836
-0.086437665 -0.39676064 -0.10579956 -0.0627353 -0.058890697 -0.06458519 -0.1426065 0.3210928
00000000: 2a86 20be 30e7 ccbd de3e 073e 6877 d83d
00000010: 931e 71bd 6e6d 133e 7f2a 903c 28a9 f63d
00000020: 77a5 5f3d 7bb3 3abe e501 163d d3a0 26bd
00000030: 3536 523d 36d5 b1bd e96e 9a3e 49cd d5bd
00000040: d5e3 0fbe ac26 143e 30c5 833e 5579 523d
00000050: b348 6a3e 0a30 1bbe b99f 6fbe ed77 1e3e
00000060: e941 973e 91aa 35be 2ca0 fb3d d19e f93e
00000070: 2f38 2d3c 9313 d0bd cbd7 103e 6580 a33e
00000080: e7e3 243d 197a 523d 2c4e f93d 5843 a53d
00000090: 17f9 77bc 52b8 643e b1af 653e 4517 fc3d
000000a0: 990c 29be d9c6 9bbe 207f be3d d1b2 af3d
000000b0: b385 b3bd 3f3e 8a3e fd26 3abe bdb3 153e
000000c0: 11c8 07bd 77e4 113e 4be6 1a3d 604c c3bd
000000d0: 4f22 6c3d 4341 ff3c 4248 75be e762 09bd
000000e0: 49a7 d0be 8824 cf3e 96e3 733e 834b 05bc
000000f0: e49e da3d 76d3 57be 892c 6dbd 964e 993e
00000100: 8bbf d8bd 3498 873e d5bb 5ebb c711 9e3d
00000110: ad55 ed3d 9496 913e fdc3 433e 4306 5bbe
00000120: ad39 2c3d 4746 6ebe 9d56 2f3d fe62 24bc
00000130: b375 4e3e 01f3 f33d bad2 313e 37a2 913d
00000140: 3bbe 3d3e f449 a33c fbee 5ebd b12f 44bd
00000150: f715 223e dd42 a23e 6dab b7bd 2dca 00be
00000160: 97a0 203b 5b38 1a3d 0b75 22be 4eb3 723c
00000170: 59b8 56be 3ffc c8bd 3567 c73d b5bd 08bd
00000180: 510e 39be c609 e0be a259 093c 8ce8 923c
00000190: 8b97 8d3e e7d2 69bd 9fe9 2fbb 533a d4bd
000001a0: 1f6a 033e 60e1 7cbe b564 cb3d 6f3b 583e
000001b0: e9a0 2b3d 7fc8 873d e889 95be 93e5 43bd
000001c0: 5dfb 84bd fca2 bfbe 3d0f fd3d abaa cc3e
000001d0: bba2 1a3e f840 c33e 8b0b f53d c365 483e
000001e0: 5e29 603e eff5 1dbd 01ef bc3e 17d4 933c
000001f0: cd9b 1c3d 7eab eb3c 3687 483e fc32 ebbb
00000200: 44d6 9e3d 4b8f 03be d340 1cbe 5a3f 1dbe
00000210: 161d b43e cbdb 1bbe ae9c e83d cc84 b3be
00000220: ccc5 e6bd 9601 7c3e 0afb bbbc 9a72 923d
00000230: b8ae e5bc d577 85bd da61 99bd 78f0 20be
00000240: 66f8 b03c 203c 30bd 7bb1 6a3e 76a5 bf3c
00000250: a2f6 e4ba dcba 08be 7eef e0bd b07f b43d
00000260: 66fe a43e b01d 22bd 98ff e2bd e0d1 f7bd
00000270: 2450 b23e 1865 c7bc 3467 463d 203c 0fbf
00000280: bb9a 2fbe c834 cb3d 0403 03bd 0b49 3c3e
00000290: 2d11 0cbd 2685 d0bc a66e abbd b855 19be
000002a0: 9607 973d 7840 ad3d 743a f03c f589 f9bb
000002b0: 885f b3bc 6b63 81be 547e ebbc 4299 8a3e
000002c0: ce95 ae3d e3f6 68be c805 24bd becb 733d
000002d0: 9289 91bd 00bc c3bd 7805 4cbe fbcf 7a3e
000002e0: 644b bbbe 3402 f6bc 845b e23e 3fad 5bbb
000002f0: a6b1 293d be1c 9cbe 5ac6 093e 4a87 f73d
00000300: 00c2 93bb ff48 8e3e ad5c c4bc 038c 6a3c
00000310: 84ec 493e 629d 5d3e 985b 35be 7df0 3a3d
00000320: 415b c63d 750e 163c 202a bdbe be4c 16be
00000330: eaa7 173e 7b07 cc3e 5476 aa3e 8ad7 4d3e
00000340: aadb 9fbe 4d3d f3bd d9be 3c3b 92f9 2d3e
00000350: 2be1 053d 7ad1 113e 3412 6d3e dc8e 803e
00000360: baff 823e 9695 313e 023d 0cbd 0477 11be
00000370: 5312 dc3d b5ca 33bd ab96 00be b884 753e
00000380: e61c 2ebe c3ca e6bd 005d 6cbe db32 953d
00000390: 5fed dbbe 0b45 1c3d fa8b 13be 6b91 c1bd
000003a0: b20c f73b e3b7 4f3d e171 e6bd e1f0 8fbd
000003b0: 3e8f 013e 6261 103e ea73 00be 4d51 fc3c
000003c0: 64ae 633e 6397 773c b4f8 85be efb9 c03d
000003d0: edfd b8bc 3895 13be d1fc b83d 3dd5 403d
000003e0: 3b06 b1bd 3624 cbbe 71ad d8bd 5d7b 80bd
000003f0: 5f37 71bd 3d45 84bd 7007 12be 4766 a43e

base.critic.2.bias f4 [64]
0.012970383 0.00060747605 0.008363084 -0.012315058 0.008458886 -0.009281559 -0.0033257713 -0.009415228
-0.0013465103 -0.010621598 -0.005873915 -0.011982342 0.013985933 0.0139745865 0.014086128 -0.010554966
0.0019692003 -0.0069140955 -0.0012835133 0.012330605 0.01295616 -0.013520324 0.011936168 0.010029983
-0.003830284 0.0039090305 -0.012304783 -0.0037890999 -0.007977271 -0.013548442 0.013761781 -0.0044940915
0.004037243 0.004037942 -0.0011417262 0.011529242 0.01406203 -0.01147318 -0.0017554146 -0.0064847018
0.011117671 0.013491753 0.012377249 0.01495774 -0.011781164 -0.013693805 0.012337036 -0.013047691
0.009314335 -0.010505607 -0.012843499 0.008033111 -0.014165393 -0.012418394 0.01349437 0.0035940364
-0.0070923916 -0.012678852 0.013112624 -0.014910489 -0.010017322 0.012556027 -0.0127872825 -0.012011559
00000000: bb81 543c 073f 1f3a 5105 093c 19c5 49bc
00000010: 2497 0a3c ae11 18bc 2ff5 59bb 5442 1abc
00000020: 637d b0ba 3606 2ebc f879 c0bb 9651 44bc
00000030: 4125 653c aaf5 643c 81c9 663c bcee 2cbc
00000040: b30d 013b a38f e2bb 8f3b a8ba 4e06 4a3c
00000050: 1346 543c 5984 5dbc eb8f 433c cc54 243c
00000060: 8105 7bbb 5317 803b 009a 49bc 8c52 78bb
00000070: 1ab3 02bc 49fa 5dbc 1879 613c 2c43 93bb
00000080: d94a 843b b650 843b f9a5 95ba 25e5 3c3c
00000090: 6e64 663c 01fa 3bbc f115 e6ba 9f7d d4bb
000000a0: e426 363c 830c 5d3c f2c9 4a3c 4f11 753c
000000b0: c905 41bc fb5b 60bc 4821 4a3c fcc5 55bc
000000c0: 279b 183c b61f 2cbc 8a6d 52bc 4f9d 033c
000000d0: f715 68bc 8576 4bbc 7d17 5d3c ed89 6b3b
000000e0: 4b67 e8bb f6ba 4fbc 55d6 563c 204b 74bc
000000f0: b21f 24bc cbb7 4d3c c081 51bc 21cc 44bc

base.critic_linear.weight f4 [1, 64]
0.09541267 -0.025947172 0.034060292 0.10995731 -0.12387803 0.18436314 0.12229319 0.035107628
1.8116105e-05 0.026471196 0.032399956 -0.056327093 -0.27642405 -0.26535052 -0.38973048 0.048597917
-0.11137774 0.010692022 -0.02106037 -0.2761449 0.10672072 0.1228722 -0.2978496 0.0636731
-1.8824632e-05 0.0003478265 3.8471426e-06 -4.012043e-05 0.16299538 -0.45708025 -0.21880032 -0.28136975
-0.072670236 -8.911117e-06 -4.2664393e-05 0.23379396 -0.26536 -0.0779133 -0.023146681 -0.046118125
-0.1443504 -0.17758621 -0.09980043 0.39136744 -0.31959158 -0.12845159 0.08887519 -0.18879217
-0.06221769 -0.119130895 -0.13110198 -0.092905 -0.20354843 -0.07589138 0.09890556 -0.013248997
0.0002733841 0.15429172 -0.2281836 -0.171742 0.059319574 -0.20085013 -0.09420247 -0.1352706
00000000: b867 c33d 2a8f d4bc ce82 0b3d 4c31 e13d
00000010: c4b3 fdbd b1c9 3c3e da74 fa3d 04cd 0f3d
00000020: 0af8 9737 1fda d83c d1b5 043d 3db7 66bd
00000030: 7487 8dbe 06dc 87be c18a c7be 9c0e 473d
00000040: 031a e4bd 972d 2f3c cc86 acbc dd62 8dbe
00000050: 6590 da3d 6ca4 fb3d be7f 98be 0b67 823d
00000060: 97e9 9db7 7c5c b639 b416 8136 fc46 28b8
00000070: 43e8 263e 6c06 eabe 310d 60be b20f 90be
00000080: 22d4 94bd f580 15b7 8bf2 32b8 af67 6f3e
00000090: 44dd 87be 0291 9fbd 1c9e bdbc 5ce6 3cbd
000000a0: 97d0 13be 29d9 35be 2b64 ccbd 5061 c83e
000000b0: 82a1 a3be d088 03be 3204 b63d bc52 41be
000000c0: fad7 7ebd e6fa f3bd 993f 06be fa44 bebd
000000d0: 006f 50be f16c 9bbd 008f ca3d 5212 59bc
000000e0: fe54 8f39 a6fe 1d3e f6a8 69be 23dd 2fbe
000000f0: 15f9 723d a8ab 4dbe 39ed c0bd 6084 0abe

dist.dst_type_linears.0.weight f4 [3, 64]
0.07134105 0.056249574 0.06547446 0.044085998 -0.047178317 -0.030523533 0.08635387 0.049351137
0.030834634 0.050797496 -0.03691401 -0.04267596 0.0347449 -0.028027575 -0.05257045 0.0544566
0.01793684 0.029312566 0.028979126 -0.078015134 0.029420333 0.028084302 -0.05682281 -0.053032357
0.07673714 -0.055732656 -0.049011674 -0.079842694 -0.031732135 0.052289464 -0.03257949 -0.06488641
0.058541287 0.027908934 -0.03695261 0.05864532 0.056571774 0.056023598 -0.06928098 -0.042016085
0.005514606 0.07093463 0.047138724 0.04267841 -0.025353052 0.048209697 -0.027957771 -0.05529514
-0.019522004 0.037605125 -0.03509813 0.05991439 -0.028914312 0.016934441 0.02947683 0.05652019
0.054427132 -0.0375586 0.04504831 -0.071680985 0.054991756 0.061261978 0.05011939 -0.031358752
-0.021849375 -0.0087419525 -0.04667284 -0.034073185 -0.0133136455 0.008084067 -0.031771135 -0.00441933
-0.009391542 -0.012180616 -0.0067667724 0.008851794 -0.011651612 0.00832512 0.046878897 -0.019552268
-0.056722526 -0.008181304 -0.009653039 0.050586455 -0.0077350326 -0.008872803 0.0031198147 -0.003860134
-0.022240266 0.019891525 0.011355683 0.040093865 0.009224055 -0.0021650116 0.007763061 0.05628101
-0.038269136 -0.007841375 -0.012095167 -0.017893137 -0.012699785 -0.044807333 0.009197071 0.0038002273
0.018483017 -0.057855785 -0.018075738 -0.018264253 -0.0006771172 0.0007628934 0.009544197 0.013382775
0.017115954 0.0048311646 0.005309136 0.0043329955 -0.023186555 0.022509353 -0.0061373618 -0.04365554
-0.012883584 0.031333946 0.010304149 0.004925088 -0.007960193 -0.043959435 -0.07264776 0.008527566
-0.05186077 -0.052361343 -0.032181807 -0.014552582 0.06333889 0.024081111 -0.06729142 -0.04724615
-0.026702357 -0.05109615 0.055173036 0.026714677 -0.025027575 0.021514017 0.0130761685 -0.041788995
0.028314942 -0.02210961 -0.025842987 0.04357258 -0.022957213 -0.021000426 0.055958055 0.05978248
-0.062204845 0.056255337 0.053965572 0.038900416 0.022563923 -0.05349966 0.027097708 0.026852004
-0.03352852 -0.021803975 0.04906613 -0.049844194 -0.048783716 -0.02864157 0.06721166 0.0397797
-0.044309936 -0.026793756 -0.045657303 -0.027166171 0.0197791 -0.05740839 0.023406768 0.05510832
0.009601029 -0.049501576 0.02982545 -0.067069024 0.05711754 -0.051108338 -0.023393959 -0.04093725
-0.046401497 0.020597309 -0.049636874 0.072212 -0.050226193 -0.024592333 0.004142689 0.024856769
00000000: 421b 923d f465 663d 7917 863d 8593 343d
00000010: 0d3e 41bd 7d0c fabc 4cda b03d 6b24 4a3d
00000020: ea98 fc3c 0911 503d 2533 17bd fdcc 2ebd
00000030: ab50 0e3d 169a e5bc 1d54 57bd e20d 5f3d
00000040: 48f0 923c e820 f03c a265 ed3c 66c6 9fbd
00000050: e902 f13c 0d11 e63c 09bf 68bd 7538 59bd
00000060: 5d28 9d3d ed47 64bd 77c0 48bd 9184 a3bd
00000070: 8ef9 01bd 7a2d 563d 1272 05bd 2be3 84bd
00000080: fdc8 6f3d 47a1 e43c 9f5b 17bd 1336 703d
00000090: ceb7 673d 0079 653d 30e3 8dbd 0f19 2cbd
000000a0: deb3 b43b 2d46 913d 8914 413d 8ecf 2e3d
000000b0: 34b1 cfbc 8877 453d b207 e5bc 287d 62bd
000000c0: 9cec 9fbc d507 1a3d 0fc3 0fbd cb68 753d
000000d0: b5dd ecbc 19ba 8a3c 6579 f13c b781 673d
000000e0: fcee 5e3d 0cd7 19bd 9484 383d 7bcd 92bd
000000f0: 093f 613d d7ed 7a3d fd49 4d3d 0972 00bd
00000100: 76fd b2bc 683a 0fbc 052c 3fbd 5390 0bbd
00000110: 7a21 5abc 0973 043c 7322 02bd 07d0 90bb
00000120: fbde 19bc 3591 47bc cdbb ddbb 1d07 113c
00000130: 67e6 3ebc 1666 083c 1604 403d 142c a0bc
00000140: e155 68bd e00a 06bc c827 1ebc be33 4f3d
00000150: 2876 fdbb 3c5f 11bc ce75 4c3b 4dfa 7cbb
00000160: 3831 b6bc 8df3 a23c 300d 3a3c 7739 243d
00000170: 7e20 173c dee2 0dbb 4761 fe3b eb86 663d
00000180: 19c0 1cbd 1c79 00bc cf2a 46bc a194 92bc
00000190: c212 50bc e587 37bd 50af 163c 3c0d 793b
000001a0: b269 973c 30fa 6cbd 9213 94bc ea9e 95bc
000001b0: 9180 31ba e9fc 473a 435f 1c3c 6d43 5b3c
000001c0: c236 8c3c bf4e 9e3b 43f8 ad3b cdfb 8d3b
000001d0: bbf1 bdbc 8965 b83c ec1b c9bb 27d0 32bd
000001e0: ab15 53bc 0658 003d bcd2 283c a262 a13b
000001f0: 786b 02bc cf0e 34bd 59c8 94bd 34b7 0b3c
00000200: f56b 54bd d978 56bd 12d1 03bd f46d 6ebc
00000210: d2b7 813d c045 c53c 16d0 89bd 2e85 41bd
00000220: e7be dabc 324a 51bd 1ffd 613d bdd8 da3c
00000230: a106 cdbc 2a3e b03c 6d3d 563c f02a 2bbd
00000240: bdf4 e73c 361f b5bc acb4 d3bc 2979 323d
00000250: c410 bcbc 1609 acbc 4634 653d 79de 743d
00000260: 82ca 7ebd ff6b 663d 010b 5d3d 0b56 1f3d
00000270: fad7 b83c 7622 5bbd 03fc dd3c bcf8 db3c
00000280: 3455 09bd 409e b2bc 91f9 483d 6d29 4cbd
00000290: 6fd1 47bd baa1 eabc 44a6 893d 0af0 223d
000002a0: 567e 35bd 947e dbbc 2703 3bbd 978b debc
000002b0: c707 a23c 0f25 6bbd 8dbf bf3c 43b9 613d
000002c0: a24d 1d3c 2ac2 4abd 8154 f43c 7c5b 89bd
000002d0: 15f4 693d fa56 51bd b0a4 bfbc d1ad 27bd
000002e0: 7f0f 3ebd b0bb a83c 0950 4bbd e3e3 933d
000002f0: fbb9 4dbd dc75 c9bc 65bf 873b 6ca0 cb3c

dist.dst_type_linears.0.bias f4 [3]
0.028959062 -0.00840724 -0.021542637
00000000: 8e3b ed3c 85be 09bc 2f7a b0bc

dist.dst_type_linears.1.weight f4 [3, 64]
0.06763029 0.062009044 0.048901796 0.039960243 -0.06700137 -0.061184574 0.047053028 0.0382982
0.06366897 0.07586729 -0.04539103 -0.0016925704 0.061785217 -0.06245947 0.001951723 0.076137304
-0.026543196 0.060639743 0.06500209 -0.02531752 0.060975924 0.05947729 -0.059777737 -0.043581128
0.06247784 -0.0808659 -0.06664314 -0.03644286 -0.059386764 0.06128201 -0.064705715 -0.053229954
0.04387401 0.060391583 -0.036314607 0.051527068 0.06616793 0.010954416 -0.06558477 -0.06451845
0.061669737 0.04455403 0.04901396 0.0004162679 -0.004993469 0.06574637 -0.06161735 -0.023151353
-0.032600895 0.07181306 -0.06350946 0.035193298 -0.060177565 0.04894884 0.06160451 0.05572581
0.07026226 -0.040122703 0.032596577 -0.046753485 0.060583934 0.041826136 -0.010151165 -0.0650264
-0.024264716 -0.0555642 -0.04026772 -0.022382237 0.06085957 0.04300786 -0.035898782 -0.027881032
-0.04645181 -0.045619592 0.012159458 0.0053693783 -0.048043832 0.045271706 0.004624334 -0.047883894
0.033234 -0.04228244 -0.045312695 0.016599681 -0.04490513 -0.044500377 0.05939306 0.030982519
-0.061584003 0.06982997 0.060828738 0.044733606 0.04531421 -0.058948636 0.044496026 0.03840404
-0.04438828 -0.04178337 0.03447656 -0.052372966 -0.042256158 -0.0010456318 0.05150204 0.05137406
-0.021076042 -0.035651226 -0.048805844 -0.003690595 -0.009948081 -0.0600451 0.043758318 0.01517465
0.0114965 -0.052856635 0.048525453 -0.02522589 0.05361112 -0.037478898 -0.045528512 -0.058067612
-0.042999364 0.036378436 -0.016848877 0.03071072 -0.059124764 -0.023972353 0.022851748 0.046346907
-0.054001126 -0.041657664 -0.037075143 -0.036090918 0.047249395 0.04658523 -0.035073373 -0.028646499
-0.046553258 -0.06767782 0.040332418 -0.0020613694 -0.048321858 0.041853208 -0.009389037 -0.050236553
0.015681768 -0.04404172 -0.045605924 0.020353958 -0.045475688 -0.044942874 0.034289047 0.021295037
-0.036900606 0.054455236 0.04318319 0.021372868 0.045541395 -0.037807792 0.04663863 0.04020602
-0.027153844 -0.044952422 0.022436779 -0.02376667 -0.05554011 -0.007020766 0.053859815 0.042838655
-0.060631044 -0.029990628 -0.026990544 0.011018981 0.012028979 -0.046848 0.04477774 0.0147436
0.029009657 -0.053302154 0.045053452 -0.01964798 0.040888723 -0.028927026 -0.04399018 -0.02331902
-0.053664304 0.02515707 -0.024913736 0.03468373 -0.036768176 -0.027052108 -0.002247749 0.0455806
00000000: c081 8a3d 32fd 7d3d 404d 483d 5aad 233d
00000010: 0438 89bd ad9c 7abd adba 403d 93de 1c3d
00000020: e064 823d 4f60 9b3d f2eb 39bd 3dd9 ddba
00000030: 7f12 7d3d 80d5 7fbd f5d0 ff3a e0ed 9b3d
00000040: 1e71 d9bc 6161 783d d11f 853d b066 cfbc
00000050: e4c1 793d 759e 733d 80d9 74bd 2082 32bd
00000060: c3e8 7f3d 059d a5bd 337c 88bd 1c45 15bd
00000070: 893f 73bd d802 7b3d 6e84 84bd a707 5abd
00000080: 3cb5 333d 2a5d 773d a0be 14bd 0c0e 533d
00000090: 0d83 873d 277a 333c 4f51 86bd 4022 84bd
000000a0: 6899 7c3d 497e 363d ddc2 483d 883e da39
000000b0: 41a0 a3bb 08a6 863d 7962 7cbd e8a7 bdbc
000000c0: 8488 05bd ba12 933d 3f11 82bd d926 103d
000000d0: c07c 76bd 947e 483d 0355 7c3d bf40 643d
000000e0: a9e5 8f3d b457 24bd fd83 053d 9580 3fbd
000000f0: dc26 783d e251 2b3d 1251 26bc 902c 85bd
00000100: ccc6 c6bc 4997 63bd c4ef 24bd f45a b7bc
00000110: e247 793d 0329 303d 9a0a 13bd c366 e4bc
00000120: 4144 3ebd 9cdb 3abd 7738 473c 9cf1 af3b
00000130: 9cc9 44bd d36e 393d ba87 973b e721 44bd
00000140: 6020 083d 5a30 2dbd ce99 39bd 0efc 873c
00000150: 71ee 37bd 0746 36bd 2346 733d 0dcf fd3c
00000160: 823f 7cbd 0403 8f3d 8e27 793d 963a 373d
00000170: 659b 393d 2074 71bd 7741 363d 8e4d 1d3d
00000180: 7cd0 35bd 0a25 2bbd 4b37 0d3d 0985 56bd
00000190: cb14 2dbd 950d 89ba cef3 523d 9b6d 523d
000001a0: aaa7 acbc 0507 12bd a3e8 47bd e9dd 71bb
000001b0: 47fd 22bc daf1 75bd ec3b 333d 189f 783c
000001c0: d15b 3c3c 3380 58bd a0c2 463d 87a6 cebc
000001d0: 5597 5b3d 7983 19bd 1b7c 3abd 4ed8 6dbd
000001e0: 1a20 30bd 8e01 153d a806 8abc 0c95 fb3c
000001f0: cf2c 72bd ab61 c4bc 9733 bb3c 41d6 3d3d
00000200: 4930 5dbd 3aa1 2abd 1bdc 17bd 12d4 13bd
00000210: 9588 413d 27d0 3e3d 19a9 0fbd 10ac eabc
00000220: a1ae 3ebd ab9a 8abd 9b33 253d 0a18 07bb
00000230: 24ed 45bd 456e 2b3d 7ad4 19bc d8c4 4dbd
00000240: 0d77 803c 1765 34bd 47cd 3abd 58bd a63c
00000250: b744 3abd 0516 38bd ac72 0c3d ee72 ae3c
00000260: 1725 17bd 740c 5f3d dbe0 303d 2716 af3c
00000270: 9d89 3a3d 58dc 1abd 2608 3f3d 11af 243d
00000280: bd71 debc 0820 38bd 56cd b73c 52b2 c2bc
00000290: 077e 63bd 740e e6bb 1c9c 5c3d 9677 2f3d
000002a0: 4258 78bd e8ae f5bc 461b ddbc f588 343c
000002b0: 3215 453c b0e3 3fbd dd68 373d 248f 713c
000002c0: a9a5 ed3c 5c53 5abd f889 383d cdf4 a0bc
000002d0: ef7a 273d 5ff8 ecbc 0c2f 34bd 8807 bfbc
000002e0: 1acf 5bbd 3316 ce3c e417 ccbc 8710 0e3d
000002f0: 3a9a 16bd 629c ddbc f84e 13bb b9b2 3a3d

dist.dst_type_linears.1.bias f4 [3]
0.06098448 -0.043956365 -0.043943536
00000000: ddca 793d 970b 34bd 23fe 33bd

dist.dst_type_linears.2.weight f4 [3, 64]
0.0065278364 -0.008028621 -0.0073823975 -0.00037144264 0.018787932 0.002786818 -0.00545384 -0.022563042
-0.0041964953 -0.01665243 0.0018196985 -0.009868754 -0.0034196582 0.0016294965 0.0064473674 -0.01808239
0.008035424 -0.001756925 -0.0041511366 0.007115106 -0.00012673152 -0.0013793986 0.015273514 0.017074909
-0.015619947 0.011961161 0.022589104 2.699991e-06 -0.00086989644 -0.01875549 0.0033070766 0.0047171167
-0.021286007 -0.00053480454 0.04293625 -0.012628243 0.0013100589 -0.013527197 -4.9173297e-05 0.011549109
-0.006358638 0.0024330746 -0.032908324 -0.021230377 0.012519324 -0.0039737434 0.0022091782 0.012771391
0.027395835 -0.0015784847 0.008045092 -0.019592332 0.02116821 -0.021754285 -0.0026527434 -0.02416754
-0.021679053 0.026992641 0.0019682182 0.0072638006 -0.014601507 0.0045128493 0.0009144675 0.0020945107
0.027028631 -0.0049103634 -0.019929435 -0.0074288044 0.007893484 0.006387651 -0.003425959 0.010466027
-0.0072076125 -0.010735431 -0.030734157 0.016521225 -0.0086258855 0.01087218 -0.030945247 -0.004326834
0.013391086 -0.00867857 -0.010369956 -0.0044374894 -0.008328351 -0.008684389 0.00046291458 -0.0023993517
-0.022574868 0.024856549 0.0061314227 0.025350017 0.007304314 -0.006718091 0.008191075 0.023422064
-0.017598856 -0.0084036635 -0.0099861715 0.0050700977 0.01300482 0.029617185 9.537881e-05 0.003229095
0.025916886 -0.022527058 0.0032779977 0.019572238 -0.020738568 -0.008329373 0.009454795 -0.0309525
-0.008963283 -0.007567212 0.0105179865 0.02853752 -0.005953919 0.022388423 -0.009336659 -0.0054682856
-0.0075018844 -0.00798839 -0.0066939667 -0.008531577 -0.003900385 0.006558151 0.02112217 0.0071360953
-0.02075372 0.0055607087 0.01620241 0.0055198767 -0.019550553 -0.005322662 0.016410239 0.015455538
0.0045043766 0.019354058 0.006103962 -0.0071959924 0.0046560727 -0.0039221006 0.005036322 0.017851608
0.0011555981 0.0054761693 0.0046027154 -0.013400007 0.0046082227 0.0042133373 -0.014284331 -0.019974852
0.027536752 -0.026907094 -0.01523438 -0.012009995 -0.0036505316 0.016043304 -0.005111993 -0.023716487
0.023265198 0.0045777513 -0.036640402 0.0041056974 -0.0051122042 0.004251851 0.0038305211 -0.008414547
-0.003973905 0.018810896 0.021059588 0.016734315 -0.008015512 0.0103334 -0.004428829 -0.003022296
-0.0186759 0.003893331 -0.00885025 0.004593872 -0.011039818 0.012516355 0.0049574277 0.01780228
0.024322659 -0.016601708 0.012810011 -0.008572362 0.0091526145 -0.003791651 -0.0028443392 -0.00506122
00000000: 76e7 d53b 7a8a 03bc 0ae8 f1bb 30be c2b9
00000010: 26e9 993c 0ca3 363b 20b6 b2bb 21d6 b8bc
00000020: c182 89bb ad6a 88bc f382 ee3a 8eb0 21bc
00000030: 581c 60bb d494 d53a 7044 d33b 8521 94bc
00000040: 03a7 033c 9f48 e6ba 4206 88bb d625 e93b
00000050: 3ce3 04b9 f0cc b4ba c33d 7a3c aee0 8b3c
00000060: ceea 7fbc bff8 433c c90c b93c 7e31 3536
00000070: c309 64ba 1da5 99bc 8abb 583b 0b92 9a3b
00000080: fe5f aebc 2032 0cba ecdd 2f3d b1e6 4ebc
00000090: 48b6 ab3a 2da1 5dbc 6d3f 4eb8 7938 3d3c
000000a0: 1f5c d0bb 3874 1f3b e1ca 06bd 54eb adbc
000000b0: da1d 4d3c 2d36 82bb dcc7 103b 193f 513c
000000c0: 3b6d e03c 28e5 ceba 90cf 033c 1980 a0bc
000000d0: f468 ad3c 0b36 b2bc a6d9 2dbb 01fb c5bc
000000e0: 4598 b1bc ac1f dd3c 39fd 003b 2d05 ee3b
000000f0: 293b 6fbc 86e0 933b e0b8 6f3a 0f44 093b
00000100: 266b dd3c 1de7 a0bb 0e43 a3bc 546d f3bb
00000110: ac53 013c 804f d13b 0e86 60bb b379 2b3c
00000120: d62d ecbb a9e3 2fbc 33c6 fbbc 8557 873c
00000130: 9653 0dbc 3a21 323c e380 fdbc 1dc8 8dbb
00000140: 4966 5b3c 9030 0ebc bfe6 29bc 5c68 91bb
00000150: a373 08bc f848 0ebc 58b3 f239 713e 1dbb
00000160: eeee b8bc f69f cb3c 1aea c83b d7aa cf3c
00000170: 0759 ef3b 6f23 dcbb dc33 063c a1df bf3c
00000180: 7a2b 90bc 85af 09bc 0a9d 23bc 1023 a63b
00000190: 2b12 553c bd9f f23c 1c06 c838 399f 533b
000001a0: a64f d43c aa8a b8bc add3 563b f555 a03c
000001b0: eee3 a9bc ec77 08bc 49e8 1a3c 1990 fdbc
000001c0: bcda 12bc 60f6 f7bb a253 2c3c 84c7 e93c
000001d0: 1819 c3bb ed67 b73c c9f8 18bc 4e2f b3bb
000001e0: 5ed2 f5bb bce1 02bc 1059 dbbb 07c8 0bbc
000001f0: 9a9d 7fbb c2e5 d63b 6708 ad3c e8d5 e93b
00000200: b503 aabc 9b36 b63b ebba 843c 15e0 b43b
00000210: 7b28 a0bc ba69 aebb c46e 863c 3a39 7d3c
00000220: 7399 933b 678c 9e3c bf03 c83b 5ccc ebbb
00000230: f891 983b f784 80bb bb07 a53b 893d 923c
00000240: 7077 973a 7071 b33b 60d2 963b b48b 5bbc
00000250: 9300 973b 0910 8a3b d408 6abc 4da2 a3bc
00000260: c194 e13c 446c dcbc 9f99 79bc 92c5 44bc
00000270: c23d 6fbb 3f6d 833c 8182 a7bb 1449 c2bc
00000280: a896 be3c f600 963b 3f14 16bd 1689 863b
00000290: 4784 a7bb 1c53 8b3b 7b09 7b3b 2bdd 09bc
000002a0: 8837 82bb 4f19 9a3c 2885 ac3c 6716 893c
000002b0: 7e53 03bc 6c4d 293c b61f 91bb b611 46bb
000002c0: 33fe 98bc 4127 7f3b a400 11bc 3188 963b
000002d0: 5ae0 34bc 6611 4d3c eb71 a23b 16d6 913c
000002e0: 5040 c73c 4e00 88bc 15e1 513c 1873 0cbc
000002f0: d9f4 153c 597d 78bb 1868 3abb 97d8 a5bb

dist.dst_type_linears.2.bias f4 [3]
-0.0014331253 -0.008703158 0.0034663696
00000000: b5d7 bbba b197 0ebc 082c 633b
