route_dev/drl-or/model/test/agent8.pth (torch, 225285 bytes, 31 tensors)

base.actor.0.weight f4 [64, 343]
0	0x3bfed16e	0.007776431
1	0x3e120d49	0.1426288
2	0x3a8aa5ad	0.001057794
3	0x3c087647	0.008328981
4	0xbd4be77c	-0.049781308
5	0x3c804a18	0.01566033
6	0xbde53e70	-0.1119355
7	0xbca5f8ef	-0.020260302
8	0x3d827ebc	0.06371829
9	0xbbb5b4c5	-0.005545231
10	0xbe3d501c	-0.1848759
11	0xbd8d438e	-0.06897651
12	0x3bc8b506	0.0061250953
13	0x3d38f019	0.04515085
14	0xbd9f53c3	-0.07779648
15	0xbd99c9b7	-0.07509177
16	0xbe04fb79	-0.12986554
17	0x3dc66325	0.09686879
18	0x3cffe29c	0.031235985
19	0x3d7dc6bc	0.061957106
20	0xbdbadd4b	-0.091242395
21	0x3cc563fb	0.024095526
22	0xbdf00b95	-0.11720959
23	0xbdc7e064	-0.09759596
24	0xbdb72176	-0.08941929
25	0x3d9a4f40	0.07534647
26	0x3bd4880a	0.0064859437
27	0x3dc1bb85	0.09459595
28	0xbc474c20	-0.012164146
29	0x3c875d87	0.01652409
30	0x3bac2108	0.005252961
31	0x3b84216a	0.0040323036
32	0x3c5c0f64	0.013431404
33	0x3d8e0a7c	0.069355935
34	0x3c13ee94	0.009029049
35	0xbae70010	-0.001762392
36	0x3dd46732	0.103712454
37	0x3c4bc722	0.012437614
38	0x3cb92687	0.02260138
39	0xbc87270e	-0.016498115
40	0x3d0e4faa	0.034743942
41	0x3c8df800	0.01733017
42	0xbc88a1b9	-0.016678678
43	0x3c3fcfb7	0.011707238
44	0xbc02b0ee	-0.007976754
45	0x3d94485a	0.072403625
46	0xbc3104b2	-0.010804342
47	0x3d781f94	0.06057699
48	0xb95ecf1c	-0.00021248724
49	0xbd19633d	-0.037448157
50	0x3c2dbacc	0.010603618
51	0xbd616e44	-0.055036798
52	0x3cfcc69c	0.030856423
53	0xbd9d6931	-0.07686079
54	0xbdcced06	-0.10006146
55	0x3b871bbf	0.0041231806
56	0xbdb974b8	-0.090554655
57	0x3dcafa17	0.09910982
58	0x3ce861b0	0.028366894
59	0x3dcfe404	0.101509124
60	0xbd53a3f8	-0.051670045
61	0x3c3d2af8	0.011545889
62	0x3d778350	0.060427964
63	0x3ddf4cb3	0.10903301
64	0x3c0ff31b	0.008785988
65	0x3d4c1c0f	0.049831446
66	0x3bd0f7e7	0.0063772085
67	0x3d12d6d0	0.035849392
68	0xbe16c73a	-0.14724436
69	0xbbf2bbf5	-0.00740766
70	0x3d809ba0	0.06279683
71	0x3c9e6907	0.01933719
72	0x3a70334c	0.0009162917
73	0x3d19e6c8	0.037573606
74	0x3d11217f	0.035432335
75	0x3de293fb	0.11063381
76	0x3b5d9bd1	0.0033814798
77	0x3ced4376	0.028962832
78	0x3d3c0839	0.04590628
79	0x3e075d34	0.13219148
80	0x3ddba821	0.107254274
81	0x3cb9f7bb	0.022701135
82	0xbce04609	-0.027377145
83	0xbd09f0b4	-0.033676818
84	0xbdc24cdb	-0.09487315
85	0xbda31ebd	-0.07964847
86	0x3e3e89f3	0.18607311
87	0x3dc59ef3	0.09649458
88	0x3d04a807	0.032386806
89	0xbd3b3344	-0.045703188
90	0xbde8b5bc	-0.11362788
91	0xbdbcaf5c	-0.09213135
92	0x3d2a727d	0.04161309
93	0xbafa2f51	-0.0019087588
94	0xbd97fb77	-0.0742101
95	0x3de34c20	0.11098504
96	0x3c9c3323	0.019067353
97	0x3d980c18	0.07424182
98	0x3d290aaa	0.041269936
99	0xbb687ef3	-0.0035476058
100	0x3e11111b	0.14166681
101	0xbd8c82a4	-0.06860855
102	0x3a42c027	0.00074291456
103	0x3d47268d	0.04862075
104	0x3d30c279	0.043154214
105	0xbd85cc60	-0.06533122
106	0x3b9f7f7c	0.0048674922
107	0x3dad6d71	0.0846814
108	0x3ca46a97	0.020070357
109	0x3d8f76d0	0.070050836
110	0xbdd07300	-0.101781845
111	0x3e1bb7d8	0.1520685
112	0xbe211121	-0.1572919
113	0x3d868774	0.065688044
114	0xbd268a5f	-0.040659305
115	0xbc51e0a0	-0.012809902
116	0xbd9545f4	-0.07288733
117	0x3dfe0c1d	0.12404654
118	0xbd4a4972	-0.04938645
119	0xbdbe8091	-0.09301866
120	0x3d34380a	0.043998756
121	0xbd2cccd6	-0.042187534
122	0xbcd00f7e	-0.025398012
123	0x3d871c61	0.0659721
124	0x3d1c4fd7	0.03816208
125	0x3cfec620	0.031100333
126	0xbd9904e8	-0.07471639
127	0x3de14394	0.10999218
128	0x3ba2ebb7	0.004971947
129	0x3d501ff3	0.05081172
130	0xbd3fd263	-0.0468315
131	0x3cae55c0	0.021281123
132	0x3d520198	0.05127105
133	0xbbdb0ba5	-0.0066847377
134	0xbe38e613	-0.18056516
135	0xbd40093a	-0.0468838
136	0x3aafa9b8	0.001340202
137	0xbaa0dd75	-0.0012273031
138	0x3e0a9142	0.13531974
139	0x3e58562f	0.21126626
140	0x3cda39a6	0.026638817
141	0xbe01745d	-0.12642045
142	0xbd7ce860	-0.061745048
143	0xbda36e4d	-0.079800226
144	0x3d61f294	0.05516298
145	0x3dba331f	0.09091782
146	0xbc9a4077	-0.018829567
147	0x3d72c141	0.059266333
148	0xbd563950	-0.05230075
149	0x3d3c3a25	0.04595389
150	0x3e669e0c	0.22521228
151	0x3c4e0be6	0.012576079
152	0xbdb464cc	-0.08808288
153	0xbd8b5c10	-0.06804669
154	0xbc892197	-0.01673965
155	0x3d869ebe	0.065732464
156	0xbc55a960	-0.01304087
157	0xbd34b252	-0.044115372
158	0x3d1d1671	0.03835148
159	0xbdc5de95	-0.09661595
160	0xbdf45592	-0.11930384
161	0xbdbb45d3	-0.09144177
162	0x3d529c99	0.051418874
163	0xbdd842ff	-0.105596535
164	0xbd909f66	-0.07061653
165	0x3d98847c	0.074471444
166	0x3d66c9e6	0.05634489
167	0x3a270b16	0.00063721964
168	0x3d5be724	0.05368723
169	0xbc024efb	-0.007953401
170	0xbdc0b2ae	-0.094090804
171	0xbd34feb8	-0.04418823
172	0x3de0d6ec	0.10978493
173	0x3c430cd6	0.011904916
174	0x3e073eac	0.13207501
175	0x3e015bc8	0.12632668
176	0xbd297a64	-0.041376486
177	0x3e1c1aa0	0.15244532
178	0x3ddc4e3c	0.107571095
179	0xbd8cbbc1	-0.06871749
180	0x3daf1218	0.08548373
181	0x3d018783	0.031623375
182	0xbdb72d0a	-0.089441374
183	0xbdc81544	-0.09769681
184	0x3d343e90	0.044004977
185	0xbd92a243	-0.07159855
186	0xbdf4a437	-0.11945384
187	0x3e2e70ef	0.17035268
188	0x3d9f72ff	0.07785606
189	0x3d9f6edb	0.07784816
190	0x3ce6b957	0.028164549
191	0xbd2ffdf9	-0.042966817
192	0xbd203fd0	-0.039123356
193	0xbd09ad13	-0.033612322
194	0x3d1741d7	0.036928024
195	0x3d7895dd	0.060689796
196	0x3cf5a185	0.029984245
197	0xbd8893d3	-0.0666882
198	0x3abe1644	0.0014502485
199	0x3d10a29d	0.03531133
200	0x3d8f5b3c	0.069998235
201	0xbdecf07f	-0.115693085
202	0x3deb2d0c	0.114832014
203	0xbc9fb615	-0.019496003
204	0x3c3b07d7	0.011415443
205	0x3cb11483	0.021616226
206	0xbc97ed79	-0.018545853
207	0x3d311391	0.04323155
208	0xbd9bdebc	-0.076108426
209	0xbdbae068	-0.09124833
210	0xbbc5b487	-0.0060334834
211	0xbc448a48	-0.011995859
212	0x3d4d8b58	0.050181717
213	0xbcbf0aa3	-0.023320502
214	0xbc51ee0b	-0.0128131015
215	0x3cb4bf65	0.02206392
216	0xbd2e35db	-0.04253183
217	0x3e754e9b	0.23955767
218	0x3e1999ae	0.1500003
219	0x3d862869	0.065506764
220	0xbc894053	-0.016754305
221	0xbd01678e	-0.031592898
222	0x3dca3960	0.09874225
223	0x3dc6a009	0.09698493
224	0xbc6926bc	-0.014230426
225	0x3ce5ae00	0.028037071
226	0xbe0278f5	-0.12741454
227	0x3d323547	0.04350784
228	0x3d055d33	0.032559585
229	0xbd0b6995	-0.034036238
230	0xbdd54856	-0.104141876
231	0x3d27603e	0.040863268
232	0x3daa9251	0.08328689
233	0xbd4ebf55	-0.050475437
234	0x3dfe5366	0.12418251
235	0x3d91ef88	0.07125765
236	0x3d98ec08	0.074668944
237	0xbbee6335	-0.00727501
238	0x3dc78ed3	0.097440384
239	0xbe1fb6a1	-0.15597011
240	0x3b852ac1	0.0040639346
241	0x3d050868	0.03247872
242	0xbd733dd4	-0.059385136
243	0x3dad7332	0.084692374
244	0xbd541634	-0.051778987
245	0xbdbeef00	-0.093229294
246	0xbdfb9121	-0.122835405
247	0xbc303b55	-0.010756333
248	0xbdd69c61	-0.10479046
249	0xbb30efff	-0.0026998518
250	0x3be4a367	0.006977487
251	0xbd8b8bd2	-0.06813778
252	0xbe0afc64	-0.13572842
253	0xbd681d5f	-0.056668635
254	0xbdc1cd89	-0.09463031
255	0x3d0807fa	0.033210732

base.actor.0.bias f4 [64]
0	0x00000000	0.0
1	0x00000000	0.0
2	0x00000000	0.0
3	0x00000000	0.0
4	0x00000000	0.0
5	0x00000000	0.0
6	0x00000000	0.0
7	0x00000000	0.0
8	0x00000000	0.0
9	0x00000000	0.0
10	0x00000000	0.0
11	0x00000000	0.0
12	0x00000000	0.0
13	0x00000000	0.0
14	0x00000000	0.0
15	0x00000000	0.0
16	0x00000000	0.0
17	0x00000000	0.0
18	0x00000000	0.0
19	0x00000000	0.0
20	0x00000000	0.0
21	0x00000000	0.0
22	0x00000000	0.0
23	0x00000000	0.0
24	0x00000000	0.0
25	0x00000000	0.0
26	0x00000000	0.0
27	0x00000000	0.0
28	0x00000000	0.0
29	0x00000000	0.0
30	0x00000000	0.0
31	0x00000000	0.0
32	0x00000000	0.0
33	0x00000000	0.0
34	0x00000000	0.0
35	0x00000000	0.0
36	0x00000000	0.0
37	0x00000000	0.0
38	0x00000000	0.0
39	0x00000000	0.0
40	0x00000000	0.0
41	0x00000000	0.0
42	0x00000000	0.0
43	0x00000000	0.0
44	0x00000000	0.0
45	0x00000000	0.0
46	0x00000000	0.0
47	0x00000000	0.0
48	0x00000000	0.0
49	0x00000000	0.0
50	0x00000000	0.0
51	0x00000000	0.0
52	0x00000000	0.0
53	0x00000000	0.0
54	0x00000000	0.0
55	0x00000000	0.0
56	0x00000000	0.0
57	0x00000000	0.0
58	0x00000000	0.0
59	0x00000000	0.0
60	0x00000000	0.0
61	0x00000000	0.0
62	0x00000000	0.0
63	0x00000000	0.0

base.actor.2.weight f4 [64, 64]
0	0x3d6180c2	0.055054434
1	0xbe332f73	-0.17498569
2	0x3e4b65f4	0.19863111
3	0xbdbe85ce	-0.09302865
4	0xbdd4bc3a	-0.10387464
5	0x3d6afa90	0.05736786
6	0xbd5ab08c	-0.053391024
7	0xbe20fb9a	-0.15720978
8	0xbdcf5b76	-0.10124867
9	0xbeafefda	-0.3436268
10	0xbe914604	-0.2837373
11	0xbe998da9	-0.2999089
12	0xbed1a186	-0.40943545
13	0x3d8355e2	0.06412865
14	0xbe33698e	-0.17520735
15	0xbe2785ac	-0.16359586
16	0xbdba079e	-0.09083484
17	0x3e97928b	0.2960399
18	0xbdeffc5a	-0.11718054
19	0xbdbdb6d0	-0.09263384
20	0x3ed098e7	0.40741655
21	0x3da65028	0.08120757
22	0xbe069316	-0.13142046
23	0xbd44b114	-0.048020437
24	0xbd8143f4	-0.06311789
25	0xbe34d47b	-0.1765918
26	0x3ddbe177	0.107363634
27	0x3dc54350	0.096319795
28	0x3c682f25	0.014171396
29	0xbe2e60c1	-0.17029096
30	0x3e1bea28	0.15226042
31	0xbe53f150	-0.20697522
32	0x3ed4e41b	0.4158028
33	0xbd29d2cf	-0.04146081
34	0xbd8c687f	-0.068558685
35	0x3ea8bee1	0.3295813
36	0x3dd990ee	0.10623346
37	0x3e4fdc2e	0.20298836
38	0x39cda692	0.00039224752
39	0xbd99c636	-0.07508509
40	0x3d821de5	0.06353358
41	0x3ebf3af1	0.37349656
42	0x3e357c8a	0.17723289
43	0xbe6f33a2	-0.2335954
44	0xbe392792	-0.18081501
45	0xbe7db0df	-0.24774502
46	0xbe2b5dce	-0.16735002
47	0xbd6f7750	-0.058463395
48	0x3e3a9ed5	0.18224652
49	0x3e34fb72	0.17674044
50	0x3d796595	0.06088789
51	0xbe4a6e00	-0.19768524
52	0xbccf36e5	-0.02529473
53	0xbcc8a534	-0.024492837
54	0x3e1345bf	0.14382075
55	0xbd1aba76	-0.03777548
56	0x3e8ce44f	0.27517936
57	0x3dc0a5fc	0.09406659
58	0x3c92a8ed	0.017902816
59	0x3ca546f9	0.020175444
60	0xbd6dc81c	-0.058052167
61	0xbc20ea50	-0.009821489
62	0x3e163537	0.14668737
63	0x3b4cf137	0.0031271705
64	0xbe8b33b7	-0.27187893
65	0xbe916c7c	-0.2840308
66	0x3e5938bb	0.21213047
67	0xbdbab2a4	-0.09116104
68	0xbe36a6a7	-0.1783701
69	0x3e545a2f	0.20737527
70	0xbe72e411	-0.23719813
71	0xbeae0714	-0.33989775
72	0xbe33c99b	-0.17557375
73	0xbe75c758	-0.24001825
74	0x3d459e4e	0.048246674
75	0x3e4c07ec	0.19924897
76	0xbe9ea1f9	-0.3098295
77	0xbddcdfce	-0.10784875
78	0xbcdaca2f	-0.026707737
79	0x3d3c672c	0.04599683
80	0x3e42657f	0.1898403
81	0xbd3dcffc	-0.046340927
82	0xbe083f40	-0.13305378
83	0xbbb5f9d2	-0.0055534625
84	0xbd32050e	-0.04346185
85	0x3e7cda65	0.24692686
86	0x3e80ed5f	0.251811
87	0xbdf64ab2	-0.12025966
88	0x3e37807b	0.17920105
89	0x3e9854f3	0.2975231
90	0xbe7bfc47	-0.24607955
91	0xbd1419e0	-0.03615749
92	0x3dea64ae	0.114449844
93	0x3dbef6e4	0.093244344
94	0xbeb63d7c	-0.35593784
95	0xbb620507	-0.003448786
96	0x3e80adbf	0.25132558
97	0xbe448dee	-0.19194767
98	0x3ea965bb	0.33085427
99	0x3c87d560	0.016581237
100	0x3e86c2cd	0.26320496
101	0xbe8df00d	-0.27722207
102	0xbd2904a6	-0.0412642
103	0x3e1533d8	0.14570558
104	0xbe0bf58d	-0.13667889
105	0xbcb12059	-0.02162187
106	0x3ddae304	0.10687831
107	0xbdde2178	-0.108462274
108	0x3e1c2ade	0.15250728
109	0x3ce9ce31	0.028540703
110	0x3bce1f56	0.0062903566
111	0xbb7fce74	-0.0039032968
112	0xbe141cc1	-0.14464094
113	0xbdb4bbae	-0.088248596
114	0xbc8a6691	-0.01689461
115	0x3dce8f26	0.10085897
116	0xbe0b0e7b	-0.13579743
117	0xbdb28e4a	-0.08718546
118	0x3e097b58	0.13425958
119	0x3e9a66f2	0.30156666
120	0x3e036cfa	0.1283454
121	0xbebbea2d	-0.367021
122	0x3d06db12	0.032923765
123	0x3e26f8ee	0.16305897
124	0xbdccc88a	-0.09999187
125	0x3e80acb8	0.25131774
126	0xbe0c021b	-0.13672678
127	0xbe220e5d	-0.15825792
128	0xbe9914de	-0.29898733
129	0xbd60ff4d	-0.054930974
130	0xbddd8e15	-0.108181156
131	0xbcb3c9e7	-0.02194686
132	0xbe93a3a6	-0.2883579
133	0x3e56981c	0.20956463
134	0xbe762c69	-0.24040379
135	0x3d444bd2	0.04792387
136	0x3ed886de	0.42290395
137	0x3df0ba53	0.117542885
138	0x3e477dd5	0.19481595
139	0xbed0b42a	-0.40762454
140	0x3e3b9849	0.18319811
141	0xbdc7e045	-0.09759573
142	0x3d405c6d	0.046963144
143	0x3cc468c0	0.02397573
144	0x3dddf60f	0.108379476
145	0xbd484eb3	-0.04890318
146	0x3e4ea7a4	0.20181137
147	0x3e4c4ae9	0.19950451
148	0x3d9e87b3	0.07740726
149	0xbcc089b4	-0.023503162
150	0x3e9aa152	0.30201203
151	0x3e24b533	0.16084747
152	0x3e28003f	0.16406344
153	0x3c6aff52	0.0143431
154	0xbe0552e7	-0.13019906
155	0x3e363c41	0.17796423
156	0x3e13092c	0.14358968
157	0x3e1fbc80	0.15599251
158	0x3d17de72	0.037077375
159	0xbe95b55e	-0.29239935
160	0xbe775810	-0.24154687
161	0xbddf6d7c	-0.10909554
162	0xbc3e0b58	-0.011599384
163	0x3e1a5843	0.15072732
164	0x3e4ebc5c	0.20189041
165	0xbe60d10d	-0.21954747
166	0xbd096850	-0.033546746
167	0xbe5a7b0c	-0.21336001
168	0xbe19a7e9	-0.15005459
169	0x3d0dec1b	0.034648996
170	0xbe04072f	-0.12893365
171	0x3dc1b32d	0.09458003
172	0xbea53cb7	-0.32272884
173	0x3cb0b792	0.021571908
174	0xbd977c47	-0.07396751
175	0xbe97b53a	-0.29630452
176	0x3e3228b8	0.17398345
177	0x3c3521ec	0.011055451
178	0xbd942f57	-0.07235592
179	0xbd65a16a	-0.05606214
180	0x3da25413	0.07926192
181	0xbcc18e8f	-0.023627548
182	0x3d860b47	0.0654512
183	0xbe19701a	-0.1498417
184	0xbe7262eb	-0.23670547
185	0x3de36b85	0.11104492
186	0x3d5759e8	0.052575976
187	0x3dc43e81	0.09582234
188	0xbe33dea7	-0.17565404
189	0xbdad03c7	-0.08447986
190	0x3ef82ae4	0.48470223
191	0x3e088502	0.13331988
192	0xbe7f0bc7	-0.24906836
193	0xbe2462e7	-0.16053353
194	0x3eca2e7c	0.3948859
195	0xbeac6160	-0.3366804
196	0x3d1fcc9e	0.039013498
197	0x3ee535f6	0.4476773
198	0x3db371c3	0.08761933
199	0x3ddc8b58	0.10768765
200	0x3e368b7e	0.1782665
201	0xbdae6cd9	-0.08516855
202	0xbdb2e8e5	-0.08735827
203	0xbc8d596b	-0.017254552
204	0x3e1a53a8	0.15070975
205	0x3c5185a7	0.012788213
206	0x3ecd7b5f	0.40133187
207	0x3e5c742a	0.21528688
208	0x3cfba311	0.030717405
209	0xbdbb4b77	-0.09145253
210	0xbe1e49de	-0.15457866
211	0xbd96bf19	-0.07360668
212	0xbe1250ac	-0.14288586
213	0xbdebf912	-0.11522116
214	0xbc831bf6	-0.016004544
215	0x3d877ef7	0.066160135
216	0xbc050ded	-0.008120996
217	0x3cb68c24	0.022283621
218	0xbc0cebe9	-0.008601167
219	0xbe06594f	-0.13120006
220	0xbd132fc0	-0.03593421
221	0xbe0709d7	-0.13187347
222	0x3b973a7d	0.0046151266
223	0x3e0581ad	0.13037749
224	0xbca2a1c3	-0.019852525
225	0xbcc3f22d	-0.02391919
226	0xbe4dbc61	-0.20091392
227	0x3e04e31e	0.12977263
228	0x3e6962df	0.22791623
229	0x3dc00d1b	0.093775
230	0xbe34f01b	-0.17669718
231	0x3d8aa0c3	0.06768944
232	0x3db0aae7	0.08626347
233	0x3eb2c0d8	0.34912753
234	0x3e3aed27	0.18254529
235	0xb8039488	-3.1371164e-05
236	0xbe49f3c5	-0.19721897
237	0xbe6fa267	-0.23401795
238	0x3da1a111	0.07892049
239	0x3ebb24af	0.36551425
240	0xbe599b1b	-0.21250574
241	0xbd57853d	-0.0526173
242	0x3e717db6	0.23583111
243	0xbda36668	-0.07978517
244	0x3eb54d47	0.3541052
245	0x3c02125a	0.007938946
246	0xbe548729	-0.20754685
247	0x3e1ee711	0.15517832
248	0xbcd64ca6	-0.026159596
249	0xbe89c849	-0.26910618
250	0xbe89999a	-0.26875
251	0xbde9ae84	-0.11410239
252	0x3e71c2ef	0.23609518
253	0xbe6f898e	-0.23392317
254	0xbd2e3cea	-0.04253856
255	0xbdf44254	-0.119267136

base.actor.2.bias f4 [64]
0	0x3cc342cc	0.023835562
1	0x3c974f88	0.01847054
2	0xbcbcbcc4	-0.02303923
3	0x3ca01e85	0.019545803
4	0x3d092c74	0.03348966
5	0xbc95c2da	-0.018281389
6	0x3d1014d8	0.03517613
7	0xbc84cce9	-0.01621099
8	0xbc12eb72	-0.008967267
9	0xbd1debb9	-0.03855488
10	0xbd01a59b	-0.031652074
11	0xbc57c93e	-0.0131705385
12	0x3d29ee3f	0.041486975
13	0xbd23312c	-0.039841816
14	0xbc9ed07f	-0.019386528
15	0xbca3dd83	-0.020003086
16	0x3c2b0ba5	0.010439788
17	0x3be2641d	0.006908907
18	0x3cfa4814	0.030551948
19	0xbcf2a00c	-0.029617332
20	0xbc3595e9	-0.011083105
21	0x3c8d41c4	0.017243274
22	0xbd0cafb1	-0.03434724
23	0x3ca303ba	0.019899238
24	0xbca86c99	-0.020559596
25	0x3c4119af	0.011785909
26	0x3c459023	0.012058291
27	0xbc9a4b99	-0.018834876
28	0xbd20ccd7	-0.03925785
29	0x3c415403	0.011799815
30	0x3cb5c496	0.022188466
31	0x3d17dc4b	0.037075322
32	0xbcaa656e	-0.020800319
33	0xbd0f0ae1	-0.034922484
34	0xbc9627aa	-0.01832946
35	0x3d1edfb0	0.038787544
36	0xbc3b648f	-0.011437549
37	0xbc820e05	-0.015875826
38	0x3c433d14	0.011916418
39	0x3c9e93d6	0.019357603
40	0xbb8134fa	-0.003943083
41	0xbc9f2b21	-0.019429745
42	0xbd161143	-0.036637556
43	0xbca69e32	-0.020339105
44	0x3d16c0f2	0.0368051
45	0xbd072dc0	-0.033002615
46	0x3d00011f	0.03125107
47	0xbd2b2582	-0.041783817
48	0x3c82244f	0.015886454
49	0x3c9dc227	0.019257618
50	0x3d1736db	0.03691755
51	0x3c806a61	0.015675725
52	0x3c9a5f78	0.018844351
53	0xbcfd01bc	-0.030884616
54	0xbcf3920f	-0.029732732
55	0x3c9d2727	0.019183708
56	0xbcfa5eba	-0.030562747
57	0x3c1c1196	0.009525677
58	0x3c6e1f84	0.014533881
59	0x3d134cb9	0.03596184
60	0x3d1dd0c5	0.038529176
61	0xbd21dfa0	-0.039519906
62	0xbc1170dd	-0.008877006
63	0xbd0eb569	-0.034840975

base.critic.0.weight f4 [64, 332]
0	0xbc245af9	-0.010031455
1	0xbe653bae	-0.22386047
2	0x3d803038	0.06259197
3	0x3da0088c	0.0781413
4	0xbcd3493e	-0.02579176
5	0xbda0ee8a	-0.07857998
6	0xbe0546d9	-0.13015307
7	0x3c8b2db9	0.016989576
8	0x3d60e505	0.05490591
9	0xbdb637d3	-0.088973664
10	0xbddf459b	-0.10901948
11	0xbd414ae5	-0.047190566
12	0x3d8477be	0.064681515
13	0xbc8b3859	-0.016994642
14	0xbd54a4d3	-0.051915
15	0x3d8d70ae	0.069062576
16	0xbd097473	-0.03355832
17	0xbc9fd1b4	-0.019509174
18	0x3d51ce54	0.05122216
19	0xbddbd0ab	-0.1073316
20	0xbc517a1e	-0.012785463
21	0x3b962314	0.0045818184
22	0x3d912fe6	0.07089214
23	0xbd75e589	-0.060033355
24	0xbc178039	-0.009246879
25	0xbd61af8d	-0.05509906
26	0x3b90a47a	0.0044141384
27	0x3e064cfa	0.13115302
28	0x3d443bb0	0.047908485
29	0xbc22d75a	-0.009939039
30	0xbd5f43cb	-0.05450801
31	0xbdea5adf	-0.114431135
32	0x3c3a03e9	0.011353471
33	0xbbdd1c29	-0.0067477417
34	0x3dc71b28	0.097219765
35	0xbc2fe200	-0.010735035
36	0xbd946acd	-0.07246933
37	0x3ddbeddd	0.10738728
38	0x3d97cb97	0.074118786
39	0xbcffcbdf	-0.031225143
40	0xbb9ac197	-0.0047227847
41	0xbdde7664	-0.10862425
42	0x3e0a0c87	0.13481341
43	0xbe178390	-0.14796281
44	0xbd8ccfd4	-0.068755776
45	0xbc98d999	-0.018658446
46	0xbafbadb8	-0.0019201552
47	0xbd67025b	-0.05639873
48	0x3d2775df	0.040883895
49	0x3cf0a2d9	0.029374527
50	0xbb524121	-0.0032082277
51	0xbdbfb9f7	-0.09361642
52	0xbda0a0fd	-0.07843206
53	0xbd768620	-0.060186505
54	0x3d9bf7a5	0.07615594
55	0xbe21a4e8	-0.15785563
56	0xbd7cabe4	-0.061687365
57	0xbbe1ce3e	-0.006891041
58	0x3d70137e	0.05861234
59	0x3de9dd05	0.11419109
60	0xbd022aa9	-0.031778965
61	0x3dcfdb99	0.10149307
62	0xbc945c5b	-0.018110445
63	0x3d542d71	0.05180115
64	0xbde2f7d9	-0.110824294
65	0xbb802999	-0.003911209
66	0x3b8a42c3	0.0042193844
67	0x3b9547aa	0.004555662
68	0x3d2210df	0.03956687
69	0xbd4d395d	-0.050103534
70	0x3d2b987c	0.041893467
71	0x3b4be689	0.0031112751
72	0xbd58071e	-0.052741162
73	0xbe02eb59	-0.1278509
74	0xbc85a1c4	-0.016312487
75	0xbd8df2fe	-0.06931113
76	0xbdff9d7f	-0.12481212
77	0xbcd7d20d	-0.026345277
78	0xbd0b876a	-0.034064688
79	0x3c88d681	0.016703846
80	0x3d8e78b6	0.069566175
81	0xbcd8a55a	-0.026446033
82	0xbd304e30	-0.043043315
83	0xbc44a91a	-0.012003208
84	0xbd5f8101	-0.054566387
85	0x3b73f429	0.0037224388
86	0x3e3550eb	0.17706649
87	0x3df507ca	0.11964376
88	0x3d7102d0	0.058840573
89	0x3d10c92f	0.035348114
90	0xbdab4b3d	-0.0836396
91	0x3d8f7922	0.07005526
92	0xbcd10a28	-0.025517538
93	0x3db6a4a8	0.089181244
94	0x3c852ebc	0.016257636
95	0xbd84ea4d	-0.06490002
96	0x3cf5501c	0.029945426
97	0xbd81b1ed	-0.06332765
98	0xbd181321	-0.037127618
99	0x3dac2e6c	0.08407292
100	0x3c7f0b70	0.015566692
101	0xbd5bdcbd	-0.05367731
102	0xbc7bb76f	-0.015363558
103	0xbde8d3d5	-0.11368529
104	0x3d273207	0.040819194
105	0x3d6e57f5	0.05818935
106	0x3d988a6c	0.07448277
107	0xbd5a73d1	-0.053333107
108	0x3d2cb3a9	0.042163525
109	0xbd4a2a6c	-0.049356863
110	0x3a8690c0	0.0010266528
111	0xbdd26f1b	-0.10275098
112	0x3d9f9e59	0.07793874
113	0xbd9794d4	-0.074014336
114	0x3e0fe280	0.14051247
115	0x3d9d9559	0.076945014
116	0xbe349fe9	-0.17639126
117	0x3cfe994a	0.031078953
118	0xbd6c8886	-0.057747386
119	0x3dac53c6	0.08414416
120	0xbd320374	-0.043460324
121	0xbdc6f002	-0.097137466
122	0xbdae9309	-0.085241385
123	0xbcc965eb	-0.024584731
124	0x3d8b9d81	0.06817151
125	0xbd12b5d0	-0.03581792
126	0xbde278c3	-0.1105819
127	0x3d885540	0.06656885
128	0xbc122b06	-0.00892139
129	0xbd9a3458	-0.07529515
130	0xbd82a124	-0.063783914
131	0xbdd33279	-0.10312361
132	0xbcb17f7b	-0.021667233
133	0x3e044c9d	0.1291985
134	0xbd94dd39	-0.072687574
135	0x3d07f62b	0.03319375
136	0x3d815693	0.06315341
137	0xbd1c0c3e	-0.038097613
138	0xbe05b525	-0.13057382
139	0x3ddee09e	0.10882686
140	0xbd220021	-0.039550904
141	0xbd246e3c	-0.04014419
142	0xbd97afdf	-0.074065916
143	0x3d9a82bd	0.075444676
144	0x3d1ab89a	0.037773706
145	0xbbda8f58	-0.00666992
146	0xbdb8db49	-0.090262
147	0x3e0229df	0.12711285
148	0xbda858ef	-0.08220088
149	0x3cb7d826	0.022441935
150	0x3a18dfaa	0.00058316684
151	0x3ccf7783	0.025325542
152	0x3dd7ba9e	0.10533641
153	0x3d925bca	0.071464136
154	0xbdafc80e	-0.08583079
155	0x3d50f360	0.05101335
156	0x3cc8ebed	0.02452656
157	0x3e0c26e8	0.13686717
158	0x3da7cec3	0.081937335
159	0x3cec2341	0.028825404
160	0xbd2e36bc	-0.042532668
161	0xbda74475	-0.08167354
162	0x3e0a1e93	0.13488226
163	0xbd82d6f4	-0.06388655
164	0xbd995d60	-0.07488513
165	0xbd002662	-0.031286605
166	0x3d2702b0	0.040774047
167	0xbd8e038d	-0.06934271
168	0x3dc836c3	0.0977607
169	0x3c3f6df1	0.011683927
170	0x3e12d5d8	0.14339387
171	0x3c4a20da	0.012336934
172	0xbe1af779	-0.15133466
173	0x3df28b21	0.11842943
174	0xbca16577	-0.019701703
175	0x3df4a299	0.119450755
176	0x3e049c36	0.12950215
177	0xbe3fe4c0	-0.18739605
178	0x3dcb46b6	0.099255964
179	0x3d3b34ba	0.04570458
180	0xbc40f75e	-0.011777727
181	0xbd64fef8	-0.05590722
182	0xbcdeb805	-0.027187357
183	0xbdb88e8a	-0.09011562
184	0x3e008f71	0.12554719
185	0xbda2519a	-0.079257205
186	0x3ce83a06	0.02834798
187	0xbcbb62cb	-0.022874257
188	0x3e555b08	0.20835507
189	0x3d5bda2f	0.053674873
190	0xbda07b88	-0.07836062
191	0xbd9184a0	-0.07105374
192	0x3d2d608e	0.04232841
193	0xbc963e30	-0.0183402
194	0x3d2ea4cf	0.042637642
195	0xbde86ff6	-0.1134948
196	0x3dccacb5	0.09993879
197	0xbd51e929	-0.05124775
198	0x3dd9cef7	0.106351785
199	0xbcd249a4	-0.02566988
200	0x3c1c76c2	0.009549798
201	0xbd84f885	-0.06492714
202	0xbb49c59f	-0.0030787957
203	0x3c47da06	0.012197977
204	0xbe1cd6c5	-0.15316303
205	0x3df9d069	0.12197954
206	0x3d921e12	0.07134642
207	0x3d3e24d5	0.046421845
208	0x3d44bdb4	0.048032477
209	0xbde16917	-0.110063724
210	0x3d01dcdb	0.031704765
211	0x3d1681c8	0.036744863
212	0xbcfc3501	-0.030786993
213	0x3d86aa48	0.06575447
214	0x3ded537e	0.115881905
215	0x3dd260ee	0.10272394
216	0xbc24772e	-0.01003818
217	0x3e0a245c	0.13490433
218	0x3d600690	0.05469376
219	0x3d89abbc	0.06722209
220	0xbd788e97	-0.06068286
221	0xbda31243	-0.079624675
222	0xbc54273e	-0.012948809
223	0xbe3357b3	-0.17513923
224	0x3e2c5638	0.16829765
225	0x3be73e44	0.007056983
226	0x3c47c0fc	0.012192007
227	0x3da9f626	0.08298902
228	0xbd404578	-0.04694125
229	0xbd6f1925	-0.05837359
230	0x3d1e9def	0.038724836
231	0x3b4288a0	0.0029683486
232	0x3e01e2f5	0.12684233
233	0x3dbe1aeb	0.09282478
234	0xbddd3e6a	-0.1080292
235	0x3e09b735	0.13448794
236	0xbd456d9f	-0.048200246
237	0x3c1eb5c8	0.009686895
238	0x3c099b48	0.008398838
239	0xbbfc5579	-0.007700619
240	0x3d8023f1	0.06256855
241	0x3decd1a2	0.11563422
242	0x3d443150	0.04789859
243	0xbd6a8e64	-0.0572647
244	0x3cd3dbcf	0.025861649
245	0x3d0946b7	0.033514705
246	0xbd86e582	-0.06586744
247	0x3d7198c3	0.058983576
248	0xbdef09d2	-0.11671795
249	0x3b5ed142	0.003399924
250	0x3d2e197a	0.042504765
251	0x3cc0f2a8	0.023553208
252	0xbe768451	-0.24073912
253	0xbc8ae714	-0.01695589
254	0x3e0e8486	0.13917741
255	0xbd25838e	-0.040408663

base.critic.0.bias f4 [64]
0	0x00000000	0.0
1	0x00000000	0.0
2	0x00000000	0.0
3	0x00000000	0.0
4	0x00000000	0.0
5	0x00000000	0.0
6	0x00000000	0.0
7	0x00000000	0.0
8	0x00000000	0.0
9	0x00000000	0.0
10	0x00000000	0.0
11	0x00000000	0.0
12	0x00000000	0.0
13	0x386fd206	5.717764e-05
14	0x00000000	0.0
15	0x00000000	0.0
16	0x00000000	0.0
17	0x00000000	0.0
18	0x00000000	0.0
19	0x00000000	0.0
20	0x00000000	0.0
21	0x00000000	0.0
22	0x00000000	0.0
23	0x00000000	0.0
24	0x00000000	0.0
25	0x00000000	0.0
26	0x00000000	0.0
27	0x00000000	0.0
28	0x00000000	0.0
29	0x00000000	0.0
30	0x00000000	0.0
31	0x00000000	0.0
32	0x00000000	0.0
33	0x00000000	0.0
34	0x00000000	0.0
35	0x00000000	0.0
36	0x00000000	0.0
37	0x00000000	0.0
38	0x00000000	0.0
39	0x00000000	0.0
40	0x00000000	0.0
41	0x00000000	0.0
42	0x00000000	0.0
43	0x00000000	0.0
44	0x00000000	0.0
45	0x00000000	0.0
46	0x00000000	0.0
47	0x00000000	0.0
48	0x00000000	0.0
49	0x00000000	0.0
50	0x00000000	0.0
51	0x00000000	0.0
52	0x00000000	0.0
53	0x34b83e4f	3.4318006e-07
54	0x00000000	0.0
55	0x00000000	0.0
56	0x00000000	0.0
57	0x00000000	0.0
58	0x00000000	0.0
59	0x00000000	0.0
60	0x00000000	0.0
61	0x00000000	0.0
62	0x00000000	0.0
63	0x00000000	0.0

base.critic.2.weight f4 [64, 64]
0	0xbbea309a	-0.007146907
1	0xbe2d70b3	-0.16937523
2	0x3e1c88d5	0.15286572
3	0x3e46dfa1	0.19421245
4	0x3e2967bf	0.16543482
5	0x3e2c956f	0.1685388
6	0xbe403bfb	-0.1877288
7	0xbd6231a1	-0.05522311
8	0x3d8d5c8b	0.06902417
9	0x3ea9a796	0.3313567
10	0x3e158ca1	0.14604427
11	0x3cca0c17	0.024663968
12	0xbc28ae82	-0.010295512
13	0x3e183a1c	0.14865917
14	0x3e1ad769	0.15121235
15	0x3cc6e06d	0.024276936
16	0x3c2baf12	0.010478752
17	0x3e9b89ce	0.30378574
18	0x3e8c77c4	0.27435124
19	0xbe9e1f68	-0.30883336
20	0x3e118c8d	0.14213772
21	0x3d84c9c5	0.06483797
22	0x3e03bd7b	0.1286525
23	0x3b943a98	0.0045235865
24	0x3e336b5d	0.17521425
25	0xbd014f29	-0.031569634
26	0x3e1a50c1	0.15069868
27	0xbd32831d	-0.04358207
28	0x3d561ab8	0.052271575
29	0xbe451de1	-0.19249679
30	0xbdb95023	-0.09048488
31	0xbe733857	-0.2375196
32	0xbece58ce	-0.40302128
33	0x3dd3b739	0.10337681
34	0x3eaca811	0.33721974
35	0x3ea93fb9	0.3305643
36	0xbe938c09	-0.28817776
37	0xbe8c46e3	-0.27397832
38	0x3e18175f	0.14852665
39	0xbe5a942b	-0.21345584
40	0x3e41ebb3	0.18937568
41	0xbc72e51b	-0.014825131
42	0xbe607915	-0.21921189
43	0xbd828d10	-0.06374562
44	0x3d5ec98c	0.05439143
45	0xbd075daf	-0.033048328
46	0x3d3fedc3	0.046857607
47	0x3e69905b	0.22808973
48	0xbdc3ed29	-0.09566719
49	0xbdddcd49	-0.10830171
50	0x3b38c633	0.0028194308
51	0xbd9d38f5	-0.07676879
52	0xbd5760d3	-0.052582573
53	0xbc91ca69	-0.017796712
54	0x3e12e173	0.14343815
55	0xbdfabb6f	-0.12242781
56	0xbe9b29e7	-0.30305406
57	0xbeb34743	-0.35015306
58	0xbd9a5360	-0.07535434
59	0x3e380449	0.17970385
60	0x3e8ed700	0.27898407
61	0xbd9bc606	-0.07606129
62	0x3d796b63	0.060893428
63	0x3e344689	0.17605032
64	0x3e1f60c2	0.15564254
65	0xbd19bf27	-0.037535813
66	0x3dbb942a	0.091591194
67	0xbe22444b	-0.15846364
68	0xbcf057ac	-0.02933868
69	0xbe62ea1f	-0.22159623
70	0x3eec751c	0.46183097
71	0xbe23a773	-0.15981846
72	0xbdc207a6	-0.09474115
73	0x3d52051f	0.051274415
74	0x3e1eb221	0.15497638
75	0x3cc7a66a	0.024371345
76	0xbe36172d	-0.17782278
77	0x3e04dbdb	0.12974493
78	0x3e2d3b33	0.16917114
79	0xbe1227ac	-0.14272946
80	0x3d425a25	0.04744925
81	0x3e051a61	0.12998344
82	0x3d0a1152	0.033707924
83	0x3e3a7d58	0.18211877
84	0x3e0c4acc	0.13700408
85	0xbdff8c7c	-0.12477967
86	0x3d176b27	0.036967423
87	0xbd04b173	-0.03239579
88	0xbe5f3731	-0.21798398
89	0xbd22c601	-0.039739612
90	0xbe01a8b3	-0.1266201
91	0x3db3f0de	0.08786176
92	0xbedf542c	-0.43618906
93	0x3d4c3561	0.049855594
94	0x3e6b75f4	0.22994214
95	0xbebc5396	-0.3678252
96	0x3e90e316	0.28298253
97	0xbdd82974	-0.105547816
98	0xbe6fdc77	-0.23423944
99	0xbe53d34c	-0.20686072
100	0xbe27c543	-0.16383843
101	0xbe5e0be3	-0.21684222
102	0x3c2dd0a3	0.010608825
103	0x3e8f8eee	0.28038734
104	0xbe33ed9a	-0.17571107
105	0xbe3384c4	-0.17531115
106	0xbe3478fe	-0.1762428
107	0x3d358e07	0.0443249
108	0x3dbaafb0	0.09115541
109	0xbd77a4a0	-0.060459733
110	0xbcdc951a	-0.026926566
111	0x3e65a4b7	0.22426115
112	0xbdcf218a	-0.10113819
113	0x3cc01f1a	0.02345233
114	0x3d9ebd38	0.07750934
115	0x3d169ce1	0.036770705
116	0x3e2a6e83	0.1664372
117	0xbdc3f3e8	-0.09568006
118	0x3e916800	0.28399658
119	0x3e8548ec	0.26032197
120	0xbea5d59c	-0.32389534
121	0xbe27821c	-0.16358227
122	0xbd17f398	-0.037097543
123	0x3e5397d7	0.20663391
124	0xbd170a5e	-0.03687512
125	0xbe5feb4a	-0.218671
126	0x3e640c98	0.22270429
127	0x3d26d951	0.040734593
128	0xbd9d64cb	-0.0768524
129	0x3df53e97	0.11974829
130	0x3e101a90	0.14072633
131	0x3e29f270	0.16596389
132	0x3e323831	0.17404248
133	0xbe83b04c	-0.2572044
134	0x3b6cbfeb	0.0036125134
135	0x3a0c89fc	0.00053611374
136	0xbdaae34b	-0.08344134
137	0xbd4ad65e	-0.049520843
138	0x3cbae263	0.022813028
139	0x3d9a7185	0.075411834
140	0xbc49f64d	-0.012326789
141	0x3e529f92	0.20568684
142	0x3e28d8ea	0.16488996
143	0x3e83bd9f	0.25730607
144	0xbe6e89d8	-0.2329477
145	0xbcc8f745	-0.02453197
146	0xbea3716d	-0.31922475
147	0x3e8483be	0.2588176
148	0x3ce7b909	0.028286474
149	0xbd480e36	-0.048841678
150	0xbd9b72cb	-0.075902544
151	0x3e53d831	0.20687939
152	0x3df407df	0.11915564
153	0x3deab8a3	0.11460998
154	0x3ea22d81	0.31675342
155	0xbe880129	-0.26563385
156	0x3c0e5c26	0.008688962
157	0xbd796601	-0.060888294
158	0xbe297dea	-0.16551939
159	0xbc8755c3	-0.016520387
160	0x3e17fe68	0.14843142
161	0xbd56b3bc	-0.0524175
162	0x3e9b8434	0.303743
163	0x3cd605ba	0.026125778
164	0x3cad7e74	0.021178462
165	0xbe2868b6	-0.16446194
166	0xbb0897b9	-0.0020842387
167	0xbcbc3e7b	-0.022979012
168	0xbe3864b5	-0.18007167
169	0xbd59c7d8	-0.0531691
170	0x3e40b10c	0.18817538
171	0x3e276163	0.16345744
172	0x3de4424c	0.111454576
173	0xbdf4ef6a	-0.11959727
174	0x3dd31f78	0.103087366
175	0xbdd25f8d	-0.10272131
176	0x3e31f0e6	0.17377052
177	0xbe581d91	-0.21105029
178	0x3f117091	0.5681239
179	0xbee7816b	-0.45215926
180	0x3e9f579f	0.31121537
181	0xbd923fc9	-0.07141072
182	0xbd54cf56	-0.051955543
183	0xbdbdac10	-0.09261334
184	0xbe8cf51e	-0.2753076
185	0x3e4e7688	0.20162404
186	0x3d3bf17e	0.0458846
187	0xbe4d5e99	-0.20055617
188	0x3d2a8ef4	0.041640237
189	0xbd505704	-0.050864235
190	0x3d33cfcc	0.043899342
191	0xbd2af1b4	-0.041734412
192	0xbead6324	-0.338647
193	0x3e77a41a	0.24183694
194	0xbd524b21	-0.05134118
195	0x3e5071e5	0.20355947
196	0x3e10571b	0.14095728
197	0x3e0e2663	0.13881831
198	0xbc9c3629	-0.019068794
199	0x3e86f0bb	0.26355538
200	0xbe3e7cdc	-0.18602318
201	0xbe55dc1c	-0.20884746
202	0xbd1c2fe5	-0.038131613
203	0x3e89d8fc	0.26923358
204	0xbe283851	-0.16427733
205	0xbe7dab5e	-0.24772403
206	0x3dbe0ff0	0.092803836
207	0x3d2eb28b	0.04265074
208	0xbe26831c	-0.16260952
209	0x3dcc55d6	0.099773094
210	0x3d895cce	0.06707154
211	0x3e58f46f	0.21186994
212	0xbe508766	-0.2036415
213	0xbc9fcbe1	-0.019506397
214	0x3d96b49e	0.07358669
215	0xbe0ab27d	-0.1354465
216	0x3ddae55a	0.106882766
217	0xbdca0fba	-0.09866281
218	0x3e37f4a8	0.17964423
219	0x3d0fdb5c	0.035121307
220	0xbda1d520	-0.079019785
221	0xbd1d74e0	-0.03844154
222	0x3de3c508	0.11121565
223	0xbe84d39e	-0.259427
224	0x3b7f2d2a	0.0038936832
225	0x3ce144c7	0.027498616
226	0xbdc794aa	-0.09745152
227	0x3e46fa31	0.19431378
228	0xbd443c77	-0.047909226
229	0x3e8976be	0.26848406
230	0xbe841548	-0.25797486
231	0xbd888c06	-0.06667332
232	0x3e265cba	0.1624631
233	0xbe4f0e9d	-0.20220418
234	0x3e1bf14c	0.15228766
235	0xbe192403	-0.14955144
236	0xbdf982a6	-0.12183122
237	0xbdafe494	-0.0858852
238	0xbd3f3fba	-0.046691634
239	0x3ec3c9ed	0.38239995
240	0xbe8901e7	-0.26759264
241	0xbcd7255b	-0.02626293
242	0xbe48d6d6	-0.19613203
243	0x3d9e7a3e	0.077381596
244	0xbd000678	-0.03125617
245	0xbebee8b5	-0.37286916
246	0xbde0a2ba	-0.10968538
247	0x3e03272a	0.12807909
248	0xbeceff35	-0.40429083
249	0x3e98d7df	0.29852197
250	0xbb25b3b6	-0.0025284118
251	0x3cbaf605	0.02282239
252	0xbe232366	-0.15931472
253	0xbc8b1f01	-0.016982557
254	0xbea4c26e	-0.32179588
255	0xbe0cd044	-0.13751322

base.critic.2.bias f4 [64]
0	0x3c3179c6	0.010832256
1	0xba5d02a8	-0.0008430877
2	0xbb30ff18	-0.0027007516
3	0xbc0a7536	-0.008450797
4	0xbc03eb55	-0.008051713
5	0x3c8a3d67	0.016874982
6	0xbbfe2dd4	-0.007756928
7	0xbc0c6acb	-0.008570383
8	0xbbe1b032	-0.006887459
9	0xbb711f75	-0.0036792431
10	0x39cdfac2	0.00039287476
11	0x3c7106a9	0.014711061
12	0xbb484a90	-0.003056202
13	0xbc531d35	-0.0128853815
14	0xbc6d5e2b	-0.014487783
15	0x3c133879	0.008985632
16	0xbb5d6939	-0.0033784641
17	0x3c321236	0.0108686
18	0xbbec1e21	-0.00720574
19	0xbbc397ef	-0.0059690396
20	0x3b5a633e	0.0033323313
21	0x3c12dc5c	0.008963671
22	0xbb922e53	-0.0044610887
23	0xbc1ace2c	-0.009448569
24	0x3b11ddb6	0.0022257394
25	0x3c7ae1b4	0.015312601
26	0x3951fc0c	0.00020025688
27	0x3b2b5165	0.0026141044
28	0xbb712c17	-0.0036799961
29	0xbc016f5a	-0.007900083
30	0xbbd6c2ac	-0.0065539684
31	0xbacc8cd9	-0.0015605941
32	0x3b9df354	0.0048202667
33	0xbc2ec9dd	-0.010668245
34	0x3bb31ad6	0.0054658456
35	0x3b84dd66	0.004054713
36	0xb9d1bd4c	-0.00040004624
37	0xbaf861f3	-0.001895009
38	0xbb84c9db	-0.0040523834
39	0xbb81eea1	-0.0039652144
40	0xbc5bac44	-0.013407771
41	0xbbce9ca6	-0.006305295
42	0xbc13e6a1	-0.009027154
43	0xbc2c8907	-0.010530717
44	0xbb51cc73	-0.003201273
45	0xbb5bf5e2	-0.0033563306
46	0xbbd9cc9e	-0.0066467067
47	0x3c796e13	0.015223998
48	0x3c21c28d	0.009873045
49	0x3b8101c7	0.0039369795
50	0x3c069cbb	0.008216078
51	0xbc0d9810	-0.008642212
52	0x3c2fe221	0.010735066
53	0xbc02072f	-0.007936283
54	0xbb2e1970	-0.0026565455
55	0xbb9d5444	-0.004801305
56	0xbbd29d0c	-0.006427413
57	0x3be091da	0.0068533244
58	0x3b7f5fda	0.0038967044
59	0xbbeef61b	-0.0072925217
60	0xbb9d6a33	-0.0048039197
61	0x3c7e47fe	0.015520094
62	0xbc1ddb91	-0.009634868
63	0xbbcaa610	-0.006184347

base.critic_linear.weight f4 [1, 64]
0	0x3e660732	0.22463682
1	0x3ce18958	0.02753131
2	0xbe3ec3c9	-0.18629374
3	0xbeb0c2fb	-0.34523758
4	0xbd0d5b94	-0.034511164
5	0x3e5fecef	0.21867727
6	0x3ea1f495	0.31631914
7	0xbcfc6b47	-0.030812873
8	0x3e60c563	0.21950297
9	0xbdd2f74d	-0.10301075
10	0xbc92cceb	-0.017919978
11	0x3e5f68b5	0.21817286
12	0xbda160e9	-0.07879812
13	0xbe180ed0	-0.148494
14	0xbdccc074	-0.09997645
15	0xbe5b567a	-0.21419707
16	0x34a7fc15	3.1289588e-07
17	0x3e71b74e	0.23605081
18	0xbda1129b	-0.07864877
19	0xbccb7da8	-0.024840191
20	0xbe4586a6	-0.19289646
21	0x3e2a6dfb	0.16643517
22	0x3d4bdd22	0.049771436
23	0x3de76591	0.11298669
24	0x33917615	6.773568e-08
25	0x3e1817c1	0.14852811
26	0x3dbb0fce	0.09133874
27	0xbd1ac6f1	-0.03778738
28	0x3e8169a4	0.2527591
29	0xbd170f92	-0.036880083
30	0xbe3ce407	-0.1844636
31	0x3d8ffd0b	0.07030686
32	0x3e647733	0.22311096
33	0xbe313aab	-0.17307536
34	0xbe81d5e7	-0.25358507
35	0xbd85eb95	-0.06539074
36	0x3d197f71	0.037475053
37	0x3e650990	0.22366929
38	0xbc0bdfad	-0.008537215
39	0x3d588fc8	0.052871495
40	0xbe1588c3	-0.14602952
41	0xbe3db35f	-0.18525456
42	0x3e07c6e5	0.13259466
43	0xbe3e7cea	-0.18602338
44	0x3d7e4a61	0.062082652
45	0x3e3ccf71	0.18438508
46	0x3ebca700	0.3684616
47	0x3e0df4e1	0.13862945
48	0x3d9bf425	0.07614926
49	0x3db9361e	0.09043525
50	0x3da80951	0.08204902
51	0x3e6a3d73	0.22875004
52	0x3e7f8fb3	0.2495716
53	0x3b06450d	0.0020487935
54	0x3e1c001d	0.15234418
55	0x3de0db8c	0.10979375
56	0x3e805e28	0.25071836
57	0x3e382960	0.17984533
58	0xbdc16ba9	-0.09444363
59	0xbd700e10	-0.05860716
60	0x3ddcb465	0.10776595
61	0x3ddd4722	0.10804583
62	0x3ea167e8	0.31524587
63	0x3d5a8508	0.053349525

dist.dst_type_linears.0.weight f4 [3, 64]
0	0xbc272bc7	-0.010203308
1	0xbb85212f	-0.0040627937
2	0x3c625b05	0.013815646
3	0xbb9da1cf	-0.004810549
4	0xbc47829e	-0.012177138
5	0x3bdeb679	0.006796655
6	0xbd095d0f	-0.033536013
7	0x3c13add3	0.009013611
8	0x3caadd00	0.020857334
9	0x3c03f0d9	0.008053028
10	0x3cd959cf	0.026532082
11	0x3c871951	0.016491564
12	0xbd16659a	-0.03671799
13	0x3ce79bf9	0.028272616
14	0x3c6353aa	0.013874928
15	0x3bb85a00	0.005625963
16	0xbc7be5a7	-0.015374578
17	0xbcaaa18e	-0.020828988
18	0xbbfd28da	-0.007725817
19	0x3d1bead0	0.03806573
20	0x3c906ee5	0.017631004
21	0xbbf4abde	-0.007466777
22	0x3d06b58a	0.032887973
23	0xbbf9dbbf	-0.0076250727
24	0x3bb9ad46	0.0056664078
25	0xbc6c895e	-0.014437048
26	0xbc8e61f1	-0.017380686
27	0x3be0d3b2	0.0068611735
28	0x3c3fae5f	0.011699288
29	0xbc7428e8	-0.014902331
30	0xbbdf2f62	-0.0068110684
31	0xbc7b52da	-0.015339578
32	0x3c69ff2a	0.014282027
33	0x3d1ff8b8	0.039055556
34	0x3cd29d0a	0.025709648
35	0xbcaa38c1	-0.020779015
36	0x3c40fb55	0.011778672
37	0x3c1226de	0.0089203995
38	0xbc54b416	-0.012982389
39	0xbbcfdb5a	-0.0063432874
40	0x3d067479	0.03282592
41	0x3bc46c5c	0.0059943628
42	0x3d1d2799	0.03836784
43	0x3bf260e8	0.007396806
44	0xbcae54d4	-0.021280684
45	0x3b948057	0.004531901
46	0xbd55108d	-0.052017737
47	0x3c4297f3	0.011877048
48	0xbc616e44	-0.0137591995
49	0xbbe949c7	-0.0071193906
50	0xbc1bcf50	-0.009509876
51	0xbc1c7fbf	-0.009551941
52	0xbc25ab90	-0.0101117045
53	0x3d05af83	0.032638084
54	0x3d19f093	0.037582945
55	0xbba49eb5	-0.005023802
56	0x3d05338a	0.032519855
57	0xbc8e0dc2	-0.017340545
58	0xbc3073e3	-0.010769817
59	0xbc1f9f9a	-0.009742642
60	0xbc67187b	-0.014104958
61	0x3d0b7481	0.034046654
62	0x3cc2e396	0.023790162
63	0x3d23a627	0.039953377
64	0x3d863924	0.065538675
65	0x3d401f1f	0.04690468
66	0xbd43309c	-0.04765378
67	0x3d3aea1a	0.045633413
68	0x3d33ad5e	0.043866508
69	0xbd43ec98	-0.047833055
70	0x3dad1b74	0.08452502
71	0xbd46413b	-0.048402052
72	0xbd586385	-0.052829284
73	0xbd19cd1a	-0.037549116
74	0xbd561507	-0.052266147
75	0xbd471e33	-0.048612785
76	0x3d98a3b8	0.07453102
77	0xbd951ff6	-0.07281487
78	0xbd40c9ca	-0.04706744
79	0xbd48b024	-0.048996106
80	0x3d6fe1fc	0.058565125
81	0x3d41b4a7	0.047291424
82	0x3d6f51a0	0.058427453
83	0xbd264cfe	-0.04060077
84	0xbd70d350	-0.058795273
85	0x3d42e30d	0.047579814
86	0xbd211d9d	-0.039334882
87	0x3d4683f1	0.048465673
88	0xbd39ca7c	-0.04535912
89	0x3d5795e4	0.05263318
90	0x3d5ff752	0.054679222
91	0xbd486fb3	-0.04893465
92	0xbd7972f5	-0.060900647
93	0x3d258941	0.0404141
94	0x3d4ca89f	0.049965497
95	0x3d66224c	0.05618505
96	0xbd4c92ab	-0.04994456
97	0xbd88bc01	-0.06676484
98	0x3a6d542e	0.0009053376
99	0x3d94f5e6	0.07273464
100	0xbd5dffbe	-0.054198973
101	0xbd40648c	-0.04697089
102	0x3d4a6636	0.049413882
103	0x3d3daf55	0.046309788
104	0xbd3f5441	-0.04671121
105	0xbd427b59	-0.047480915
106	0xbd2f3833	-0.042778205
107	0xbd43c209	-0.04779247
108	0x3d8d4262	0.06897427
109	0xbd779167	-0.0604414
110	0x3d5705ce	0.05249577
111	0xbd7fb117	-0.062424745
112	0x3d47ff28	0.04882732
113	0x3d413a34	0.047174647
114	0x3d85b2f3	0.065282725
115	0x3d453475	0.04814573
116	0x3d4610ae	0.04835575
117	0xbd28be02	-0.04119683
118	0xbd0dc6a2	-0.03461326
119	0x3d466ff1	0.0484466
120	0xbcd2ebdd	-0.025747234
121	0x3d6c2ba0	0.05765879
122	0x3d44dc76	0.04806181
123	0x3d829860	0.063767195
124	0x3d7ab088	0.06120351
125	0xbdac1aa2	-0.08403517
126	0xbd66e8b1	-0.056374256
127	0xbd0509ae	-0.032479934
128	0xbd8f230e	-0.06989108
129	0xbd3655ed	-0.04451554
130	0x3d4a080f	0.04932409
131	0xbd34b111	-0.044114176
132	0xbd5422d2	-0.05179102
133	0x3d32e2c6	0.0436733
134	0xbd707af4	-0.058711007
135	0x3d3b3264	0.045702353
136	0x3d615d27	0.055020478
137	0x3d33fbb5	0.04394122
138	0x3d1534c2	0.036427267
139	0x3d4772fc	0.048693642
140	0xbd47c2f7	-0.048769917
141	0x3d557aa2	0.052118905
142	0x3d42f444	0.04759623
143	0x3d39d3f6	0.045368157
144	0xbd888bc2	-0.06667282
145	0xbd160ceb	-0.036633413
146	0xbd6341cc	-0.05548267
147	0x3cfac671	0.030612202
148	0x3d8cdc3b	0.06877943
149	0xbd30934c	-0.043109223
150	0x3c146f96	0.009059807
151	0xbd34bf55	-0.04412778
152	0x3d3417c1	0.043967966
153	0xbd619f53	-0.055083584
154	0xbd5dc1ca	-0.05413989
155	0x3d38746e	0.04503291
156	0x3d732cc5	0.059368867
157	0xbd476414	-0.048679426
158	0xbd353f33	-0.044249725
159	0xbd51e778	-0.051246136
160	0x3d51b403	0.051197063
161	0x3d12afae	0.035812072
162	0xbd13aa15	-0.036050875
163	0xbd810849	-0.063004084
164	0x3d71fc0e	0.05907827
165	0x3d45dc02	0.04830552
166	0xbd3f459c	-0.046697244
167	0xbd353a8a	-0.04424528
168	0x3cddb8f7	0.027065737
169	0x3d369354	0.044574097
170	0x3bae7ba3	0.0053247972
171	0x3d3968e5	0.04526605
172	0xbd5e38f1	-0.054253522
173	0x3d64dbbd	0.05587362
174	0xbbcfeac8	-0.006345127
175	0x3d6d5ae8	0.057948023
176	0xbd490b82	-0.04908324
177	0xbd32b74e	-0.043631844
178	0xbd668ec0	-0.05628848
179	0xbd3f03a4	-0.04663433
180	0xbd6db46c	-0.05803339
181	0x3d155431	0.036457244
182	0x3b53b4ca	0.0032303804
183	0xbd2f80ac	-0.04284732
184	0xbc321773	-0.010869849
185	0xbd84853c	-0.06470725
186	0xbd3e170d	-0.0464087
187	0xbd6b82ec	-0.057497904
188	0xbd472525	-0.04861941
189	0x3d648631	0.055792037
190	0x3d35d08e	0.044388346
191	0xbbcaddd1	-0.0061909934

dist.dst_type_linears.0.bias f4 [3]
0	0xbbbbc077	-0.0057297307
1	0x3d430ebf	0.047621485
2	0xbd32eddc	-0.04368387

dist.dst_type_linears.1.weight f4 [3, 64]
0	0x3d3ccbe9	0.0460929
1	0x3d012d95	0.03153761
2	0xbd10624d	-0.035249997
3	0x3cf1dfb1	0.02952561
4	0x3d21625a	0.039400436
5	0xbd0030ca	-0.03129653
6	0x3d35736a	0.04429952
7	0xbd0b9cda	-0.034085132
8	0xbced05d1	-0.028933438
9	0xbd2f8230	-0.042848766
10	0xbd2ada5a	-0.041712143
11	0xbd06666c	-0.03281252
12	0x3d1aa845	0.03775813
13	0xbd41f646	-0.047354005
14	0xbd0b203d	-0.03396629
15	0xbce99077	-0.028511269
16	0x3cf29007	0.029609693
17	0x3ccccb89	0.024999397
18	0x3cbee3d2	0.023301993
19	0xbd05a410	-0.032627165
20	0xbd04b9b2	-0.032403655
21	0x3cfffa32	0.031247232
22	0xbcee3659	-0.02907865
23	0x3d069b6e	0.032863073
24	0xbcf50bcc	-0.029912852
25	0x3d072fe3	0.033004653
26	0x3cf2dcd6	0.029646318
27	0xbd00bb38	-0.031428546
28	0xbd078967	-0.03309002
29	0x3d558894	0.052132204
30	0x3cf4f665	0.029902646
31	0x3d22bce0	0.039730906
32	0xbd0d8278	-0.034548253
33	0xbd1d72f4	-0.038439706
34	0xbc05f6ee	-0.008176548
35	0x3d38da7e	0.045130245
36	0xbcfba408	-0.030717865
37	0xbd08e492	-0.033421107
38	0x3d059e75	0.03262182
39	0x3ce7f59f	0.028315363
40	0xbcc9de2a	-0.024642069
41	0xbcf446dd	-0.029818946
42	0xbce7867c	-0.02826237
43	0xbcf9bc16	-0.030485194
44	0x3d06c471	0.032902185
45	0xbd39e5cd	-0.04538517
46	0x3cf86a9a	0.03032427
47	0xbd07b675	-0.03313299
48	0x3d0356fa	0.03206537
49	0x3ce4fa13	0.027951276
50	0x3d256ec0	0.040388823
51	0x3d0ee93a	0.03489039
52	0x3d805375	0.06265918
53	0xbd07f740	-0.03319478
54	0xbcfa4f13	-0.030555284
55	0x3ceb8f61	0.028754892
56	0xbc08fd75	-0.00836121
57	0x3cf4d2e1	0.029885711
58	0x3d0bbb8c	0.034114406
59	0x3d3172be	0.043322317
60	0x3d31ba03	0.043390285
61	0xbd2dd428	-0.042438656
62	0xbd119f00	-0.035552025
63	0xbcc9e101	-0.024643423
64	0xbc32a4dc	-0.010903563
65	0xbc71e246	-0.01476342
66	0x3ca10fdc	0.019660883
67	0xbc6cd61a	-0.014455343
68	0xbcd8cc15	-0.026464501
69	0x3c8546ef	0.016269175
70	0xbc6d1eaa	-0.014472643
71	0x3cafad3a	0.021444906
72	0x3ce9763c	0.028498761
73	0x3ced149b	0.02894049
74	0x3ce6c0a6	0.028168034
75	0x3cb8294b	0.022480628
76	0xbcf8c531	-0.030367466
77	0x3d0236a5	0.031790394
78	0x3c9f1ef3	0.019423937
79	0x3c6ba494	0.0143825
80	0xbc84dfc5	-0.016219983
81	0xbc1af679	-0.009458178
82	0xbcadd0bb	-0.021217695
83	0x3cd636aa	0.026149113
84	0x3c6528f1	0.013986812
85	0xbc7740ef	-0.015091165
86	0x3ccb48ef	0.02481505
87	0xbc8d95b5	-0.0172833
88	0x3c65cd04	0.01402593
89	0xbcc0e124	-0.023544855
90	0xbce85d6d	-0.028364861
91	0x3c80ed96	0.01573829
92	0x3cb3ca5e	0.021947082
93	0xbc150e01	-0.009097577
94	0xbc61da66	-0.01378498
95	0xbd13fe9d	-0.03613149
96	0x3c926e7c	0.017874949
97	0x3d08d3d1	0.03340513
98	0x3c928abd	0.017888421
99	0xbce7878c	-0.028262876
100	0x3cc68689	0.024234073
101	0x3c9cf1f3	0.01915834
102	0xbc8454b7	-0.016153676
103	0xbc489ec9	-0.012244889
104	0x3c3a2101	0.011360408
105	0x3c5ac2f6	0.013352146
106	0x3c900465	0.01758022
107	0x3c6fd9a2	0.01463929
108	0xbcd99ecd	-0.02656498
109	0x3cf989be	0.030461188
110	0xbcc952e4	-0.024575658
111	0x3cc611da	0.024178434
112	0xbca86780	-0.020557165
113	0xbc72e476	-0.014824977
114	0xbd064bb0	-0.032787025
115	0xbc8c6777	-0.01713918
116	0xbc2e2753	-0.010629493
117	0x3cf5acc6	0.029989611
118	0x3d0a0b45	0.033702154
119	0xbc69545f	-0.014241307
120	0x3d02e2d8	0.031954616
121	0xbcbe8e47	-0.023261202
122	0xbc946062	-0.018112365
123	0xbd0480f9	-0.03234956
124	0xbd13211e	-0.035920255
125	0x3caea7b1	0.021320196
126	0x3ba5400c	0.0050430354
127	0x3cc4e83e	0.024036523
128	0xbcff50b2	-0.031166408
129	0xbc882646	-0.016619813
130	0x3c8eb6c1	0.017421128
131	0xbc7e487a	-0.015520209
132	0xbc82c291	-0.015961917
133	0x3c8d9a60	0.017285526
134	0xbd15b0a8	-0.036545426
135	0x3c86d6f3	0.016459918
136	0x3bfa856a	0.0076452987
137	0x3c71aad0	0.0147501975
138	0x3c792068	0.01520548
139	0x3c68f2a0	0.014218003
140	0xbc2934c7	-0.0103275245
141	0x3c91a589	0.017779129
142	0x3c874c9d	0.016516024
143	0x3c97aa75	0.018513897
144	0xbcd79795	-0.026317397
145	0xbcfb0559	-0.030642198
146	0xbbc83662	-0.0061099986
147	0x3cbf0c8a	0.023321409
148	0x3ce0b16b	0.02742835
149	0xbc9aabe7	-0.018880798
150	0x3b72a060	0.003702186
151	0xbc988b9f	-0.018621264
152	0x3c7b12c3	0.015324297
153	0xbc3e0a04	-0.011599068
154	0xbc00e70a	-0.007867584
155	0x3ca57916	0.02019934
156	0x3c0db15b	0.008648242
157	0xbd398893	-0.045296263
158	0xbc96c392	-0.018403802
159	0x399de8c4	0.00030118797
160	0x3c8ab22b	0.01693066
161	0x3b4d5c2a	0.0031335452
162	0xbb08c3aa	-0.0020868578
163	0xbcabf2b0	-0.020989746
164	0x3c4c604f	0.012474134
165	0x3c7c822a	0.015411893
166	0xbc81e84b	-0.015857836
167	0xbc960f38	-0.018317804
168	0x3ce24480	0.027620554
169	0x3c84b594	0.016199864
170	0x3c6c1c85	0.014411096
171	0x3c9423cb	0.018083474
172	0xbc437b9a	-0.011931324
173	0x3c86eedb	0.016471317
174	0xbc21c175	-0.009872784
175	0x3c256d71	0.010096894
176	0xbc98bacf	-0.018643765
177	0xbc925234	-0.017861463
178	0xbaa7f9d7	-0.0012815547
179	0xbc951e00	-0.018202782
180	0xbd2624f2	-0.040562578
181	0x3ca45f9a	0.020065118
182	0x3ba52cb2	0.0050407285
183	0xbc945896	-0.018108647
184	0xbc42bea5	-0.0118862735
185	0xbc831e87	-0.016005768
186	0xbc8cb4f0	-0.017176121
187	0xbbf9f73a	-0.0076283487
188	0xba5dccb2	-0.0008460983
189	0x3cd518f1	0.02601287
190	0x3d1384c4	0.036015287
191	0x3bae6ff4	0.0053234044

dist.dst_type_linears.1.bias f4 [3]
0	0x3ceb8da2	0.02875406
1	0xbc64336b	-0.013928275
2	0xbc8fd739	-0.01755868

dist.dst_type_linears.2.weight f4 [3, 64]
0	0x3dac12ed	0.08402047
1	0x3d9be361	0.076117285
2	0xbda3d377	-0.07999318
3	0x3d9c9059	0.0764472
4	0x3d90bb9e	0.07067035
5	0xbd990d3c	-0.074732274
6	0x3cfc3870	0.03078863
7	0xbd9d9c49	-0.07695825
8	0xbd838082	-0.06420995
9	0xbd7cb8b2	-0.061699577
10	0xbd0b994a	-0.034081735
11	0xbda05554	-0.07828775
12	0x3d176857	0.03696474
13	0xbd43a5a2	-0.04776538
14	0xbda001c8	-0.0781284
15	0xbd95a35b	-0.07306548
16	0x3d57058c	0.052495524
17	0x3c9b0dab	0.018927416
18	0x3d58077b	0.05274151
19	0xbd26ac2e	-0.040691547
20	0xbd52902d	-0.051407028
21	0x3d9a2eb5	0.0752844
22	0xbc9ff473	-0.019525742
23	0x3d9d5b25	0.076834
24	0xbd9adeed	-0.07562051
25	0x3d943d0e	0.07238208
26	0x3d932118	0.071840465
27	0xbd99e0f2	-0.07513608
28	0xbd4ba4a1	-0.04971755
29	0x3d452a31	0.04813594
30	0x3d9e80ba	0.077393964
31	0x3d373ae8	0.04473391
32	0xbda26cf7	-0.0793094
33	0xbd0aca17	-0.033884134
34	0xbadcad53	-0.0016836323
35	0x3d6b18b9	0.057396624
36	0xbd99496e	-0.07484709
37	0xbd9e60c8	-0.07733303
38	0x3d9beaf0	0.0761317
39	0x3d9bab7a	0.07601066
40	0xbcacbb39	-0.021085368
41	0xbd95e78a	-0.07319553
42	0xbc3505cc	-0.011048745
43	0xbd98a95e	-0.07454179
44	0x3d56176e	0.052268438
45	0xbd588f83	-0.05287124
46	0x3bf81d1a	0.0075718286
47	0xbd54dc8e	-0.05196815
48	0x3d9a7f0e	0.07543765
49	0x3d9615f5	0.07328407
50	0x3d5852c6	0.052813314
51	0x3d9b8b64	0.07594946
52	0x3da9400c	0.08264169
53	0xbd3f7ba2	-0.046748765
54	0xbcea10d0	-0.02857247
55	0x3d99617f	0.07489299
56	0xbc60288d	-0.013681543
57	0x3d7e3cf1	0.062069837
58	0x3d9f1cbc	0.077691525
59	0x3d7ab21d	0.06120502
60	0x3d8b85dc	0.06812641
61	0xbd258ce7	-0.040417578
62	0xbcfcc739	-0.030856716
63	0xbc6afae4	-0.014342044
64	0xbc348b58	-0.01101955
65	0xbd75becd	-0.059996415
66	0x3d878de9	0.06618864
67	0xbd72fbf9	-0.05932233
68	0xbd5ab5a0	-0.053395867
69	0x3d8438a1	0.064561136
70	0xbcabdac3	-0.020978337
71	0x3d877376	0.06613819
72	0x3d364eef	0.04450887
73	0x3d7bc878	0.06147048
74	0x3d7582fb	0.059939366
75	0x3d75c2d4	0.060000256
76	0xbcf58096	-0.029968541
77	0x3d364cd8	0.044506878
78	0x3d8a9799	0.06767196
79	0x3d804d8c	0.06264791
80	0xbbd4971a	-0.0064877393
81	0x3c7afc61	0.015318961
82	0xbcf0296f	-0.029316632
83	0x3d16349d	0.03667127
84	0x3c2eb0c9	0.010662266
85	0xbd7fd658	-0.062460274
86	0x3d284d19	0.04108915
87	0xbd850c45	-0.06496481
88	0x3d7c248e	0.0615583
89	0xbd5dadaa	-0.054120697
90	0xbd533dc8	-0.05157259
91	0x3d807ff9	0.06274409
92	0x3cede233	0.029038524
93	0xbc8f8dcf	-0.017523674
94	0xbd76b60a	-0.0602322
95	0xbd684bc6	-0.05671289
96	0x3d8405c6	0.06446414
97	0x3d05ed10	0.032696784
98	0xbb74f5ed	-0.0037378029
99	0xbd289786	-0.04116013
100	0x3d4a1e5e	0.049345367
101	0x3d81ee53	0.06344285
102	0xbd84142a	-0.064491585
103	0xbd7ecbba	-0.062206008
104	0xbc086af2	-0.008326279
105	0x3d71c1ca	0.059022702
106	0x3caf6a16	0.02141289
107	0x3d79609b	0.060883146
108	0xbd0e1b6f	-0.03469413
109	0x3d0cae89	0.034346137
110	0xbd440e8d	-0.04786544
111	0x3d0434d7	0.032276955
112	0xbd84b216	-0.0647928
113	0xbd786c05	-0.06064989
114	0xbd3bdc62	-0.04586447
115	0xbd886033	-0.066589735
116	0xbc8a7eab	-0.016906103
117	0x3d2b5408	0.041828185
118	0x3d8a3406	0.06748204
119	0xbd767de6	-0.06017866
120	0x3c7a25ae	0.015267773
121	0xbcf9a9dd	-0.030476505
122	0xbd87fa5f	-0.06639551
123	0xbd5ea9e3	-0.054361235
124	0xbd72d2da	-0.059283115
125	0x3d0adb94	0.033900812
126	0xbcd30ca2	-0.02576286
127	0x3d648417	0.055790033
128	0xbd9c6e0d	-0.07638178
129	0xbca0d25c	-0.019631557
130	0x3d0d4dca	0.034498014
131	0xbcae41e0	-0.021271646
132	0xbd0f28a8	-0.034950882
133	0x3ccf78a3	0.025326079
134	0xbcb5d151	-0.022194536
135	0x3cee2eca	0.029075045
136	0x3d0e2c0f	0.034709986
137	0x3cb0ef03	0.021598345
138	0x3bb7256b	0.0055891774
139	0x3d1c6466	0.038181685
140	0xbc6626ce	-0.014047338
141	0x3c89fc8d	0.016844058
142	0x3cfc035b	0.030763319
143	0x3cba9ea8	0.022780731
144	0xbd267974	-0.04064317
145	0xbcbee23d	-0.023301238
146	0xbd4ba0b7	-0.049713816
147	0x3c7ee89a	0.015558386
148	0x3d13123e	0.03590607
149	0xbcb7d588	-0.022440687
150	0x3a3324ce	0.00068337924
151	0xbcca7208	-0.024712577
152	0x3cbda537	0.02315007
153	0xbd326a75	-0.043558557
154	0xbd2b1430	-0.0417673
155	0x3cb87ac8	0.022519484
156	0x3d362e27	0.044477608
157	0xbcf4c5fc	-0.029879563
158	0xbcc5a68d	-0.02412727
159	0xbcd3a25d	-0.025834257
160	0x3d116740	0.035498857
161	0x3c621575	0.013799061
162	0x3c321b70	0.010870799
163	0xbd11170f	-0.03542238
164	0x3d366cff	0.04453754
165	0x3d0b2af6	0.033976518
166	0xbd13a80d	-0.036048938
167	0xbcadac26	-0.02120025
168	0x3c4fcd6e	0.012683256
169	0x3cbbe3ee	0.022935834
170	0xba9d386e	-0.0011994967
171	0x3cbef59f	0.02331048
172	0xbd0a2e6b	-0.033735674
173	0x3d347ff9	0.044067357
174	0x3bf5942e	0.007494471
175	0x3d28db54	0.041224793
176	0xbd00cc64	-0.031444922
177	0xbca741d7	-0.020417137
178	0xbd34e3f9	-0.044162724
179	0xbcedc1be	-0.029023048
180	0xbd910f79	-0.07083029
181	0x3cadf331	0.021234127
182	0xbba9d36e	-0.005182675
183	0xbc8d6a68	-0.017262653
184	0x3c42379e	0.0118540805
185	0xbd12e9f8	-0.03586766
186	0xbcf4fc94	-0.029905595
187	0xbd3d1556	-0.046162926
188	0xbd21fe7f	-0.039549347
189	0x3cc0cfe6	0.023536634
190	0x3d0f9c99	0.035061453
191	0xbc0426ca	-0.008065889

dist.dst_type_linears.2.bias f4 [3]
0	0x3d97eb51	0.0741793
1	0xbd74ea3e	-0.059793703
2	0xbcac9bf0	-0.02107045
