route_dev/drl-or/model/test/agent3.pth (torch, 225285 bytes, 31 tensors)

base.actor.0.weight f4 [64, 343]
00000000: a8be c5bd 5759 85bd 680e cabd f679 933d
00000010: a1fd 46bc 1762 4c3e ece0 a0bd 00e8 a9bd
00000020: c75e 433c 5e3f a03d 6c9a e3bd ba6b 96bc
00000030: 25dc 88bd cab7 023c 5eb5 dc3d dded b6bd
00000040: d175 01be c056 fb3c ff95 2bbc 4d1b 083d
00000050: b26d ddbd b48f 013d a096 493d f2ba 5f3c
00000060: 42dc b7bd f6e0 b3bd ff7d 2e3d a072 593c
00000070: 8100 febc a777 65bd a2ee b3bd 1d0c f2bc
00000080: 303c d1ba 473c 003d 4702 fc3c 7ba4 2abe
00000090: 4809 8f3d c6ad e7bd ad45 16bd 2775 043e
000000a0: aa33 eaba cc1b 833d 232f dc3d 8d8f fe3c
000000b0: fc0b 42bd a00a 8bbd 3fd1 14bd 789b f0bd
000000c0: 6bb3 983d e001 09bd 50f2 4e3d d4bb 42be
000000d0: f007 ee3b 8ea2 40bd 4803 4b3d ea02 ed3d
000000e0: 9b4d 8e3d 5c8e 22bc cca1 e4ba 0ade e9bb
000000f0: 5d77 64bb a405 0dbd ff01 9cbd cdcf f4bd
00000100: aad6 78bc 2273 f53c d5a7 b5bd b18b e0bd
00000110: 8837 00bd 2efd 613d 9fc2 e4bd 4fec 90bb
00000120: 04e4 9bbd 26d8 1d3e 5954 853c 047c 833d
00000130: 8996 993c 6d00 673c 4940 6d3d 2268 b93c
00000140: fa36 25bd 74b6 0ebd 48da cbbd 5b04 763d
00000150: 7ed8 bc3d 7443 a73d e83b 49bd 9bfc 55be
00000160: 64af 603d 9682 47bd 260d f6bd fd40 0dbe
00000170: 8003 adbd 3530 293c 9823 3d3d fccc 213e
00000180: 305e 1a3e f048 e8bd 6282 49bd 4d35 ce3d
00000190: 2e82 abbd 7a68 24bd c992 70bc 8b23 6dbd
000001a0: 8bca 82bc bf7e 9abb ae24 ab3d 565d ef3b
000001b0: 138e 5d3d f37d 0fbe 8683 fabc 289d 773d
000001c0: 4280 e03d d3d7 673d e9d2 b4bd c60c 193e
000001d0: abfd 45bd fc60 0ebe 1009 9cbd 6bb5 4dbd
000001e0: 0467 0fbe 0b12 b4bc 8158 a13d 6d20 17be
000001f0: db27 353d 5482 9d3c 099e a9bd dff7 1d3e
00000200: f9ce b33c 02f3 20bd d7eb 3c3c 792d b23d
00000210: 383d 7ebd bafd c5bc 3934 65bd dfd2 d4bd
00000220: b426 23be 1d78 183e c79c d7bc 9b3c 0ebb
00000230: c953 ed3c 9f7d 073e bc45 783c bba9 34bc
00000240: e991 093d 3130 963d 2b90 0a3d 8bc4 3cbd
00000250: f168 0f3d 6ec5 a73d dcc5 33bd 1733 293d
00000260: c131 243d 10b3 aebb f700 6f3d a115 0bbe
00000270: 63cf 74bd 01d3 a43c ba88 a93d bb7f 05be
00000280: 3627 a63d 15af 3dbd 9bbe 9bbd db9c ceba
00000290: 4998 0fbe 6ed6 063e c1d6 ea3c 0d51 8e3d
000002a0: b17c 69bd 6179 793d fc92 fbbb 8acf ae3d
000002b0: adeb 0dbd 1c12 4d3c c814 9c3d 8e27 63bc
000002c0: 3e02 d9bd 59ea 253e ee16 bfbc c015 9dbd
000002d0: c427 2f3d 6cbd 463d feb9 033d 9f34 1c3e
000002e0: 416e b2bd ef2f a0bd 4eb2 123d 11cd 02be
000002f0: c988 5ebd 4265 2e3b 2481 863d 8e6a 45bc
00000300: 971f fabc 78a5 a03c 7824 ec3d 1dab 4b3c
00000310: dbf4 303d 1ac0 29bd 2cd5 0d3d 3e7c 423d
00000320: e591 8fbd f430 bebc 2cca 50bc 23de 3c3d
00000330: 43bf 3abd 1d3e b73d 8856 f2bc ce9a c53c
00000340: f4bf 1abe 1b3c 173e 4f19 c43d 71be ae3d
00000350: b017 1cbc 08ee 82bd 981b 13bd 0a57 0ebd
00000360: f219 36bd aa8c 48bc 958d 49bb 88c5 0b3e
00000370: 00cd 45bd 6b0a 5c3d d76e 84bd cf58 323d
00000380: b0dd a63c e07e 5dbb 10a6 a83d c714 02be
00000390: 322d 9ebd a918 f7bc 2cc8 cdbd 4273 ed3d
000003a0: 130f 43b9 9ba8 ba3b 7020 593d afb1 903c
000003b0: 2747 07bc 4149 6a3c ec7b 94bd 61ba a0bc
000003c0: a1a3 4f3d 3226 523d 1903 43bc 0179 00bb
000003d0: 879f 71bc dbb2 cc3d 7120 513d 545d 263d
000003e0: 5583 12be 43eb dc3d 8b6e 2abd 17e1 17bd
000003f0: ee34 b7bd a90b 023e 3a5b a2bd 0b1e 0a3d
-0.096555054 -0.06511181 -0.09866029 0.072009966 -0.012145431 0.19959293 -0.078554004 -0.082962036
0.011924452 0.07824586 -0.11113438 -0.018361915 -0.06682614 0.007978389 0.107767805 -0.089320876
-0.126426 0.030681014 -0.010472774 0.03322916 -0.10811938 0.031631187 0.049215913 0.013655411
-0.08977558 -0.08783142 0.042600628 0.013271958 -0.0310061 -0.056022312 -0.0878575 -0.029546792
-0.0015963372 0.031307485 0.030762805 -0.16664307 0.06984192 -0.113124415 -0.03668754 0.12935315
-0.001786818 0.06401786 0.10751178 0.03107431 -0.04737471 -0.06789136 -0.036332365 -0.11748403
0.07456096 -0.033449054 0.050524056 -0.19016963 0.00726413 -0.047030024 0.049563676 0.115728214
0.06948396 -0.009921636 -0.0017443239 -0.007137065 -0.0034861185 -0.034429207 -0.07617568 -0.11953697
-0.015187899 0.029962126 -0.08869902 -0.10964144 -0.03130296 0.05517309 -0.111699335 -0.0044227014
-0.0761185 0.15414485 0.016275572 0.064201385 0.018748539 0.014099223 0.057922635 0.022632662
-0.040335633 -0.03484197 -0.09953743 0.060062747 0.0922098 0.081671625 -0.049129397 -0.20897143
0.054854766 -0.04870852 -0.120142266 -0.13794322 -0.08447933 0.010326435 0.046176523 0.15800852
0.15074992 -0.11342037 -0.04919661 0.1006876 -0.08374439 -0.0401387 -0.014683434 -0.057895225
-0.01596572 -0.0047148163 0.083566055 0.0073048277 0.05409057 -0.1401289 -0.030580293 0.06045261
0.10961963 0.05660231 -0.088292904 0.14946279 -0.04833762 -0.13904184 -0.07618916 -0.05022184
-0.14004141 -0.02198126 0.07878209 -0.14758463 0.044227462 0.019227184 -0.08282096 0.15426587
0.021949278 -0.03929425 0.011530838 0.087000795 -0.0620701 -0.024168838 -0.055958007 -0.10391783
-0.15932733 0.1488957 -0.026319874 -0.0021703604 0.028970616 0.13231514 0.015153345 -0.011026795
0.033586416 0.073334105 0.033828896 -0.046085875 0.03501219 0.081919536 -0.043889865 0.04130849
0.04008651 -0.0053314045 0.05835053 -0.1358247 -0.059768092 0.020120146 0.08278032 -0.13037007
0.08112948 -0.04630955 -0.076047145 -0.0015763299 -0.14022936 0.13167736 0.028666856 0.06949053
-0.05700368 0.06090677 -0.007677434 0.08535679 -0.034648586 0.012516525 0.07621151 -0.013864411
-0.10596131 0.16202678 -0.023326363 -0.07670164 0.042762533 0.04852049 0.032159798 0.15254448
-0.087124355 -0.078216426 0.035814576 -0.12773539 -0.054329667 0.0026610647 0.065676 -0.01204933
-0.030532641 0.019610152 0.11530393 0.012430933 0.043202262 -0.041442968 0.034627125 0.047481768
-0.07010249 -0.023216702 -0.012743514 0.046110284 -0.045592558 0.08947394 -0.029582277 0.024121668
-0.15112287 0.14769022 0.0957514 0.085324176 -0.009527132 -0.06393057 -0.035914987 -0.034750976
-0.044458337 -0.012240568 -0.0030754555 0.13649571 -0.048291206 0.053720873 -0.064664535 0.043541726
0.02036938 -0.0033797547 0.08234799 -0.12703238 -0.07723464 -0.030163126 -0.100479454 0.11594249
-0.00018602265 0.005696369 0.05300945 0.017662851 -0.00825671 0.014299692 -0.07250199 -0.019620122
0.050693158 0.051305957 -0.011902594 -0.0019603374 -0.014747507 0.099950515 0.05105633 0.04061635
-0.14307912 0.1078706 -0.04160933 -0.037079897 -0.089456424 0.1269976 -0.07927556 0.033720057

base.actor.0.bias f4 [64]
00000000: 0000 0000 0000 0000 0000 0000 0000 0000
00000010: 0000 0000 0000 0000 0000 0000 0000 0000
00000020: 0000 0000 0000 0000 0000 0000 0000 0000
00000030: 0000 0000 0000 0000 0000 0000 0000 0000
00000040: 0000 0000 0000 0000 0000 0000 0000 0000
00000050: 0000 0000 0000 0000 0000 0000 0000 0000
00000060: 0000 0000 0000 0000 0000 0000 0000 0000
00000070: 0000 0000 0000 0000 0000 0000 0000 0000
00000080: 0000 0000 0000 0000 0000 0000 0000 0000
00000090: 0000 0000 0000 0000 0000 0000 0000 0000
000000a0: 0000 0000 0000 0000 0000 0000 0000 0000
000000b0: 0000 0000 0000 0000 0000 0000 0000 0000
000000c0: 0000 0000 0000 0000 0000 0000 0000 0000
000000d0: 0000 0000 0000 0000 0000 0000 0000 0000
000000e0: 0000 0000 0000 0000 0000 0000 0000 0000
000000f0: 0000 0000 0000 0000 0000 0000 0000 0000
0.0 0.0 0.0 0.0 0.0 0.0 0.0 0.0
0.0 0.0 0.0 0.0 0.0 0.0 0.0 0.0
0.0 0.0 0.0 0.0 0.0 0.0 0.0 0.0
0.0 0.0 0.0 0.0 0.0 0.0 0.0 0.0
0.0 0.0 0.0 0.0 0.0 0.0 0.0 0.0
0.0 0.0 0.0 0.0 0.0 0.0 0.0 0.0
0.0 0.0 0.0 0.0 0.0 0.0 0.0 0.0
0.0 0.0 0.0 0.0 0.0 0.0 0.0 0.0

base.actor.2.weight f4 [64, 64]
00000000: de64 1dbe 0ba3 fcbb 4c84 273e e520 d03c
00000010: a6c8 d4be 2ab1 1b3d a320 173e efe2 34be
00000020: ee59 fcbc 3c37 303d 0794 edbd 865e 1c3d
00000030: 34d2 0dbe 7856 9f3c dfb3 963b 88d8 94bc
00000040: 27f9 ae3d 3f6e 1cbe 53e8 a43e 1b9c 38be
00000050: 1fa8 653c 087d 303d b59d 623e 0473 3ebd
00000060: 8080 55bd f363 ddbe 1467 52bd fd8a a13d
00000070: 3903 6fbe d9e2 d5bc ec53 073f a280 4ebe
00000080: 8a93 14be 3cf4 35be 6c8a b43d 38e6 193d
00000090: da6d 5ebd 2f57 9dbe c6aa 1ebc a507 ba3e
000000a0: d8ec 03be ec61 61bd 11d2 53be ed83 08bd
000000b0: bf1e b5bc ea2e acbd 6993 cebd 0252 9d3c
000000c0: 79a8 41be aeac e43d 80d9 4cbe ed1a 14be
000000d0: 7904 61be 6128 ac3d b45c 42bd ed43 7e3e
000000e0: b374 cbbd dbc7 153e 9df7 2fbe 9ab3 903e
000000f0: e5d9 113e 3aac a7be 397d df3d 5d62 f3bb
00000100: 4afb 0abd ccd3 42be 5356 94be b9ed 75bb
00000110: 1eb3 aebe 26ae 3bbd 820c b13c a207 0ebd
00000120: d7e3 213e 7a93 a53e 9070 b0bd 87d9 adbd
00000130: 40db 013d 2589 25bd 920b b23d 21ae 22be
00000140: ebc4 69bd 9385 fb3c 9c61 9ebe 5b2c d83d
00000150: ab11 9a3e 42a6 e8bb f62e e3bd 77d1 a43e
00000160: d0d2 45bd ac3a c7bd 1241 fb3c b67d 7f3e
00000170: f994 993e 3617 e93d 5fcc 23be 4ac6 7dbe
00000180: 90fe 9c3e 43f2 11be e39e 8dbe baa7 38bd
00000190: da0f c1bb 7ba9 2fbe 70aa df3d ebd0 eebd
000001a0: 64ed b73d 1277 70be cbbb 1ebe db5f 27be
000001b0: cb49 49bd 7f1a 823e d80e aebd d264 623e
000001c0: 3f51 11bc 8a48 adbd 2fdf ad3d cb9b 86be
000001d0: 1622 203e b53b 2abe e856 123e 94ac 703e
000001e0: 4a92 afbd 7050 953e 4e4c 403e 7a06 7c3e
000001f0: 5171 973e 327d d03d 2a6b 32be 5a5c 833e
00000200: ff40 cebb 6882 443e 6ca4 c03d dd80 e8bb
00000210: 7eb8 cabe 6b10 643d 9c36 8ebe 645a 163e
00000220: cec9 fe3c bd71 15be c8a3 bebd 49f2 56bc
00000230: edb8 1ebe a27d 34be a130 083e 2007 a23d
00000240: b8bd 0d3e f8dc 2cbe ecc2 e23d 3ab5 973d
00000250: 6cc0 71be f820 e83c ec33 a5be 9230 84be
00000260: ebdd 44bd ab35 703d fa69 7f3d 56dd 01be
00000270: 234c 0e3e 246a 75be b2e5 993e bf59 033d
00000280: aeeb 8b3d 4e63 4fbd 9ebd afbe 115b 213e
00000290: 3aa6 fcbd ec20 2e3e 8fcd 353c 885e 213e
000002a0: a659 193e 0b38 c63e d4c0 5dbe 071b 52bd
000002b0: 02cf 7d3e 3dcd 0dbd e80a 05be 6e47 103d
000002c0: e6a4 d43d 009b 59be c26f 93bd 9c6c 2bbe
000002d0: b521 6b3e f76d 863e 85d1 903a 496a 393d
000002e0: 3e5d 433e 7f17 abbe ac06 3f3d c6fa 2dbe
000002f0: 4811 983e e728 d63e c060 b5bc 0c3a f83d
00000300: 45fe f63d 5275 943e 0745 4dbd 8b05 4abe
00000310: d690 f23d 345d 7d3d 8b37 50bd 0e93 dfbd
00000320: 0039 0c3d fb85 0ebe e949 00be 2f6d 8abc
00000330: d9b1 da3c 9a5e e63e 1d0a 8b3e 1c44 9cbd
00000340: 7403 79bc a553 c13e 3fb3 2f3e 011d 1d3e
00000350: cdb3 52be 71f5 6cbb dbb2 303c 744a b83d
00000360: c858 8e3e 22d8 ba3d 37b9 9cbe d016 c6bd
00000370: c184 443e e072 653d b174 09be 9aa1 c8bd
00000380: 8d84 0ebf 8b74 473e 8686 f6bd ae16 e93d
00000390: 1b6a 90be 9e08 a2bd e29d c53d 5331 393e
000003a0: 6fea c43c 7f45 1abd ab77 493d 68bf 783a
000003b0: 010c 1c3e 81c8 1cbe dfee 593d 1c48 e53d
000003c0: 9505 f23d 23b0 00bc 7ad4 713c a323 52be
000003d0: 0e15 81bd e402 f1bd a4fc e53d f3da 10be
000003e0: 3cf7 b6bd 7ac0 903d 4eab babd ab64 633e
000003f0: 6235 b23e f43d 7cbd e78b bbbe 1b32 a33c
-0.15370509 -0.007709866 0.16359061 0.02540631 -0.41559333 0.038010754 0.14758544 -0.17664693
-0.0308046 0.043021426 -0.116004996 0.038176082 -0.13849717 0.019450411 0.004599079 -0.018169656
0.08543616 -0.1527643 0.322085 -0.180283 0.014017134 0.04308799 0.22130473 -0.046496406
-0.0521245 -0.43240318 -0.051367834 0.07887838 -0.23341073 -0.026109146 0.5286243 -0.20166257
-0.14509407 -0.1776895 0.088154644 0.03757307 -0.05430398 -0.30730578 -0.00968427 0.36333957
-0.12883317 -0.055025026 -0.20685603 -0.03332894 -0.022109387 -0.08407386 -0.1008671 0.019204143
-0.18911923 0.111657485 -0.20004845 -0.14463396 -0.21974362 0.08406139 -0.04745169 0.24830599
-0.09934368 0.1462702 -0.171843 0.28262025 0.14243276 -0.32748586 0.10912556 -0.0074274973
-0.033931054 -0.19026107 -0.2897211 -0.0037525727 -0.3412103 -0.045820378 0.02161241 -0.034675248
0.1580957 0.32339078 -0.086152196 -0.08488756 0.031703234 -0.040413994 0.08693613 -0.15886737
-0.05707256 0.030703342 -0.30933845 0.10555335 0.30091605 -0.0070998976 -0.110929415 0.3219106
-0.04829675 -0.09727988 0.030670676 0.24950299 0.2999647 0.1138138 -0.1599593 -0.24782673
0.30662966 -0.14252572 -0.27660283 -0.04508183 -0.005891782 -0.17154495 0.1092118 -0.11660942
0.089808255 -0.23482922 -0.15501325 -0.1634516 -0.04914264 0.2541084 -0.08498925 0.22108772
-0.008869468 -0.08461101 0.084898345 -0.26290736 0.15638003 -0.16624339 0.14290965 0.23503333
-0.08572824 0.2916293 0.18779108 0.24611846 0.2957864 0.10180129 -0.17423692 0.25656396
-0.006294369 0.19190371 0.09406361 -0.00709544 -0.3959388 0.05567972 -0.2777604 0.14682919
0.031102087 -0.14594169 -0.093085825 -0.013119289 -0.15500231 -0.1762605 0.132998 0.07911515
0.13841903 -0.16881168 0.11072335 0.07407613 -0.2360856 0.028336033 -0.32266176 -0.25818306
-0.0480632 0.05864493 0.062356927 -0.12682089 0.13896231 -0.2396627 0.30058056 0.03206801
0.06832062 -0.050631814 -0.34324354 0.15757395 -0.12336393 0.17004746 0.011096372 0.15758717
0.14975604 0.38714632 -0.2165559 -0.051295307 0.24785998 -0.03461956 -0.12992442 0.03522437
0.103830144 -0.21250534 -0.071990505 -0.1674065 0.22962077 0.26255772 0.001104877 0.045267377
0.19078538 -0.33416364 0.046637222 -0.16990194 0.29700685 0.4182808 -0.02214086 0.121204466
0.12060217 0.28995758 -0.050114658 -0.19728677 0.118440315 0.061856464 -0.05083422 -0.1091672
0.034234047 -0.13918297 -0.12528194 -0.016897766 0.026696132 0.4499405 0.27156153 -0.07630178
-0.015198577 0.37759128 0.1715822 0.15343095 -0.20576401 -0.0036157037 0.01078483 0.08998576
0.2780211 0.09123255 -0.30610058 -0.0967232 0.19191267 0.056017756 -0.1342342 -0.09796448
-0.55671006 0.19478051 -0.12037377 0.11381279 -0.28205952 -0.079118 0.096492544 0.18085222
0.024037568 -0.037663933 0.04918639 0.0009488971 0.15238954 -0.15310861 0.05320632 0.111953944
0.11817471 -0.007854494 0.014760131 -0.20521407 -0.06302844 -0.117681295 0.11229828 -0.14146022
-0.08933875 0.07067962 -0.09114705 0.2220637 0.34806353 -0.06158252 -0.36630175 0.019921353

base.actor.2.bias f4 [64]
00000000: 867c 52bc 3fd4 13bd 51e8 c23c 94c6 4e3b
00000010: 2e36 d03c 56de 5b3c 51fa db3c 4727 bc3c
00000020: 41db a63c 03ac e93c f229 10bd c38c 743c
00000030: f38a af3c e01c 2fbd 5954 313c 7adf 68bc
00000040: 6779 b93c b48a b43c 7246 44bd 2bdd acbc
00000050: 2bdd aabc f090 d6bc f591 c53c 6d43 13bd
00000060: 5ad9 c33a ed69 2bbd f0bd 28bd feac 323d
00000070: 1313 bb3c a96e c43c 8ece ccbc 1bbd b7bc
00000080: 9611 b83c c3fb 233d 6f88 b83c 3415 24bd
00000090: 757f c53c 4407 c0bc 88af 033d 2ebc 31bd
000000a0: c6c1 2f3d c416 bfbc 6b80 083c 3426 ad3c
000000b0: 3f7d 993c 2427 21bd 6b9b a93c 4470 ba3c
000000c0: a5a5 bcbc 8bfa e0bc 8a81 c43c 4631 813c
000000d0: 911a ac3c e56b 2f3d 6131 083d d78f 98bc
000000e0: b429 bd3c 5f79 853c f663 afbc 8519 003d
000000f0: 3a85 b83c 6328 c63c a20e d7bc fe1b c3bc
-0.0128470715 -0.036091086 0.023792418 0.0031551467 0.02541646 0.013419708 0.026852759 0.022967948
0.02036822 0.028524404 -0.035196252 0.014926138 0.02142856 -0.042752147 0.010823333 -0.014213437
0.022640897 0.022038795 -0.047918744 -0.021101555 -0.020857414 -0.026192158 0.02411745 -0.035952974
0.0014942095 -0.041849066 -0.041196764 0.04362201 0.022836244 0.023978548 -0.025000837 -0.02242904
0.022469323 0.04003502 0.022525994 -0.040059283 0.024108628 -0.023440965 0.03214982 -0.043392353
0.042909406 -0.023326285 0.0083313985 0.02113638 0.01873648 -0.039343968 0.020703992 0.02275861
-0.023028204 -0.027463218 0.02398755 0.015770566 0.021008762 0.042827506 0.033250216 -0.018623276
0.023091175 0.016293226 -0.02140997 0.031274337 0.022524465 0.02418918 -0.026252095 -0.023817059

base.critic.0.weight f4 [64, 332]
00000000: 883a bebd 7aaf 0e3e 8b4f 5c3d 30e3 38be
00000010: 2146 ac3d 591c 263d df6e a6bd 946d 6a3c
00000020: 3349 293d 8456 74bc 4b51 ebbd b843 ce3b
00000030: 86f2 0abe 844b 0dbc 968b 22bd e9df 863c
00000040: 4780 19be 6558 5dbe 565c 013e 9b54 7f3d
00000050: e3ad 053c c8fa eabd bac1 eabc ade2 813d
00000060: af42 3abd e6e7 643b 7b37 f3bd 5264 da3d
00000070: 0ca4 21be 841e 88bd a71c 56bd 4c9a a93d
00000080: d63a 653d ba48 4d3d eed8 a13d e0c3 223e
00000090: 310a ed3d b94a 973d 6925 c83b 113b 2b3d
000000a0: a6f4 b93c bdcc 81bd f86f ebbc fd24 e8bc
000000b0: 8706 0c3d 7992 7f3c d9ab 213d db37 65bd
000000c0: 2eda 8e3c 0ffa ce3d eaa5 89bd e8d9 893d
000000d0: 1c5b af3d b0ac f43c 44ce 96bd 2f9f 79bc
000000e0: ebbc a33b 4798 8c3d dd82 323c bca1 bebb
000000f0: 2063 b4bd e922 febd 61c0 093e b0d3 6a3c
00000100: b2da 163d 304d 83bd 0dfc 00be 657c ee3c
00000110: 55eb f03c eb9d 1bbe c473 db3d 8a0d 60bb
00000120: 1d78 053a 2b14 9e3d aa6b 3d3d 8ad7 df3c
00000130: 5a2b 91bc 8aaa 92bb f988 57bd e407 023e
00000140: 80b1 43bd 53f7 a6bd 65a6 853d f56d 8c3c
00000150: 55a5 c33d af69 8f3d aae1 bcbd fb14 0d3e
00000160: 3a04 8c3d 531c 193d ecce 23bd ea5b 76bc
00000170: 91ff e33c 465a 043d 5a42 24bd ec4e b0bd
00000180: 195e c7bd eafa b93d 04b2 af3c 1333 f93d
00000190: baad 873d 1a69 87bd 20de 1fbd 0918 c43d
000001a0: 04c7 5d3d 6790 dcbd 88a8 6b3c 8b48 6c3b
000001b0: f245 a93c 6d4b 893d 9c30 023d 074f bebc
000001c0: 3139 0bbd 90f0 3b3e 6f9e ad3d 173d 443d
000001d0: 31b9 603d 9989 b53d 727f 1a3e b00a a1bb
000001e0: 4930 7d3d c887 2abb a86b 733c 8f40 9ab8
000001f0: a263 d7bc 6a79 64bc 3968 f63c 78c5 5a3d
00000200: bbbc 6f3d 888a 7e3d f57f 8abc 436f 153e
00000210: 8de4 ac3d 705c 213d 9454 fa3d 8410 80bd
00000220: 33ad a83d 507e 4a3d b188 623d daa3 783d
00000230: fd33 88bd 4dcb 3abd e2a2 d1bc e069 8fbd
00000240: e07f ce3c e928 bc3b 0506 86bd 60ba 26bc
00000250: e949 dd3d 2d97 dc3d 37f1 8abd 8cbd c7bb
00000260: be7c 82bd d684 35bd a878 2dbe 21c6 04ba
00000270: 5627 15be ed86 1abd 9548 9f3d c109 8ebd
00000280: a7ac 863c 9424 513d 797d 47be bfe6 54bd
00000290: 9ebd 3cbd c443 a2bd 44a8 053d 05c8 88bd
000002a0: b21b 4e3d f430 0abd 96d3 83bd 7c97 543d
000002b0: 5adc 713d e568 84bd 760c 963c 55db 0a3c
000002c0: d236 48bd 81c5 b93d 5274 9abc fc25 e2bd
000002d0: 3046 74be 22c4 5f3c 0207 3b3c 6dee 523d
000002e0: 22c7 08bd b9e9 c33c 81bf af3c 5e37 093d
000002f0: 67f1 bd3d 557b 2f3c 16df 263c a5a4 85bc
00000300: 2629 83bd 76cf a13d baf6 22bd a2b2 1cbd
00000310: d823 bebc c595 153d d2f7 31bd be7a 97bc
00000320: 85f3 82bd 10ba a03b f874 12be d96b c3bc
00000330: 2afb 0a3d 9080 42be 3226 9a3d 1b8b 403b
00000340: 16e0 b6bd de10 7a3d 7ab9 db3d d5dd b43d
00000350: 76b0 8d3d 9ec1 a5bc 1e28 4b3d 5868 c03b
00000360: eb70 babd d045 243d dccd e9bd 924f 303d
00000370: 9e73 ba3c dcd3 0d3e 4e87 23be d25a 553d
00000380: c841 99bd 99bb c73d 56fc 923c a62e 3c3d
00000390: 98ed 89bd e2e4 2ebc 3453 e23d 3fab 2c3c
000003a0: 0cb1 73bc 8b7c 1d3d d136 91bd b9c9 5e3d
000003b0: e650 98bc 7024 093d 101c c2bd 21e6 99bd
000003c0: 148f 9b3c 99ab 78bd 0e74 bdbb 1776 a7bd
000003d0: cb71 adbc 3864 d43c bea5 26bd e7c1 76bd
000003e0: a1f1 bcbd 50b2 633d 7308 adbd 6c1b ddbd
000003f0: df2c 15bd 72aa 88bb 1526 0fbe 8aaa 56bd
-0.09288508 0.13934126 0.053786796 -0.18055415 0.084118135 0.04055438 -0.08126616 0.014308352
0.041329574 -0.014913205 -0.11490115 0.006294694 -0.13569078 -0.008623961 -0.0396839 0.01646419
-0.1499034 -0.21615751 0.1263288 0.062336545 0.008159134 -0.11473614 -0.02865683 0.06342063
-0.04547375 0.0034928261 -0.118758164 0.10663666 -0.15785235 -0.066464454 -0.05227342 0.08281383
0.055964313 0.050118186 0.07902704 0.15895033 0.115742095 0.07387299 0.0061079753 0.041804377
0.022699665 -0.06337879 -0.028739914 -0.02833795 0.034185912 0.015598887 0.039470527 -0.05596147
0.01743802 0.10106289 -0.06721099 0.067310154 0.085622996 0.0298675 -0.07363561 -0.015235706
0.004996886 0.06864982 0.010895458 -0.00581762 -0.08807969 -0.12409002 0.13452293 0.014332697
0.036829658 -0.06411207 -0.1259615 0.02911205 0.02940909 -0.1519696 0.1071544 -0.0034187757
0.00050914456 0.077186905 0.046245255 0.027324457 -0.017720867 -0.0044758962 -0.05262086 0.12698323
-0.0477767 -0.08152642 0.06525878 0.017142275 0.09553019 0.070025794 -0.092227295 0.13777535
0.06836744 0.037380528 -0.039992258 -0.015036562 0.027831824 0.032312654 -0.04010234 -0.08608803
-0.097347446 0.09081061 0.02144719 0.12167945 0.066249326 -0.066118434 -0.039030194 0.09574897
0.054144874 -0.1076973 0.014383443 0.0036053981 0.020663235 0.067038395 0.03178464 -0.023231043
-0.03399009 0.18353486 0.084774844 0.047909822 0.054864112 0.08864135 0.15087679 -0.004914604
0.061813626 -0.0026020873 0.01485721 -7.355317e-05 -0.026292626 -0.013944963 0.030078994 0.053410977
0.058529597 0.062143832 -0.016906718 0.14593224 0.0844203 0.039394796 0.12223163 -0.0625315
0.0823616 0.049436867 0.05530614 0.060703136 -0.06650541 -0.04560404 -0.025590364 -0.07002616
0.02520746 0.0057421816 -0.06544117 -0.010176271 0.10805113 0.10771022 -0.06784289 -0.006095594
-0.06371449 -0.044316135 -0.16940558 -0.0005064924 -0.14565787 -0.03772633 0.07777516 -0.06935454
0.016439749 0.051060274 -0.19481458 -0.05197787 -0.04607927 -0.079230815 0.032631174 -0.06678776
0.05031938 -0.03373809 -0.06436841 0.05190228 0.059048034 -0.064653195 0.018316489 0.008475144
-0.048880406 0.09070874 -0.018854294 -0.11042401 -0.238549 0.013657602 0.011415245 0.05149691
-0.033393033 0.023915159 0.02145362 0.033500068 0.092745595 0.010710557 0.010185024 -0.01631386
-0.06404333 0.07900898 -0.039786078 -0.038256295 -0.023210451 0.036519784 -0.04344923 -0.018491145
-0.06394104 0.004904993 -0.14302433 -0.023855137 0.033930935 -0.18994355 0.075268164 0.0029379788
-0.0892946 0.061051242 0.10728736 0.088313736 0.06918423 -0.020233925 0.049598806 0.0058718137
-0.09103569 0.04010564 -0.11416218 0.043044634 0.022760209 0.13850349 -0.15969583 0.052088566
-0.0748325 0.09752578 0.017942589 0.045942925 -0.067347705 -0.010674687 0.11051026 0.010538875
-0.014873754 0.03844885 -0.070905335 0.054391596 -0.018593263 0.033482015 -0.09478009 -0.07514597
0.018989123 -0.060710523 -0.005781657 -0.08176821 -0.021172425 0.025926694 -0.040685408 -0.060243513
-0.092257746 0.055589974 -0.08448877 -0.10796246 -0.036419746 -0.0041707093 -0.13979371 -0.052408732

base.critic.0.bias f4 [64]
00000000: 0000 0000 0000 0000 0000 0000 0000 0000
00000010: 0000 0000 0000 0000 0000 0000 0000 0000
00000020: 0000 0000 0000 0000 0000 0000 0000 0000
00000030: 0000 0000 0000 0000 0000 0000 0000 0000
00000040: 0000 0000 0000 0000 0000 0000 0000 0000
00000050: 0000 0000 0000 0000 0000 0000 0000 0000
00000060: 0000 0000 0000 0000 0000 0000 0000 0000
00000070: 0000 0000 0000 0000 0000 0000 0000 0000
00000080: 0000 0000 0000 0000 0000 0000 0000 0000
00000090: 0000 0000 0000 0000 0000 0000 0000 0000
000000a0: 0000 0000 0000 0000 0000 0000 0000 0000
000000b0: 0000 0000 0000 0000 0000 0000 0000 0000
000000c0: 0000 0000 0000 0000 0000 0000 0000 0000
000000d0: 0000 0000 0000 0000 0000 0000 0000 0000
000000e0: 0000 0000 0000 0000 0000 0000 ff52 fcb8
000000f0: 0000 0000 0000 0000 0000 0000 0000 0000
0.0 0.0 0.0 0.0 0.0 0.0 0.0 0.0
0.0 0.0 0.0 0.0 0.0 0.0 0.0 0.0
0.0 0.0 0.0 0.0 0.0 0.0 0.0 0.0
0.0 0.0 0.0 0.0 0.0 0.0 0.0 0.0
0.0 0.0 0.0 0.0 0.0 0.0 0.0 0.0
0.0 0.0 0.0 0.0 0.0 0.0 0.0 0.0
0.0 0.0 0.0 0.0 0.0 0.0 0.0 0.0
0.0 0.0 0.0 -0.000120317556 0.0 0.0 0.0 0.0

base.critic.2.weight f4 [64, 64]
00000000: 84c0 46be e46e 7c3d 230b 403e 0ff1 093e
00000010: 546c 5ebe d444 e63d b1a8 b7bd 2638 303d
00000020: 360f 263c 266b febd 6b73 24be e4bb f4bd
00000030: 54f6 283a db99 69be 0ae6 7a3d 82f4 5dbd
00000040: 3ecf d13d e803 733d 650d 903e 3de5 273e
00000050: d6bc d93c 447e 0e3e dc4d dabd 9a33 22be
00000060: caab f6bd c328 82bd 9712 a3be 877b b5bb
00000070: 76c9 883d a65f ecbd 179f 81be 0a17 40bd
00000080: 4eb8 493c bbcd 873d 7a46 4e3d 9fe5 15be
00000090: 5446 ff3d 9922 39bf dbb6 c1bd 61fc d0bd
000000a0: ec30 d73d 18b0 10be aba7 d63d 22c4 093d
000000b0: bc40 7bbe a2dc 333d 05fe 133e 1e86 16bd
000000c0: dac1 653e f4ac c83d 7cbd aebc d8d9 f6bd
000000d0: a28c bd3d add7 003c f294 17be 89f6 e23d
000000e0: edb6 2c3e b843 5e3b d0c1 93be 84da 213e
000000f0: 975f 033f 2a21 6b3e 2c0f 5dbd 1313 863e
00000100: a4a4 a2bd 4d0d e23d 36c4 b63d 0d56 0a3b
00000110: d66d b2bc d49b 3fbe b223 163e 9840 67be
00000120: fa3e 553e 5b2b f03d 4005 3e3e c892 3bbe
00000130: 4ad4 9fbd e1f3 46bd b487 35be e8e5 11be
00000140: 72d3 5abe dfcc 6f3e ab7a d1bd 47c4 a03d
00000150: cc48 483e b7f5 5d3d 704e 31be eed2 073e
00000160: 21a9 a13e 3112 4abd c887 a0bd fb41 973e
00000170: a9fe 713e dac3 0cbe 2092 cbbe f82e bfbe
00000180: e0d7 bdbe 50cb cebc 966b 6f3e 434a 31bd
00000190: ed47 cb3d b662 503e 5974 04be e025 adbc
000001a0: 36a7 0cbe 9834 a9be d615 23be 04a0 9c3c
000001b0: 22a5 fbbc 061e 62be 8998 f1bd 944f 61bb
000001c0: 06d8 fcbd b3d7 cf3d 1cb8 9b3d 4e6d aabd
000001d0: 9b87 ac3d 8eac 38be 6569 e03d 3033 b5bd
000001e0: c856 443e 009c 2f3e 5c3e afbc 5f76 493d
000001f0: 366b da3d 2bdd 783e 71ee 2c3d b32e e1be
00000200: 1f29 b43d 2be6 3bbd 8512 f83d 65b0 05be
00000210: 431e 9b3d 509e 523e 72cd 35be 951f 483e
00000220: 9d18 e2bd d720 013e 661e 8dbe bd34 ecbd
00000230: 490b 38bd 7af4 873d db41 03be 5ec0 1fbe
00000240: c0b7 4a3e ee05 d23e c663 563e 1544 9abd
00000250: f662 e73e c971 b03d e353 ae3c 8f62 6dbe
00000260: a542 68bd 7f9d 363d 2e40 c83e c878 863e
00000270: e3fb c03b 78ca 90bb 73d4 debc 0763 4a3e
00000280: e51c 86bd e37a 8d3d 4ed2 4e3e 508e 9dbe
00000290: f5bd 553d bfba a3bd b571 78be 8cdb 373e
000002a0: 4fe3 65bd a97f cf3c 51ac 943d 4c90 053e
000002b0: cb76 7f3d 2c2a 083e 3200 893c af09 e13d
000002c0: 3d72 d33d d51e 0cbe 857f 503e 6be9 84bc
000002d0: 0ebe cf3e 8607 8d3e 2754 983d a9e8 ae3d
000002e0: 76bb 0e3e 3b94 a0bd dae5 a43e 2f60 24bc
000002f0: 96ca 12be ee6e 3bbe 7c55 44be f325 4cbe
00000300: 3bc7 cd3d f877 25bd c884 f8bd 8f2f 09be
00000310: 9ee1 6abd 9131 b7be 18d6 22bd 7c77 33be
00000320: 6422 3a3e d3c2 063e 50a7 033d ba8b 06bd
00000330: a642 2a3e 3ece 373d 61eb b33e ec5b 1e3d
00000340: 9030 d1bd af7b 8d3e 76b0 483e 73d4 a4bd
00000350: 04b4 17bb 20cf 643b 9f6d f93e 1f46 92bc
00000360: a851 8ebd 740e 13be b3b1 32be fee4 07bd
00000370: 040b bd3e a20f 2dbe a303 933d af57 033e
00000380: 417b dc3d ea7b 213d 326a 2fbe aa29 e2bd
00000390: 8968 b3bd 8086 163d 1352 723e 9469 fabc
000003a0: 5c6f e7bd 135c b6bd 4a45 f53d 7d7d 763e
000003b0: 7c6b bdbe 4bb6 b7bd 0ab9 b43e 9bac 973e
000003c0: a650 b93d 4621 86be 9636 103d 733c 00be
000003d0: 76c9 ce3c 058b 9ebe 36d7 2fbe 276b a93d
000003e0: 4a1b 37be 4230 42bd cbed ea3d a888 733e
000003f0: a2b9 8bbe b5a3 a63d bffc 1ebe 9670 06be
-0.19409376 0.06162919 0.18754248 0.13470863 -0.21721011 0.11243597 -0.08967722 0.043022297
0.0101354625 -0.12422781 -0.16059653 -0.119499 0.0006445397 -0.22812597 0.06125454 -0.05418826
0.102446064 0.059329897 0.2813522 0.16396041 0.026579302 0.13915354 -0.10659382 -0.15839997
-0.12044485 -0.06355431 -0.3185012 -0.0055384072 0.066790506 -0.11541681 -0.25316688 -0.04689697
0.012312008 0.06631037 0.05036018 -0.14638375 0.12464586 -0.72318417 -0.09458705 -0.102043875
0.10507378 -0.14129674 0.10481199 0.033634312 -0.24536413 0.043911584 0.1445237 -0.036748998
0.2243723 0.09798613 -0.021330588 -0.12053269 0.09255339 0.007863921 -0.14802912 0.11082179
0.16866656 0.0033914875 -0.28858805 0.15806013 0.51317734 0.2296187 -0.053969547 0.26186427
-0.07941559 0.11037693 0.08924143 0.002110842 -0.02178089 -0.18711787 0.14662054 -0.22583234
0.20824805 0.117270194 0.1855669 -0.18317711 -0.07804163 -0.048572425 -0.17727548 -0.14247859
-0.21369722 0.23417996 -0.10228475 0.07849937 0.1955902 0.05418941 -0.17315078 0.13264057
0.31574348 -0.049333755 -0.07838398 0.29542527 0.23632301 -0.13746586 -0.39759922 -0.37340522
-0.37078762 -0.025243431 0.23380885 -0.043283712 0.09925828 0.20350155 -0.12935008 -0.021136224
-0.13735661 -0.33047938 -0.15926298 0.01911927 -0.03071839 -0.22081766 -0.11796672 -0.0034379708
-0.12345891 0.10148563 0.076034755 -0.083216295 0.08424302 -0.18034574 0.109576024 -0.08847654
0.1917373 0.17149353 -0.02139204 0.049185153 0.1066498 0.24303119 0.042219583 -0.4398094
0.08796906 -0.045873802 0.12112907 -0.1305557 0.07574131 0.20568204 -0.17754152 0.19543298
-0.11039851 0.12610184 -0.27562255 -0.115334965 -0.044932637 0.06638427 -0.1281809 -0.15600726
0.19796658 0.4102015 0.20936498 -0.07532517 0.4519269 0.08615453 0.021280235 -0.23182128
-0.056704182 0.044583794 0.39111465 0.26264024 0.0058894022 -0.0044186674 -0.027200913 0.19764338
-0.0654848 0.069082044 0.20197412 -0.30772638 0.05218311 -0.07994603 -0.24262126 0.17954844
-0.05612498 0.025329428 0.07259429 0.13043326 0.06236915 0.13297337 0.016723726 0.10988175
0.103245236 -0.13683636 0.20361145 -0.016224584 0.40574688 0.27544802 0.07437926 0.0854047
0.13938698 -0.07840773 0.32206613 -0.010032698 -0.14335093 -0.18304035 -0.19173235 -0.19936351
0.10047766 -0.040397614 -0.12134701 -0.13397048 -0.05734407 -0.35780004 -0.039754957 -0.17526048
0.18177181 0.13160257 0.032141984 -0.032848097 0.16626987 0.044874422 0.35140517 0.038661882
-0.10214341 0.27633426 0.19598565 -0.08048334 -0.002314807 0.0034913495 0.48716447 -0.017855702
-0.069491684 -0.14360982 -0.174506 -0.03317737 0.36922467 -0.16900495 0.07178428 0.12826417
0.10765696 0.039424814 -0.17130354 -0.11043103 -0.08760173 0.036749363 0.23664121 -0.030567922
-0.11300537 -0.089042805 0.119761065 0.24071307 -0.36996067 -0.089703165 0.35297424 0.29623875
0.090485856 -0.2619726 0.035208307 -0.1252306 0.025242548 -0.30965438 -0.1717194 0.08272391
-0.17881504 -0.047409303 0.11471137 0.23782599 -0.27290064 0.081366934 -0.15526102 -0.13128886

base.critic.2.bias f4 [64]
00000000: d61f 1d3c 3e69 d53b ca01 873b 1301 80bc
00000010: 58e5 183c c225 45bb 6105 063b 7cc7 20bc
00000020: 8c38 afbb 8a4d 063c 634c 853c 626c 313c
00000030: 07e0 40bc ec19 c23a 2db0 9a3c 8671 1dbc
00000040: a8b9 813c ae52 4c3b 3799 843b 0570 653a
00000050: 2cc6 62bc 8757 ddbb f1bc 1ebb b995 15bc
00000060: 6b68 2cbc fb8b 74bc e518 833c ef3d 843c
00000070: 57dd 90b9 2363 85bc 7784 9aba 7162 e83b
00000080: 5a87 623c 182d 0cbc bf7a 233c e79f 803c
00000090: 521b 053c 0b4c ecbc b5c3 60bc 6c5f 5e3c
000000a0: 38d0 a9bb 97b4 563c 9916 783c 43bb 613b
000000b0: 4ae7 95bb fce3 813c 224e 00bc deef bb3a
000000c0: 9524 2b3b b50b 9fbb 3539 193c e747 093c
000000d0: 6b8e 6cbc 29cc 77bc 6b05 91bb 6c95 c4bb
000000e0: 794f 3e3b 6cd0 063b a1ee c13b 5f9b f7bb
000000f0: 827f fe3b f3dc fc3b 9e53 d23a 9801 f93b
0.00959011 0.00651279 0.0041200863 -0.015625512 0.009332024 -0.003008232 0.0020449983 -0.009813186
-0.005347317 0.008197198 0.016271776 0.010829063 -0.011772162 0.0014808751 0.018882835 -0.009609586
0.015835598 0.003117721 0.004046585 0.0008752349 -0.013841193 -0.006754819 -0.0024221505 -0.009129935
-0.010522942 -0.014925952 0.016003082 0.016142813 -0.0002763073 -0.016282624 -0.0011788745 0.0070918133
0.013826216 -0.008555673 0.009977995 0.015701247 0.008124189 -0.028844854 -0.013718535 0.013572555
-0.0051822923 0.013104579 0.015142106 0.0034443892 -0.004574691 0.015855782 -0.007831128 0.0014338454
0.0026114334 -0.0048536905 0.009352018 0.008378959 -0.014438252 -0.015124359 -0.0044256947 -0.005999258
0.0029039069 0.0020571006 0.0059183394 -0.0075563635 0.007766665 0.007716769 0.0016046648 0.007599067

base.critic_linear.weight f4 [1, 64]
00000000: b1cd cbbe 2f13 dd3d ad98 1ebe a964 60be
00000010: 5118 b3bd fdac 8a39 527f 823a f079 0d3e
00000020: 4b9f 83bd f6cc 22be d231 463e 4e46 133d
00000030: e980 eabd b893 72be f96a 2db8 d0bd 683e
00000040: 0940 cd3e b9b8 b3bc b64e f6b4 3243 1fbd
00000050: a419 92bd f155 863d 6816 97b2 1544 eb3e
00000060: c994 893e e3fd 92be 537e 163e 3baf 543e
00000070: 9d87 8cbe c22d 7cbe 0b3e 9d3c 0f0f b93d
00000080: 507b aa3d 936a 073e cc5b e73d 0a34 013e
00000090: 323c c3bd d3b8 fdb1 4c0a a8be a0b9 a23d
000000a0: 0514 ea3d 0c1e cf3d 6168 c73d 8b30 6ab1
000000b0: 5b13 413d e091 043e 14ba 743e 15f2 69be
000000c0: 213f dfbd 6e69 943e fac2 03be b28f 00be
000000d0: 9503 eabd d89d 10be 8bc3 fdbc b976 82bd
000000e0: 86f1 a33d cbde 9f39 2f4b 0cbb cbe0 623e
000000f0: 88c2 1fba 73ce d9bd f11b 94bd 4d8b 81bd
-0.39805368 0.107946746 -0.15487929 -0.21913399 -0.08744872 0.00026450297 0.0009956157 0.13816047
-0.06426867 -0.15898499 0.19354942 0.03595572 -0.11450369 -0.23689163 -4.134604e-05 0.22728658
0.40087917 -0.021938669 -4.587834e-07 -0.03888244 -0.07133797 0.06559361 -1.7588903e-08 0.4595038
0.26871327 -0.28709325 0.14696626 0.2076997 -0.27447215 -0.2462683 0.019194623 0.09036075
0.08324301 0.13224249 0.11296806 0.12617508 -0.09532966 -7.384281e-09 -0.32820356 0.079455614
0.114296 0.10113153 0.097367056 -3.4079075e-09 0.0471376 0.12946272 0.23899108 -0.22846253
-0.10900713 0.28986686 -0.12867346 -0.12554815 -0.114264645 -0.14122713 -0.030977031 -0.06370301
0.08005051 0.00030492837 -0.0021407118 0.22156064 -0.0006094356 -0.1063508 -0.07231892 -0.06325398

dist.dst_type_linears.0.weight f4 [3, 64]
00000000: 5683 313c 63b5 81bd c574 c03d 1070 dcbb
00000010: bc07 c83d d19f e43c 64bd c83d bbf3 2a3d
00000020: 2f45 b73d b694 d23b 6673 05bd a6db f93c
00000030: ba81 873d 840c b7bd 4828 b33d 7878 0bbd
00000040: f527 bb3d 3d0a c33d a230 33bd 0224 bebd
00000050: 38b8 c8bd e45c bfbd 23ed b63d d8a9 2dbd
00000060: dd83 17bc 5c0b a9bd 88a0 9bbd 883e bf3d
00000070: 6d0c b93d f170 b43d 7b5f c8bd b7c7 babd
00000080: 9c45 c13d c6be f33c cdfa b63d 5afd 82bd
00000090: 0b9c ca3d 7c2e b8bd b915 cc3d 906e 9dbd
000000a0: c9d9 9f3d a70c c0bd ccd0 6e3c f314 c53d
000000b0: db2e f93c 8fba 82bd 074e b33d 5824 b93d
000000c0: 0422 b7bd 7ba7 7cbc 5a75 c83d bb87 2e3c
000000d0: 0b3e c13d 83f0 433d 5724 f5ba d01e 95bc
000000e0: 2d10 b93d 2d78 b13d e822 adbd 692d 803c
000000f0: 3c55 b73d 9c20 c23d 159b bbbd 381d bbbd
00000100: b2c5 cebc d2f7 223d d87b 43bd e2df 843c
00000110: 3bfb 47bd 1406 2fbd 2ac2 6fbd 379b 3dbd
00000120: c63e 0dbd 0bc9 c73b 02d5 fc3b 3397 37bd
00000130: 2d64 38bd 84a4 323d 647b 03bd 479b 173d
00000140: 7822 82bd d2ce 2ebd 0a33 1b3d 1a0e 113d
00000150: 2c1a 473d 6b4a 783d e5d9 0cbd 09d9 333d
00000160: c9ca d13c 4853 2e3d bf1a 6c3d 1748 2bbd
00000170: c014 08bd cff7 03bd 162e 473d e4c2 0d3d
00000180: 5b99 2ebd 4365 aebc 5816 11bd 7d14 0d3d
00000190: 7773 55bd fa10 0c3d 61a7 8dbd 9021 103d
000001a0: 533b 21bd a885 213d cdba 05bd 8b07 2bbd
000001b0: 2bfd 26bd 5299 ee3c 529f 4fbd fcb7 10bd
000001c0: 7135 0e3d 3c80 483b cdcf 6cbd 9564 a3bc
000001d0: d9cb 30bd 721a 24bd 2f9f 9d3c 66d8 bd3c
000001e0: 1bc1 08bd 1d4d 00bd f7c3 503d 7176 cbbb
000001f0: fadd 06bd fdfa 18bd 671b 6e3d 58d1 143d
00000200: 643e 413c e9ea 8e3c acf4 84bd f8f2 2dbc
00000210: fbfb 87bd c498 b73b c68f 70bd 6832 12bc
00000220: 49c8 83bd c23f 33bc b454 9a3c 763b d83b
00000230: eca6 f5bc 21d2 1d3d 1c6e 87bd d02c 243b
00000240: b8f6 4dbd 3519 8dbd 040b 4c3c 291f 873d
00000250: a122 843d 12fa 583d 1eda 88bd 770c e8b9
00000260: 2d46 1fbc 6cf7 fc3c 686c bc3c cfa1 61bd
00000270: 8160 86bd dde9 87bd f677 8e3d 00bc 843d
00000280: 08f7 8abd 5d95 37bc dec5 84bd 676d a63c
00000290: cdba 84bd 909a 863d 18f5 77bd 265e 5a3d
000002a0: d526 05bd fb80 8a3d e35e fc3b 0187 81bd
000002b0: ac5e e7ba 05cc d03c a307 46bd 9e0f 86bd
000002c0: 25e9 813d 747b 163b e14c 6ebd fd47 293c
000002d0: 3df5 86bd 950d 9bbc ee9f 26bc a344 61bb
000002e0: 12d2 83bd 8fc8 85bd 7044 2d3d dd69 68bc
000002f0: ce19 83bd 7c9b 8dbd d5e3 523d 72af 823d
0.010834536 -0.06333425 0.09397272 -0.006727226 0.097671 0.027908238 0.098017484 0.041736346
0.089487426 0.006426419 -0.032580756 0.030500244 0.0661654 -0.08937934 0.087479174 -0.034050435
0.091384806 0.09523437 -0.04374755 -0.09284212 -0.09800762 -0.09343889 0.08931949 -0.042398304
-0.009247747 -0.0825412 -0.07598978 0.09338099 0.09035573 0.08810604 -0.097838365 -0.09120124
0.09437105 0.029754054 0.08934555 -0.06395979 0.09893044 -0.08993241 0.09965081 -0.07687104
0.07805211 -0.09377413 0.014576148 0.09623136 0.03041785 -0.063832395 0.08755117 0.09040135
-0.08942035 -0.01542079 0.09788008 0.010652478 0.09435662 0.04783679 -0.0018702847 -0.01820317
0.090362884 0.086655 -0.084539235 0.015646653 0.08951804 0.09478876 -0.09160439 -0.091364324
-0.025240753 0.03978712 -0.04772553 0.016220037 -0.048823576 -0.042730406 -0.05853478 -0.046290603
-0.034483694 0.0060969642 0.007715822 -0.04482193 -0.04501741 0.043613926 -0.032100096 0.03701332
-0.06354231 -0.042677708 0.03789047 0.03541384 0.048608944 0.060617846 -0.034387488 0.043908153
0.02560939 0.042559892 0.057642695 -0.041816797 -0.033222914 -0.03221875 0.048627935 0.03460969
-0.04262672 -0.02128852 -0.0354217 0.034443367 -0.05211207 0.034195878 -0.069166906 0.035188258
-0.039363217 0.039434105 -0.03264885 -0.04175524 -0.040768784 0.029125843 -0.05068905 -0.03533171
0.034718934 0.0030594012 -0.05781536 -0.019945422 -0.043163154 -0.040064283 0.019240944 0.023174476
-0.033387285 -0.03132354 0.050968137 -0.0062091877 -0.032926537 -0.037348736 0.0581316 0.03633246
0.01179466 0.017445998 -0.0649198 -0.01061701 -0.06639858 0.005602928 -0.058730863 -0.008923151
-0.06434686 -0.010940494 0.018839218 0.006598885 -0.029986821 0.038530473 -0.066127986 0.0025051124
-0.050284117 -0.068895735 0.012453798 0.0659774 0.064519174 0.05297286 -0.066822276 -0.00044259775
-0.009721321 0.030879699 0.02300091 -0.055085953 -0.065613754 -0.06636403 0.069564745 0.06481171
-0.06785399 -0.011205045 -0.06483053 0.020315839 -0.06480942 0.06572449 -0.060536474 0.053312443
-0.032507736 0.06762882 0.007701741 -0.06324578 -0.0017652116 0.02548791 -0.048347127 -0.065459475
0.06343297 0.0022961767 -0.058178786 0.010332105 -0.06589744 -0.018927375 -0.010169966 -0.0034373186
-0.06436552 -0.06532394 0.042301595 -0.014185396 -0.06401406 -0.06914422 0.05148681 0.0638112

dist.dst_type_linears.0.bias f4 [3]
00000000: 28c6 b53d 279a 04bd e534 84bd
0.08875686 -0.032373574 -0.06455401

dist.dst_type_linears.1.weight f4 [3, 64]
00000000: da0e af3a fc12 8abc d327 153c e816 81bc
00000010: aa14 4d3c 5107 b43c 1a6b d23b 10b9 933c
00000020: f4f3 6b3c ac1e f63c 28a7 02bd aaf3 a73c
00000030: 17ac c03b f241 1cbc 58da 7b3c 12b3 aabc
00000040: eaca eb3b 543b 6f3c 6add edbc dcc2 5cbc
00000050: 0f2d 38bc edfa 05bc 0ba7 7a3c 0e8e 47bc
00000060: cfd1 07bc 4ced 92bc f873 4fbc f693 a53a
00000070: 8d6a 633c eeb0 563c d038 55bc 223b 47bc
00000080: 7449 423c 7528 233d 830b 603c 72d8 d3bc
00000090: 04cd 1f3c 9bc7 71bc 6e7c e83b bd17 98bc
000000a0: bcfe 873c 1aaa 67bc 0f95 9c3c 8857 393c
000000b0: 320f cd3c 3fe4 ccbc aef6 e83b 45aa 793c
000000c0: 5012 6bbc 5ba1 dcbc 5379 fe3b 4360 7a3c
000000d0: ebfd 573c c92a 0a3d f368 553c c8df c4bc
000000e0: 19ae 6c3c 058f 733c a534 09bc 50b9 153d
000000f0: 362a 663c 2527 593c a01d aebb 3258 61bc
00000100: e19b cbbb 40db 41bb 639a c43c 6767 e8bb
00000110: 7739 ce3c cbf5 7cbc b0e0 e53c 4f75 b0bb
00000120: 06bc af3c eb62 d8bc d43b 8a3c d574 f3bb
00000130: e177 a83c 13cf 83bc 69d9 9d3c ca79 963c
00000140: 51a3 d03c 44e5 b83c ea78 6c3b 461c aabc
00000150: ba30 cdbc 877c e0bc dce0 9d3c d00e 263c
00000160: 153b 553b 3dff 8dbc e9a9 32bc 3062 dc3c
00000170: 1f40 9b3c 2897 a53c 5b83 ccbc 008d a5bc
00000180: 3c3f bc3c 4cf7 56bc 8bca 993c 4c50 f4bb
00000190: f49f c73c 5d29 9dbc 2e36 e73c e9af a9ba
000001a0: 2b7b 323c 3b0c babc f9df 7dbc d542 cc3c
000001b0: 8a10 d5bc 9ad7 c7bb 35dd d13c 78ad 9c3c
000001c0: 8335 98bc 7d32 273c a5a3 e13c 1c95 d4bc
000001d0: 15dc ba3c 599f c3bb 027d 8dbc ea94 ee3c
000001e0: 26e1 af3c a972 a43c 3792 c0bc f403 79bc
000001f0: 7cff 963c 9ac1 b63c 4cb6 ecbc 23b0 a5bc
00000200: 5f9f 663c 7ac8 903d a16f 90bd 9d72 a03c
00000210: 4fa8 8abd fb45 2b3b 3889 9bbd c1b6 0bbc
00000220: 054a 7dbd 0e0c 9dbc 0d3f f93c 39d6 2abc
00000230: 7f1e 6fbd fbaa 883d 42df 66bd 8d4e 70bc
00000240: a4da 9bbd d43a 7abd aedc 6d3d bdac 783d
00000250: d546 8c3d f610 9c3d a3cb 6bbd ffc1 003d
00000260: b0d6 feba 696a 953d 622c 963d 7171 41bd
00000270: fea3 73bd 4e14 69bd 8aaa 8d3d 4649 6a3d
00000280: 0b0c 7fbd 68c1 5fbd 2b13 7abd cfea 903d
00000290: ad51 96bd ad51 793d a154 9ebd 1b93 573d
000002a0: 0b7a 8bbd 2ed9 7d3d b28c 0d3c e2b2 84bd
000002b0: 9955 063c e92a 773d fc11 a0bd 6f5b 7bbd
000002c0: 17bf 733d 0e7c a53c 9874 a1bd a89a 203d
000002d0: 7835 87bd 3445 92bd a60d 1f3c 5dac 11bd
000002e0: af74 73bd 5f12 6dbd 9c15 9f3d 51e1 4ebd
000002f0: 3bc1 70bd ac0c 7fbd dd1f 9c3d e286 6f3d
0.0013355867 -0.016854756 0.009103733 -0.015757993 0.012517134 0.021976145 0.006421459 0.01803258
0.014401425 0.030043922 -0.031897694 0.02050193 0.0058798897 -0.009537207 0.015371881 -0.02083734
0.00719582 0.014601547 -0.029036243 -0.0134741925 -0.011241212 -0.008177501 0.015298615 -0.012179865
-0.008289768 -0.017935418 -0.012661926 0.0012632597 0.013880384 0.013103707 -0.013014033 -0.012160094
0.011858333 0.039833505 0.01367462 -0.025860045 0.009753469 -0.014757062 0.0070949113 -0.018566007
0.016600959 -0.0141396765 0.019114045 0.011312373 0.02503166 -0.02501118 0.0071094846 0.015238349
-0.014347628 -0.026932409 0.007765928 0.01528174 0.013183097 0.03373221 0.01302551 -0.024032488
0.014445805 0.0148656415 -0.008374368 0.03655368 0.01404815 0.013253962 -0.00531359 -0.013753938
-0.0062136506 -0.0029580146 0.023999399 -0.0070924046 0.025173886 -0.015439461 0.02806124 -0.005385078
0.021451961 -0.026414355 0.016874231 -0.007429699 0.020564975 -0.016089952 0.019268708 0.01836862
0.0254685 0.02257026 0.0036082813 -0.020765435 -0.025047649 -0.02740313 0.01927226 0.0101353675
0.0032536436 -0.017333621 -0.010904768 0.026902288 0.018951474 0.020213678 -0.024964979 -0.020208836
0.022979371 -0.013120484 0.018773338 -0.007455861 0.024368264 -0.019184763 0.028224077 -0.0012946102
0.010893623 -0.02271091 -0.015495294 0.024934212 -0.026008863 -0.0060986998 0.025618175 0.019125685
-0.018580204 0.010204908 0.027543852 -0.025950007 0.022810021 -0.0059699235 -0.017271522 0.029123742
0.021469664 0.020074205 -0.02350722 -0.015198696 0.018432371 0.022309113 -0.02889552 -0.02022559
0.014076083 0.07069488 -0.070525415 0.019585902 -0.067703836 0.002613424 -0.07594532 -0.008527459
-0.06183817 -0.019170787 0.030425573 -0.010427051 -0.058378693 0.06673237 -0.05636526 -0.014667165
-0.07610062 -0.06109126 0.058071785 0.06071161 0.06849448 0.076204225 -0.05756725 0.03143501
-0.0019442644 0.07295687 0.07332684 -0.047227327 -0.059482567 -0.05690413 0.06917293 0.057198785
-0.062267344 -0.054627806 -0.061053436 0.07076036 -0.07339797 0.060868908 -0.077309854 0.052630525
-0.06810387 0.061974697 0.008639501 -0.06479432 0.008199119 0.060343657 -0.0781593 -0.061366495
0.05950841 0.020200755 -0.078835666 0.03920999 -0.06601995 -0.07142106 0.009707844 -0.03556477
-0.05943745 -0.05787885 0.077677935 -0.050507847 -0.05877803 -0.062267944 0.07623265 0.058478244

dist.dst_type_linears.1.bias f4 [3]
00000000: 4c63 633c 3b89 9a3c 1039 6dbd
0.013878655 0.018864265 -0.057915747

dist.dst_type_linears.2.weight f4 [3, 64]
00000000: dc33 e73b e613 693d b471 63bd 1484 bebc
00000010: 3987 5bbd 804d 44bc 1c0b 7cbd 5f62 1ebd
00000020: f85c 4bbd 9a18 9ebd 6ca4 833d 4784 6cbc
00000030: 0a82 82bd a94e 953d a626 3ebd 4f0a 983c
00000040: 2325 82bd 3562 5cbd 611a 6f3d b94f 593d
00000050: fb92 643d e466 7c3d 2650 45bd 36b0 733d
00000060: a548 08bc 1af7 893d c386 6f3d 1729 84bd
00000070: 5d5e 4bbd b213 3fbd 5957 6e3d f297 4a3d
00000080: f5d0 5dbd fc1a 61bd f9f0 49bd aed0 853d
00000090: 4f99 6fbd 7733 503d 31b4 80bd 1a52 a53d
000000a0: f38e 98bd 8a04 593d e84b 3cba cfbe 59bd
000000b0: 9399 dfbc 083c 913d 356e 81bd ced2 41bd
000000c0: 3205 4d3d fd39 1a3d cdc2 7fbd eda4 af39
000000d0: 8836 56bd 0b1b 83bd 2cfe 2fbd 305a 143c
000000e0: 665f 4cbd 9865 48bd 3382 843d 9f31 85bd
000000f0: 972b 48bd 3974 57bd 9019 7b3d ed91 4c3d
00000100: 390e 083c 04ea 97bd cd92 5d3d 49f4 053c
00000110: 3b92 5f3d f0d2 0d3d b2b5 703d 65ee 503d
00000120: e59b 463d 3f6b 783d 0878 8abd 449f f53c
00000130: 4329 673d 799d 98bd b49d 3c3d f1ea 3dbd
00000140: 54eb 603d 448a 5c3d 1d4b 98bd 51ba 4cbd
00000150: 60cf 59bd 9c6a 63bd 0159 3e3d f8b8 7fbd
00000160: 0227 ebbb 3ed0 9cbd 6bfd b1bd 658f 893d
00000170: 8ba6 3b3d 2aec 3a3d d477 5dbd a520 3dbd
00000180: d907 553d ce58 813d fa3b 483d 2f80 9ebd
00000190: cc60 653d 0a4d 42bd b3a6 643d 212c 82bd
000001a0: 1468 933d 282f 4dbd ea73 e43c 23b1 5f3d
000001b0: 8e05 523d 49e2 92bd d7cf 723d 3fef 413d
000001c0: 2927 3dbd 5b70 56bd e5f2 693d e1e8 a03c
000001d0: bd0a 5b3d 3471 953d d4fb 453d c77e f3bc
000001e0: 3a9d 3f3d 8263 413d eb0e 61bd 6a30 603d
000001f0: 6ab5 3b3d 4f9b 523d 3ee5 68bd a3af 54bd
00000200: 24fd aabc 2ae5 0d3d 88cb 83bc bade 413c
00000210: 240e 7ebc f216 07bd 46c2 a3bc 1881 d1bc
00000220: b134 30bc 9e5c 8e3b f326 023c f6eb ffbc
00000230: 0e5f c8bc 3a2b 9e3c 45d6 10bc d9e0 063d
00000240: abcd a1bc bceb 6fbc 17d9 af3c 1ac6 263c
00000250: 202d 823c 4374 863c d1f3 1cbc 2ec8 b63c
00000260: 7feb b43c 37e9 d83c a1b7 3a3d d19b 2abc
00000270: 5f7b ebbb 4cb9 19bc 1844 8c3c bc6f 1b3c
00000280: d565 47bc 5b94 60bc 5d3b dbbb 89a3 e83c
00000290: a771 9dbc e31d 063c 3b0c a6bc 8326 5039
000002a0: 8344 9fbc 58ba 1b3c 2d0c 01bd 6d74 77bc
000002b0: 7535 fabc 297c a63c 3f16 bbbc 4778 12bc
000002c0: 289a 233c 6a43 963c 14e0 9bbc fdda f2bc
000002d0: 9e8e 7fbc 8d33 bebc 7522 0fbb cc94 d83c
000002e0: 3efa 0cbc 1296 0abc ea89 9f3c 7bf7 2abc
000002f0: b66b e7bb 7a91 55bc 515e a53c f926 233c
0.0070557427 0.056903742 -0.055528358 -0.02325634 -0.053595755 -0.011981368 -0.061534032 -0.038668033
-0.04964921 -0.07719536 0.06427845 -0.014435834 -0.06372459 0.07290394 -0.046423577 0.018559603
-0.063547395 -0.053804595 0.058374766 0.053054545 0.055804234 0.06162156 -0.04817214 0.05949422
-0.008318101 0.06736584 0.05847813 -0.0645315 -0.04965054 -0.046649642 0.05818877 0.049461313
-0.054154355 -0.054957375 -0.049302075 0.06533943 -0.058495816 0.05083033 -0.06284369 0.080723
-0.074491404 0.052982844 -0.0007182942 -0.053160485 -0.02729491 0.07091528 -0.063198484 -0.04732018
0.050053783 0.03765296 -0.062441636 0.0003350148 -0.0522981 -0.064016424 -0.042967007 0.0090547055
-0.049895667 -0.048925012 0.06470146 -0.06503605 -0.048869696 -0.052601073 0.061303675 0.049943853
0.008304172 -0.07417682 0.05409508 0.008175918 0.054582816 0.034624994 0.05876703 0.0510086
0.048488516 0.060649153 -0.067611754 0.02998317 0.056435835 -0.074519105 0.046048835 -0.046366636
0.054911926 0.053842798 -0.07436202 -0.049982373 -0.053176284 -0.055521592 0.0464716 -0.06243226
-0.007176281 -0.076569065 -0.08690914 0.067168035 0.045813125 0.04563538 -0.054069355 -0.04617371
0.052009437 0.06315766 0.048885323 -0.07739293 0.056000516 -0.04743675 0.05582304 -0.06356073
0.07197586 -0.0500938 0.027887303 0.05461229 0.05127483 -0.07172067 0.059280243 0.047347303
-0.046179924 -0.052353244 0.057116408 0.019642295 0.053477038 0.072969824 0.048335865 -0.029723538
0.046780802 0.04721404 -0.054945868 0.05473367 0.045827307 0.051417645 -0.056859247 -0.051925313
-0.02087266 0.034642376 -0.016088262 0.011832887 -0.015506301 -0.032980867 -0.019990098 -0.025574252
-0.01075475 0.004344537 0.0079438565 -0.031240445 -0.024459388 0.019307721 -0.008840148 0.032929275
-0.01975139 -0.014643606 0.021465821 0.010179067 0.015890658 0.01641286 -0.009579615 0.02231225
0.02208495 0.026478393 0.04558528 -0.010413126 -0.007186338 -0.009382557 0.017122313 0.009487089
-0.012170275 -0.013707246 -0.0066904263 0.028398292 -0.019219233 0.0081858365 -0.020269504 0.00019850773
-0.019441849 0.009504877 -0.031505752 -0.015103442 -0.030543068 0.020322876 -0.022837756 -0.008939809
0.009985484 0.018342692 -0.019027747 -0.029645437 -0.015597967 -0.02321794 -0.0021840606 0.02643814
-0.008604584 -0.008458631 0.019474942 -0.0104349805 -0.0070624007 -0.013035173 0.020186575 0.009958022

dist.dst_type_linears.2.bias f4 [3]
00000000: bacf 45bd 3fe7 3e3d 6908 03bc
-0.048293807 0.046607252 -0.007997611
