route_dev/drl-or/model/test/agent0.pth (torch, 225285 bytes, 31 tensors)

base.actor.0.weight f4 [64, 343]
000000 f9 ca 80 bb 2b a6 1e 3e 84 47 d3 bd f4 58 fc bd
       -0.003930446 0.15493076 -0.10316375 -0.12321654
000010 3a 13 e6 bd d3 ea 2d 3d ba 7c 4d bd e9 0d 48 bc
       -0.11234136 0.042460274 -0.050167777 -0.012210348
000020 24 40 70 3d 56 17 8e bd 38 9a 95 3d 0e ab d0 3d
       0.05865492 -0.06938045 0.073048055 0.10188876
000030 16 9c 1e be 83 f2 30 bd 70 0c a7 3c 1b 00 0a 3e
       -0.1548923 -0.043200027 0.020391673 0.13476603
000040 d7 3b 82 3c a6 71 20 3e 70 3e d3 3d 28 af ac 3d
       0.015897674 0.15668353 0.103146434 0.08431846
000050 0e c5 b4 bd db 99 14 bd f4 33 db bc b7 b3 ef 3d
       -0.08826648 -0.03627954 -0.026758172 0.117042
000060 4c 79 65 bb 0a 0e 20 bd 1a 78 c4 bd 9b f1 a0 bd
       -0.0035014926 -0.03907589 -0.0959322 -0.078585826
000070 e5 4d e9 3d 0f 3f 32 bd 8c bd a1 3c 1e f4 2b 3b
       0.1139181 -0.04351717 0.019743703 0.0026238034
000080 ac 98 46 3e 2d ee 34 3d 40 b1 a3 bb 02 45 c0 3b
       0.19394177 0.044172455 -0.004995495 0.0058676014
000090 54 28 65 3d a0 9a 2f bd 91 51 94 bd cb bf d0 bc
       0.055946663 -0.04287207 -0.0724212 -0.025482079
0000a0 99 09 a4 3d 84 1c 17 bc 99 d4 e6 3d 11 7b ac bc
       0.08009643 -0.009223107 0.112710185 -0.021054776
0000b0 ea 1a 5f bc 64 af 1a 3d ee 4e ca 3d 95 f4 5e bc
       -0.013617257 0.03776492 0.09878336 -0.013608118
0000c0 e7 20 4f 3d 50 72 23 bd fb fe be 3d 98 26 c0 bc
       0.050568487 -0.03990394 0.093259774 -0.023455903
0000d0 70 ea 83 3d e7 0c 21 3e e4 86 ae 3d ef a2 f1 3b
       0.064412 0.15727578 0.08521822 0.0073741595
0000e0 e0 be 50 3e e7 5b 02 3e 9a a5 01 3c 39 e6 ee bc
       0.20385313 0.1273037 0.007913018 -0.029162513
0000f0 60 14 7f 3d 08 37 21 bd dc 90 77 bd 18 99 25 3c
       0.06227529 -0.039359123 -0.060440883 0.010107301
000100 df e7 ca bd 15 a2 3a bd 2e c3 88 3d 0a 7c db 3d
       -0.09907507 -0.04556473 0.066778526 0.10717018
000110 d2 fb 20 bd 00 9a 4b 3d a3 3e d7 3c d4 f8 25 bd
       -0.039302655 0.049707413 0.026274985 -0.040520504
000120 fa 3e 4e 3e c7 b6 50 3d c3 73 8f bd f2 0d ab 3d
       0.20141211 0.05095556 -0.07004502 0.08352269
000130 a7 ca 2c be 7f 44 5c bc 40 19 c7 3d 09 f4 63 bd
       -0.1687418 -0.013444065 0.09721613 -0.055652652
000140 2c ea 71 3d 05 70 02 bd 79 76 c2 ba bd 62 8c 3d
       0.059061214 -0.03184511 -0.0014836333 0.0685477
000150 f2 4b ff 39 0b 0d 4f bc 79 9f 93 3d 43 36 e7 3b
       0.00048693974 -0.012637387 0.07208151 0.007056029
000160 38 5f 0d 3c 4c 98 c0 bc b0 c8 9d 3d 14 79 6d 3d
       0.008628659 -0.02351012 0.07704294 0.057976797
000170 b5 4b b4 3d 58 1d 27 3e dc eb aa bd dd ac 7a bc
       0.088035025 0.16319788 -0.08345768 -0.015300003
000180 4a 26 35 bc c6 7d 5a 3d c6 44 c4 bd 99 45 eb 3d
       -0.011056492 0.053342603 -0.0958343 0.11487884
000190 5f 0b 6b bd 87 b0 62 bc 28 59 cb 3d 34 63 ca bd
       -0.05738389 -0.013836033 0.099291146 -0.09882203
0001a0 a6 8e 97 3c 46 2d 4d bc 1d 00 e8 3c 0d 69 d3 3d
       0.018500637 -0.012523001 0.028320367 0.10322771
0001b0 86 86 ba 3c 8d 46 47 3d 53 1d f7 3b 78 34 0f 3d
       0.022769224 0.048651267 0.0075413375 0.034962147
0001c0 be b6 ae bd 16 9a 4f bc 86 f3 09 3c 8b 5c 06 bd
       -0.08530949 -0.012671014 0.008419877 -0.0328031
0001d0 8a 0f c2 3d 13 9b d3 3d 72 58 0e 3d ca 8c 21 3e
       0.0947562 0.103323124 0.034752317 0.15776363
0001e0 bc 9e 0f 3d 74 3e 93 ba 5d 7d a1 3c 88 1f fe 3b
       0.03506349 -0.0011233822 0.019713098 0.0077552237
0001f0 5b 95 b9 bd e4 2a 88 3c 5f 39 4b 3c 21 56 9e 3d
       -0.090616904 0.016622014 0.012403815 0.077312715
000200 e0 71 ea 3d b5 57 3e bd 14 e8 68 3d 37 f4 d1 3d
       0.11447501 -0.046470363 0.056861952 0.102516584
000210 45 b1 f3 3c c9 8a 08 be 3b 38 2b 3d a4 a5 f3 3c
       0.029747615 -0.13334192 0.041801672 0.02974207
000220 31 68 10 be c6 d5 14 3e af 11 80 bb 39 03 91 bd
       -0.14102246 0.14534673 -0.003908358 -0.07080693
000230 93 1d 3b 3c 06 2d 80 3b 06 d9 0b 3c 91 b8 0d 3d
       0.011420625 0.003911617 0.008535629 0.034599844
000240 66 f9 3b 3d 8c ca 2f bd ef 2f e2 bc ed d5 21 be
       0.04589214 -0.042917773 -0.027610747 -0.15804262
000250 5d 11 e7 3d 2f 17 12 3b ed a0 8d 3d cf 07 23 bd
       0.11282609 0.002229165 0.0691546 -0.03980237
000260 ff 9b f4 bc d3 69 8c bd 3e 1b 7f bd f9 41 37 3c
       -0.029859541 -0.06856122 -0.06228184 0.011185163
000270 24 2f 07 3d c0 a1 01 bd e6 2d c1 bc 2f b0 33 3d
       0.03300394 -0.031648397 -0.023581456 0.043869194
000280 af 6d 6b bd bf 1e c4 bd e8 ad 18 3d 6d 9f 97 bc
       -0.05747765 -0.09576177 0.037275225 -0.018508637
000290 98 a9 37 3d ec 6b 5d 3d c0 37 df bc 81 39 ab ba
       0.04483947 0.054058 -0.027248263 -0.0013063402
0002a0 92 aa 7f 3d b4 de e8 3c ce 08 59 bd 1a aa 6d b9
       0.062418528 0.028426506 -0.052986912 -0.00022665449
0002b0 bc fe 20 3e b7 c0 cf bd 31 d4 b6 3d 5a 43 d9 3d
       0.15722173 -0.10144179 0.08927191 0.106085494
0002c0 bf 2a ce bc 94 dc 4c bd 54 63 24 bd 1f ca 59 3d
       -0.025166867 -0.050015047 -0.04013379 0.053171273
0002d0 1f ea a0 3c 04 1f 99 bd 86 a3 64 3c 6f 32 e7 3d
       0.019642888 -0.07476619 0.013955003 0.11288916
0002e0 08 ef 10 3e eb bb 22 3d 9d a6 6b 3d eb 16 d3 bc
       0.14153683 0.039729994 0.05753194 -0.025767764
0002f0 ae 94 27 3e 0d f9 e5 bd bc d0 e1 3d e4 3c 27 bd
       0.1636531 -0.11229143 0.11026141 -0.040829554
000300 90 a4 93 bc 91 d8 06 bd 47 b9 2c bd a9 17 fa bd
       -0.018022805 -0.032921378 -0.04216888 -0.12211544
000310 5a a2 a0 bd fc 02 8f bd 72 2c 14 bc 57 00 04 3d
       -0.07843466 -0.06982991 -0.0090438 0.032226887
000320 be 72 59 3d 51 cb 25 3e 17 40 d2 3d 4e a1 95 bd
       0.053087942 0.1619084 0.102661304 -0.07306157
000330 0c 4c b0 bd 57 01 a9 bd 10 9d 2b 3d db ef 43 bd
       -0.08608255 -0.08252209 0.041897833 -0.047836166
000340 0b 44 e8 bd 28 7c 9b 3d 75 35 a9 3d b8 42 26 be
       -0.11341103 0.0759204 0.08262149 -0.16236389
000350 94 cd 18 3e 07 6e 2b 3d 85 b6 c6 bd 3d 41 56 be
       0.14922172 0.041852977 -0.097027816 -0.20923324
000360 1c 94 b4 3d 93 7d ae bc 79 6e 56 bd 3f 62 1e be
       0.08817312 -0.021300113 -0.05235145 -0.15467165
000370 a4 70 a2 3b c8 87 5a bd 63 69 27 3d 38 0c 07 be
       0.0049572755 -0.053352147 0.04087199 -0.13188255
000380 db 81 69 bd 77 9f d0 bd 46 58 a7 bd 20 48 95 3c
       -0.057008605 -0.101866655 -0.08171134 0.018222868
000390 93 03 10 be ad 2e 26 be 04 62 35 bc 0d 6a be 39
       -0.14063863 -0.16228743 -0.011070732 0.00036318638
0003a0 83 4f 9f bc c4 8d 05 be 13 d1 e8 bc 75 c5 93 3c
       -0.019447094 -0.1304236 -0.028420007 0.01803849
0003b0 a7 9d 70 3c 79 f5 fc bd 8e 32 75 bd 19 3e b8 3b
       0.014686025 -0.12351508 -0.059862666 0.005622637
0003c0 2c 76 0c bc 38 a6 56 3d 3b 64 8a 3d b3 8e a8 3d
       -0.008573096 0.052404612 0.06757399 0.08230343
0003d0 e3 86 36 bd 4c 10 81 bd e8 2d ee 3b 02 09 48 3d
       -0.04456223 -0.063019365 0.007268656 0.048836716
0003e0 cc eb 57 3d 2b 75 84 3c 06 00 03 bd 8f bf 4e bc
       0.052715108 0.016169151 -0.031982444 -0.012618913
0003f0 4a 27 e6 3c 08 4e 04 3e 95 b4 97 bc 2e 80 16 bc
       0.028094906 0.12920392 -0.018518725 -0.009185834

base.actor.0.bias f4 [64]
000000 00 00 00 00 00 00 00 00 00 00 00 00 00 00 00 00
       0.0 0.0 0.0 0.0
000010 00 00 00 00 00 00 00 00 00 00 00 00 00 00 00 00
       0.0 0.0 0.0 0.0
000020 00 00 00 00 00 00 00 00 00 00 00 00 00 00 00 00
       0.0 0.0 0.0 0.0
000030 00 00 00 00 00 00 00 00 00 00 00 00 00 00 00 00
       0.0 0.0 0.0 0.0
000040 00 00 00 00 00 00 00 00 00 00 00 00 00 00 00 00
       0.0 0.0 0.0 0.0
000050 00 00 00 00 00 00 00 00 00 00 00 00 00 00 00 00
       0.0 0.0 0.0 0.0
000060 00 00 00 00 00 00 00 00 00 00 00 00 00 00 00 00
       0.0 0.0 0.0 0.0
000070 00 00 00 00 00 00 00 00 00 00 00 00 00 00 00 00
       0.0 0.0 0.0 0.0
000080 00 00 00 00 00 00 00 00 00 00 00 00 00 00 00 00
       0.0 0.0 0.0 0.0
000090 00 00 00 00 00 00 00 00 00 00 00 00 00 00 00 00
       0.0 0.0 0.0 0.0
0000a0 00 00 00 00 00 00 00 00 00 00 00 00 00 00 00 00
       0.0 0.0 0.0 0.0
0000b0 00 00 00 00 00 00 00 00 74 a5 43 b5 00 00 00 00
       0.0 0.0 -7.2883927e-07 0.0
0000c0 00 00 00 00 00 00 00 00 00 00 00 00 00 00 00 00
       0.0 0.0 0.0 0.0
0000d0 00 00 00 00 00 00 00 00 00 00 00 00 00 00 00 00
       0.0 0.0 0.0 0.0
0000e0 00 00 00 00 00 00 00 00 00 00 00 00 00 00 00 00
       0.0 0.0 0.0 0.0
0000f0 00 00 00 00 00 00 00 00 00 00 00 00 00 00 00 00
       0.0 0.0 0.0 0.0

base.actor.2.weight f4 [64, 64]
000000 17 d9 59 bd 69 2d 8d be 0e 40 43 bd 63 3a 6f be
       -0.05318555 -0.27573708 -0.04766851 -0.23362117
000010 be 51 b9 3e 4e cf e0 bd 91 cf 89 3e 3f 6e 3d be
       0.36195177 -0.1097704 0.26916173 -0.18499087
000020 d2 a9 f6 bd 43 bf d2 3d 92 75 a1 b9 71 ad 28 bd
       -0.120441094 0.102903865 -0.0003079591 -0.04118103
000030 52 e6 0b be 7b b6 bc 3d d3 da 2e bc a3 41 29 bd
       -0.13662079 0.09214493 -0.010672289 -0.04132236
000040 cc b6 18 bc 50 a0 7c 3e c5 b4 a5 3e be 24 19 be
       -0.009320926 0.2467053 0.3236448 -0.14955422
000050 b5 6b ae 3d 3d 7b 35 3d 8c 61 56 3c 6a a2 b8 3d
       0.08516637 0.044306982 0.01308478 0.09015353
000060 bf fd 1c 3e 59 2f bb be 66 99 4f be 24 1b b9 3d
       0.15331171 -0.3655956 -0.2027336 0.0903838
000070 e0 8b f4 bc 20 19 45 be f5 10 d4 be 2c 29 1b 3a
       -0.029851854 -0.19247866 -0.41419187 0.0005918916
000080 2d ca a8 3d 86 1a 04 3e 3a f4 2a 3d 85 f3 53 be
       0.08241687 0.12900743 0.04173682 -0.20698364
000090 51 16 67 3e ff 77 98 bd c3 32 19 3e d8 a2 7c 3e
       0.22567107 -0.074447624 0.1496077 0.24671495
0000a0 65 c7 06 be e7 32 3b 3e b4 2c b1 bd 5b 15 4b be
       -0.13162 0.18281136 -0.086511046 -0.19832365
0000b0 c1 02 4b be 35 75 57 3d 11 ca bd 3e 64 0f dc 3d
       -0.1982527 0.05260201 0.37068227 0.10745123
0000c0 9e 63 38 3e 98 a9 85 3e a7 6f 8f bd f8 e9 c3 3d
       0.18006751 0.26105952 -0.07003718 0.095661104
0000d0 9b 20 ab bd 40 bd 73 be ef 56 ab bd d1 d5 6b 3e
       -0.083558284 -0.23802662 -0.08366191 0.23030783
0000e0 50 e6 34 3e 63 67 8d 3e d6 f6 31 3e f4 42 8c bd
       0.17665982 0.2761794 0.17379317 -0.06848708
0000f0 5a 74 d2 bd 89 a7 f1 bd e8 1b a1 3e 46 24 8c bd
       -0.102760985 -0.11799533 0.31466603 -0.06842856
000100 4d b3 e4 bd 71 76 cd bd 2f c4 4a 3c 0d 43 84 3e
       -0.111670114 -0.100323565 0.012375875 0.25832406
000110 07 a4 49 3e 70 51 7f bd 2d 07 0d be f4 7d c6 be
       0.19691478 -0.062333524 -0.13772269 -0.3876797
000120 10 5f b4 bd df 1a 7e 3e 39 fb 34 be 88 ac 4b 3d
       -0.08807194 0.24814938 -0.17673959 0.049725085
000130 93 59 5c 3e e3 86 23 be 1d 15 c7 3d 71 5a 47 be
       0.21518545 -0.15969424 0.09720824 -0.19468094
000140 c4 6d d9 bd 31 5c b0 3e b9 73 03 be 8e ad 8c bc
       -0.10616639 0.34445336 -0.12837113 -0.017172601
000150 d4 d1 8f be f0 5b c7 3e df 16 6d be a6 1b 17 3d
       -0.28089774 0.3893733 -0.23153256 0.036891602
000160 44 61 94 be c6 12 3b bc aa 06 e3 bd 9c 57 eb 3d
       -0.28980458 -0.01141805 -0.110852554 0.114913195
000170 61 b3 10 be cf 9a 63 3c 61 b3 2e be bd 42 91 3d
       -0.14130928 0.01389189 -0.17060615 0.070928074
000180 41 f8 5b 3e 63 35 d2 bd 2b 4b 41 be 7a b6 9d bc
       0.2148142 -0.10264089 -0.1887633 -0.01925205
000190 ad 09 23 3e e1 d6 50 3c 7a da 80 bd fc 2c 85 bd
       0.1592166 0.012746544 -0.06291671 -0.06502721
0001a0 74 a0 16 be b3 89 32 3e df 16 44 be 16 cf fd 3c
       -0.14709646 0.1743534 -0.1914935 0.030982535
0001b0 0d 15 6a 3e b9 a1 25 be 86 c2 f7 bd a1 63 7b 3e
       0.22859593 -0.16174974 -0.12097649 0.24549724
0001c0 25 e5 3d be 93 30 b1 be bc 6e a0 be 9f e9 e4 bd
       -0.18544443 -0.34607372 -0.31334484 -0.11177372
0001d0 28 8b 4a 3d 22 b5 6f be 2a 90 9c be e2 62 31 3d
       0.049449116 -0.2340894 -0.30578738 0.043307193
0001e0 d8 1b 09 bd 95 39 12 be c2 70 8a bc eb 66 54 bd
       -0.03347382 -0.14279778 -0.01689947 -0.051855963
0001f0 0c 4b aa 3e a2 6d 3c 3b 4b 85 95 bd 60 09 75 3c
       0.3326038 0.002875187 -0.07300814 0.014955848
000200 96 38 39 3e a8 af 46 bc 2c e0 18 3e fe b4 10 3e
       0.18087992 -0.012126841 0.14929265 0.14131543
000210 10 cc 26 3b 3e 2c 40 3d b7 24 2e 3e 8d 25 21 3e
       0.002545122 0.046917193 0.17006193 0.1573698
000220 ba ab 19 bc 14 14 32 3e bb f4 aa bd fa bb b1 3d
       -0.009379322 0.17390472 -0.0834746 0.08678432
000230 d7 ca db bd 46 e6 8e be 78 77 c0 bd 38 53 42 3d
       -0.10732048 -0.2791006 -0.09397787 0.047442645
000240 26 cb 4d be 2f 86 92 bd c0 ff 36 bd bc 7f 90 bd
       -0.20097026 -0.071545 -0.044677496 -0.070556134
000250 b8 80 4d 3e aa 77 6d 3e ad 0f d2 3d 29 f8 85 be
       0.20068634 0.2319018 0.10256896 -0.26165894
000260 da ef 97 be cc 3a 54 bd 3d 10 83 be dd f1 48 be
       -0.2967518 -0.051813886 -0.25598326 -0.19623514
000270 07 d8 8d 3e 3c 69 41 bd ac cf 5f bd d5 12 a0 3e
       0.27703878 -0.0472195 -0.05464141 0.31264368
000280 92 77 af bd 8c 89 ca bd 84 16 f2 3d 1d 2c 54 3c
       -0.08567728 -0.09889516 0.11820701 0.012949971
000290 9b 3f 5b be 23 ac 0e be 4a 41 00 bc af b2 cd be
       -0.21410982 -0.13932852 -0.007828066 -0.40175387
0002a0 ce 51 6c bd e9 27 d6 3d 64 0e a7 3e d6 9a 65 be
       -0.057695203 0.10456831 0.32628167 -0.22422346
0002b0 fe cc dc be 05 d3 86 be 95 e8 15 be 99 24 c2 3e
       -0.43125147 -0.2633287 -0.14639504 0.37918547
0002c0 bc 24 8d 3c 5c 1c 16 3d 4a b0 07 3e 90 ce 08 3e
       0.01722943 0.03664814 0.13250843 0.13360047
0002d0 c1 00 b3 bd 0e ab 84 3d c9 ca cd bd f5 fb f3 bd
       -0.08740378 0.064779386 -0.10048444 -0.11913291
0002e0 80 80 8d be b4 4d 88 bc 51 0f 8a 3e 7a 08 6e 3e
       -0.276371 -0.016638614 0.2696481 0.23245421
0002f0 e6 58 20 be a4 f0 8c bd 08 ca 12 bd 6d 19 22 be
       -0.15658912 -0.06881836 -0.035837203 -0.15830012
000300 48 bc e8 3c 11 a9 95 bd f4 d4 9c be 65 d7 99 bd
       0.028410092 -0.073076375 -0.3063122 -0.07511786
000310 21 69 79 be 17 22 ba be 84 54 c6 3c 63 06 6f bd
       -0.2435651 -0.36354133 0.024210222 -0.0583557
000320 60 a9 95 3c 9f 1b 14 3d a4 51 5b 3d 46 89 6f be
       0.01826924 0.036159154 0.053544655 -0.2339221
000330 1d 23 b8 be be 10 22 be 8e 7b 3e 3c fd a4 c6 bd
       -0.3596429 -0.15826699 0.011626137 -0.09699438
000340 bb 55 7d 3e 37 d5 f1 3d cf 49 bd 3d 15 e2 83 be
       0.24739735 0.11808246 0.092425935 -0.25758424
000350 e8 58 06 3e a7 19 8c 3e 2e fc 84 be 36 09 81 be
       0.13119853 0.2736332 -0.25973648 -0.2520234
000360 83 96 89 bd 11 81 9b 3d 35 b6 27 bd 27 52 24 3e
       -0.06718161 0.07592977 -0.04094525 0.16046964
000370 52 e3 9d bc 4f ca 77 3e 7c be fa 3c bc 6a 32 be
       -0.019273434 0.24198268 0.030608408 -0.17423528
000380 ab ca c8 bd 84 4b 96 be 41 b6 82 be 17 b3 84 bd
       -0.09804281 -0.2935449 -0.25529674 -0.06479471
000390 01 b4 30 3e 5d 3d 8e 3e 41 11 a3 be 85 fe d6 bd
       0.17256166 0.2778119 -0.318491 -0.104977645
0003a0 c7 42 f0 3c b3 c3 ba bd 35 cb 55 3e bf 64 18 be
       0.029328717 -0.09119358 0.20878299 -0.14882182
0003b0 b5 0c aa 3e 96 4b 0a 3e 37 88 c5 bd fc f7 35 3d
       0.3321282 0.13505396 -0.096451215 0.04442595
0003c0 0d a8 33 be 35 47 93 3e 3b d1 66 bc e3 74 9d 3d
       -0.17544575 0.28765264 -0.01408797 0.0768831
0003d0 9c e6 e4 be e8 fa a1 bc 0a e1 20 3d 29 13 69 bd
       -0.4470719 -0.019772962 0.039277114 -0.05690304
0003e0 2b 28 2b 3e 7d 69 d3 3d 81 fb a2 3d 1a 63 7d 3d
       0.16714542 0.10322855 0.07958127 0.06186209
0003f0 ed d2 3d 3d 69 92 25 bd f2 65 6c 3e ac 22 f7 3c
       0.046343733 -0.04042283 0.23085764 0.0301679

base.actor.2.bias f4 [64]
000000 ca 43 8f bc 22 38 74 bc 44 59 00 3d 4d eb 45 bd
       -0.017488379 -0.014905961 0.03133513 -0.048320103
000010 61 b8 0f bd ce aa 70 3c 93 69 4c 3c 4e 3a 2e bd
       -0.035087947 0.0146891605 0.012476343 -0.042536072
000020 18 cd bf 3c 45 19 be bc 7f 80 6d 3c c8 1c 95 3c
       0.023413226 -0.023205409 0.014495968 0.0182022
000030 d1 34 88 bc c3 10 6e bc a9 82 91 bc 4b cd 10 3d
       -0.016626747 -0.0145303635 -0.017762499 0.035352033
000040 98 34 8f bc 5e b3 90 3c cb 5e 8c bc f8 3b 2a 3d
       -0.017481133 0.017663654 -0.017135045 0.041561097
000050 96 6e 83 bc 97 5b f5 bc b2 9c 0a bd ca a7 4f 3c
       -0.016043942 -0.0299509 -0.033840843 0.012674281
000060 74 44 2f 3d 54 6e 99 3c 2c 55 80 3c 2d 2a 73 bc
       0.04278989 0.018729366 0.015665613 -0.014841598
000070 d6 2c 24 bd 1e 73 34 3d 5b 45 2f bd d3 ac 3d 3d
       -0.04008182 0.044055097 -0.042790752 0.046307396
000080 f9 3f 77 3c 94 69 88 3c ac 93 dc bc 6b f1 28 3d
       0.015090936 0.016651906 -0.026925884 0.04124586
000090 f4 d3 88 3c 71 a0 34 3d 9b e9 33 3d 15 e6 69 bc
       0.01670263 0.04409832 0.043923955 -0.014276047
0000a0 50 c2 f3 3c 4e 87 27 bd 73 13 9a bc 71 d2 2e 3c
       0.029755741 -0.04090052 -0.018808102 0.01067029
0000b0 ee f8 3c 3d 66 4d 40 bd 70 c4 85 3c 55 d6 82 bc
       0.046135835 -0.046948813 0.01632902 -0.015971342
0000c0 2a c5 2c bd 07 73 12 bd 68 cf 28 bd 8d 20 d0 bc
       -0.042180218 -0.03575423 -0.041213423 -0.025406146
0000d0 9f e7 c2 3c 87 7c 48 bd 46 13 23 bd 23 51 84 3c
       0.023792086 -0.048946884 -0.039813302 0.01615197
0000e0 e0 38 64 bc 27 19 37 bd 79 86 1f bd 38 d0 64 bc
       -0.013929576 -0.04470172 -0.038946602 -0.013965659
0000f0 c1 93 99 3c 5a 0d 91 bc 8c fa 21 3d 66 98 22 3d
       0.018747212 -0.017706562 0.03954558 0.03969612

base.critic.0.weight f4 [64, 332]
000000 c7 13 70 bd 39 b4 10 be 5b e6 8a 3d 77 a1 ff bc
       -0.05861261 -0.1413125 0.06782218 -0.031204922
000010 d5 7d b4 bd 75 ca 17 be 94 86 14 bd e0 cb 98 3d
       -0.08813063 -0.14823325 -0.036261156 0.07460761
000020 80 66 32 bd e4 8f 87 bc 6a c5 49 3d a5 27 3a bd
       -0.043554783 -0.016548105 0.049260534 -0.045447964
000030 13 4a 8d 3d 61 93 03 bc 3f af b1 bd 5b bc 62 bd
       0.06898894 -0.008030743 -0.08676004 -0.05535541
000040 fd 84 ec 3d eb 4e c5 bc f1 ee 21 bd 8d 3f b9 ba
       0.11548803 -0.024085483 -0.039534513 -0.001413332
000050 20 4b aa 3d 22 12 c0 3d 1f 14 84 bc 48 2d a4 3c
       0.0831511 0.093784586 -0.016122876 0.020041123
000060 a8 bc bb 3c 11 14 23 3e 8f 2e b5 3c 1f 60 c8 3d
       0.022917107 0.15925623 0.022116927 0.09783959
000070 1e 47 a1 3c 06 d2 e6 b9 55 73 e3 bc d4 2b c4 bc
       0.019687232 -0.00044025498 -0.027764956 -0.02394668
000080 b0 af a9 3c ed 4c 1c 3e c6 17 32 3d 67 43 66 3d
       0.020713657 0.1526372 0.043479703 0.056216624
000090 4c 98 e7 3c 24 eb b9 3c 00 00 0a be 77 88 5a 3c
       0.028270863 0.022695132 -0.13476562 0.0133382
0000a0 20 59 be 3b 58 fb b4 bc 77 00 3c 3d fc 0b b3 3d
       0.0058089644 -0.022092506 0.04589888 0.0874252
0000b0 58 f0 f3 3b 66 1b 68 3d ab bf f0 bc ca de 66 bd
       0.0074444227 0.056666754 -0.02938827 -0.056364812
0000c0 4d 81 f9 bd ce aa f2 bd 25 db f9 bd 21 3e 12 bd
       -0.12182865 -0.11848985 -0.122000016 -0.035703782
0000d0 4e aa 87 bd 6d 60 c3 bd d4 c9 49 bd 9b 2e 91 3c
       -0.0662428 -0.09539876 -0.049264744 0.017722419
0000e0 21 b2 99 3d 05 13 9c bd 85 53 f0 bd 75 6a 12 bd
       0.075046785 -0.07620815 -0.1173468 -0.035746057
0000f0 27 5a ae 3d a6 4b 6d bd 41 15 d2 bc 66 cb 4e 3d
       0.08513289 -0.057933472 -0.0256449 0.050486945
000100 12 79 9c 3d 62 11 c9 bd f4 e4 ba 3d da fe 38 bd
       0.0764028 -0.09817769 0.091257006 -0.04516492
000110 06 29 06 bd 26 bd 20 bd 9b 29 2b 3d 6e 94 27 bd
       -0.032753967 -0.039242886 0.041787725 -0.040913038
000120 3f 5e 03 bd 59 d0 b1 3d ce dc 3b bd 04 08 2b bd
       -0.032072302 0.08682317 -0.045864873 -0.04175569
000130 a7 27 58 3d d7 94 e0 bd 57 10 e2 bd 46 35 97 3d
       0.05277219 -0.10965889 -0.11038273 0.07383208
000140 bf 61 47 bd 2d 29 7f bc 8d 9b 36 be f9 1f aa bd
       -0.048677202 -0.015573782 -0.17832775 -0.083068796
000150 82 b5 42 be b5 e8 46 be ac a0 24 be ab 45 0b 3e
       -0.19014552 -0.19424708 -0.16076916 0.13600795
000160 dc 52 95 bd 8a f1 23 be 2b 9e a6 bd 72 f9 08 bd
       -0.07291195 -0.16010109 -0.08135637 -0.033441015
000170 2d fa 1e 3e 6a c5 d6 bc 76 64 e2 3c 2b 39 59 3d
       0.15525122 -0.026217181 0.027635794 0.053033035
000180 ed 69 47 3d dc fe 8f 3d 50 10 8c bd 63 f9 01 3e
       0.048685003 0.070310324 -0.06839049 0.1269279
000190 c8 e5 a6 3d 5b 95 41 3d 7a 20 1f be 2f 95 c7 bd
       0.08149296 0.047261577 -0.15539733 -0.097452514
0001a0 55 66 e5 bb 03 55 aa bd 64 8c 9b 3c b2 ec b2 bd
       -0.0070007243 -0.08316996 0.018987842 -0.08736552
0001b0 66 a9 31 3c 1e 46 7b 3d 96 03 86 3d 3f e8 5b bd
       0.01084361 0.061346166 0.06543653 -0.053688284
0001c0 6e 71 23 3d 22 d0 cc bc 7a a7 95 bd e6 f0 07 3e
       0.039903097 -0.02500159 -0.07307334 0.13275489
0001d0 b3 5a 25 bd 93 78 e0 bc d1 ba 3f 3e 44 aa b8 bc
       -0.0403697 -0.027401244 0.18723609 -0.022542126
0001e0 54 d6 7f bd ba 19 b3 3d 43 99 80 bd 1c c2 51 bd
       -0.06246026 0.08745141 -0.06279232 -0.051210508
0001f0 25 94 9f bd 47 6e 63 3c 0b 83 62 3d 06 22 cd bc
       -0.07791928 0.013881273 0.055300754 -0.025040638
000200 4f 6d 4d be 46 90 7e 3d 21 54 38 3d 89 0e ca 3d
       -0.20061229 0.06214931 0.045002107 0.098660536
000210 38 4c be bd 3d db 4f bb 23 82 77 bd 04 f2 69 bd
       -0.09291881 -0.003171637 -0.060426842 -0.05711557
000220 fe 92 d5 bb 6b fc 59 bb da 16 d4 bb 99 fa a9 bd
       -0.006517767 -0.0033262025 -0.0064724507 -0.08299751
000230 07 47 07 bd 82 d8 30 3c d7 87 ef 3a bc 22 2a be
       -0.03302672 0.010793807 0.0018274736 -0.16614813
000240 96 54 2b bd 32 cd 85 3c 33 f0 dd 3c 42 0f 94 3c
       -0.041828714 0.016333196 0.027092075 0.018073682
000250 31 38 2c 3e 97 e9 57 bb ad 85 2e 3e a9 ad a7 3c
       0.1681831 -0.0032945627 0.17043181 0.02046855
000260 20 53 a2 bd 38 f0 11 be 24 4a ef bc a0 f4 14 3e
       -0.07926011 -0.14251792 -0.029210158 0.14546442
000270 bd bd f4 3d e2 6f da bd 79 96 66 bb 1d ff b0 bd
       0.11950252 -0.10665871 -0.0035184904 -0.08642409
000280 f9 08 eb 3d df ce 72 3c a1 3f 9d 3d 90 50 d4 bd
       0.11476321 0.01481983 0.07678152 -0.103669286
000290 6a 7e 11 be 49 11 b2 3d 26 61 e9 3c a5 a4 6b 3d
       -0.1420838 0.08694703 0.028488707 0.057530064
0002a0 34 dd db bc c8 aa bf bc 13 ec 22 be 3f 66 80 b9
       -0.026838876 -0.023396865 -0.15910368 -0.00024490242
0002b0 46 24 69 3d c2 5c b9 3d 17 4b 9b 3d 44 8d 12 bc
       0.05691936 0.09050895 0.075826816 -0.008944813
0002c0 e7 f8 02 bd 8b b8 6b bc df bc 1f bc 92 cb f8 3c
       -0.031975653 -0.01438726 -0.00974962 0.030370507
0002d0 f9 53 2a 3d 89 a9 bd bd f0 93 56 bd 9f 01 07 ba
       0.04158399 -0.09260852 -0.052387178 -0.0005150083
0002e0 37 fd 87 bd 54 9f 9b 3c 0c bf a3 3c 32 f3 3e 3b
       -0.06640094 0.018996872 0.01998856 0.0029136655
0002f0 bb 00 63 bc 5c 4f c8 3d 1d fc bd bd 1e 2c d2 3d
       -0.013855155 0.097807616 -0.092766024 0.10262321
000300 30 d8 8c bd 23 6d 1c 3d 1b 9a 11 be 04 b0 9f bd
       -0.06877172 0.03819002 -0.14218943 -0.07797244
000310 84 ad 0c 3d da 75 2a 3e 20 a9 ff bc 0c cd 78 3d
       0.034345165 0.1664652 -0.031208575 0.060742423
000320 83 f7 96 bd dd 81 1b bd a6 34 68 3d eb 79 d0 3c
       -0.07371428 -0.037965644 0.056690834 0.02544876
000330 f8 1a 62 bc 40 47 2b bd 12 bf 66 bd 90 3d bc 3c
       -0.013800375 -0.041815996 -0.056334563 0.022978574
000340 5a aa 98 bd 15 43 34 3d 44 c3 4d be 4f 45 bd 3d
       -0.07454367 0.044009287 -0.20094019 0.09241735
000350 16 b4 4b 3d c3 80 20 3d 8d 17 65 bd 48 62 21 bd
       0.04973229 0.039185297 -0.055930663 -0.03940037
000360 82 a1 de bb bb 17 8f bc 49 bc 4c bd 37 56 52 3a
       -0.0067941556 -0.01746737 -0.04998425 0.0008023711
000370 55 c7 ce bd fd cc 82 3c d6 6a be bd 3e d7 c9 3c
       -0.10096613 0.015966887 -0.09297721 0.024638768
000380 33 16 c6 3d 52 79 97 bd d3 3c 50 3d 2a 0b 6d bc
       0.09672203 -0.07396187 0.050839256 -0.014467994
000390 5a f0 bd 3d 40 e9 df b9 e2 b7 1c 3e d4 1d 78 bd
       0.09274359 -0.0004270766 0.1530452 -0.06057532
0003a0 a4 e4 76 bc 9b 16 d3 3c 63 e1 61 3d 84 c6 73 bd
       -0.015069161 0.025767615 0.055146586 -0.05951549
0003b0 3a 42 3e 3d 31 46 2d bc 77 ba db bb 65 66 b4 bc
       0.046449877 -0.010575817 -0.006705578 -0.022021482
0003c0 c2 99 dc bd 48 00 6e bd ad 55 9c bd f5 02 cd bd
       -0.107715145 -0.058105737 -0.07633529 -0.1001033
0003d0 37 1b c0 ba 7b b0 cd 3b ff 45 95 bd ca 39 f2 3c
       -0.0014656548 0.0062771416 -0.07288741 0.029568572
0003e0 37 56 96 bc b1 7c 0c bd 70 cb 08 3d fe 34 58 bd
       -0.018351657 -0.034298602 0.033397138 -0.052784912
0003f0 16 77 c6 bc 62 76 70 bc f8 9f 14 3e 2a 11 e0 3d
       -0.024226706 -0.014676662 0.14514148 0.10940774

base.critic.0.bias f4 [64]
000000 00 00 00 00 00 00 00 00 00 00 00 00 00 00 00 00
       0.0 0.0 0.0 0.0
000010 00 00 00 00 00 00 00 00 00 00 00 00 00 00 00 00
       0.0 0.0 0.0 0.0
000020 00 00 00 00 00 00 00 00 00 00 00 00 00 00 00 00
       0.0 0.0 0.0 0.0
000030 00 00 00 00 00 00 00 00 00 00 00 00 00 00 00 00
       0.0 0.0 0.0 0.0
000040 00 00 00 00 00 00 00 00 00 00 00 00 00 00 00 00
       0.0 0.0 0.0 0.0
000050 00 00 00 00 00 00 00 00 00 00 00 00 00 00 00 00
       0.0 0.0 0.0 0.0
000060 00 00 00 00 00 00 00 00 00 00 00 00 00 00 00 00
       0.0 0.0 0.0 0.0
000070 00 00 00 00 00 00 00 00 00 00 00 00 00 00 00 00
       0.0 0.0 0.0 0.0
000080 00 00 00 00 00 00 00 00 00 00 00 00 00 00 00 00
       0.0 0.0 0.0 0.0
000090 00 00 00 00 00 00 00 00 00 00 00 00 00 00 00 00
       0.0 0.0 0.0 0.0
0000a0 00 00 00 00 00 00 00 00 00 00 00 00 00 00 00 00
       0.0 0.0 0.0 0.0
0000b0 00 00 00 00 00 00 00 00 00 00 00 00 00 00 00 00
       0.0 0.0 0.0 0.0
0000c0 d2 b4 df 30 00 00 00 00 00 00 00 00 00 00 00 00
       1.6276778e-09 0.0 0.0 0.0
0000d0 00 00 00 00 00 00 00 00 00 00 00 00 00 00 00 00
       0.0 0.0 0.0 0.0
0000e0 00 00 00 00 00 00 00 00 00 00 00 00 00 00 00 00
       0.0 0.0 0.0 0.0
0000f0 00 00 00 00 00 00 00 00 00 00 00 00 00 00 00 00
       0.0 0.0 0.0 0.0

base.critic.2.weight f4 [64, 64]
000000 7c 0c 85 bb 4f 37 cd bc ab a5 cb 3d cd 2c 2c be
       -0.004060326 -0.025050787 0.09943708 -0.16813965
000010 b7 b4 e5 3d 31 01 91 3e 81 f8 0b be 19 1e 3f 3c
       0.11216109 0.2832122 -0.13669015 0.011664891
000020 e1 01 d1 be 93 1c a5 3d 13 e8 17 3e bf f7 43 3e
       -0.40821746 0.08062091 0.14834623 0.19137476
000030 33 90 df 3d 00 10 a7 3b 59 eb 37 3d ab b8 d5 bd
       0.10916176 0.005098343 0.04490218 -0.10435613
000040 2b 35 02 be 5d 74 1c bd cc e6 94 3e 19 e7 0c be
       -0.12715594 -0.03819691 0.29082334 -0.13760032
000050 ad e5 12 be 4f 65 41 3e 61 89 5f 3d 06 3e 02 be
       -0.14345427 0.18886302 0.054574374 -0.12718973
000060 a3 af 27 3e 8f 11 14 be 0d 4e 37 bd 47 8e 87 be
       0.16375594 -0.14459823 -0.04475217 -0.26475736
000070 17 11 c7 3d 91 7c 18 bd 7f 62 3f bd 99 f6 86 bd
       0.097200565 -0.03722817 -0.046724793 -0.065900035
000080 bf 67 4a 3e 60 96 0b 3d af 57 41 3e a2 6f 23 bc
       0.19766138 0.034078956 0.18881105 -0.009975346
000090 c7 96 7d bd db 03 2b be 1d bf 04 3f a5 41 f8 3d
       -0.06191137 -0.1670069 0.51854116 0.12121896
0000a0 d3 d6 f0 bd 45 94 bc 3d b7 c8 1b be 87 31 8f 3e
       -0.117597245 0.09207968 -0.15213285 0.27967474
0000b0 70 f2 a2 be 9a 70 b2 be 5d b9 80 3e 61 3d 0a 3e
       -0.3182559 -0.34851533 0.2514142 0.13499977
0000c0 0e 41 94 bc 8d 69 9d be a1 b2 a1 3d a7 bb d5 3d
       -0.018097427 -0.3074459 0.07895399 0.104361825
0000d0 4b 2f 0f 3e b3 8d cd 3d a5 b4 7d 3d 3d 75 a4 bd
       0.13982885 0.100367926 0.061939854 -0.08030174
0000e0 83 2e 55 be 0b 88 e2 3e fb d8 86 bd cf 16 26 be
       -0.20818524 0.44244418 -0.065843545 -0.16219638
0000f0 cb bb 88 ba 23 f7 12 3c e6 4b 07 be 81 a3 7b be
       -0.0010431943 0.008970055 -0.13212547 -0.2457409
000100 75 d4 1f 3e 16 41 fc bd 26 c1 31 be ac 7e 07 3e
       0.1560839 -0.12317102 -0.17358837 0.13231915
000110 10 0b 2b be 77 0d 31 be 61 8f 03 be a2 47 9a 3d
       -0.16703439 -0.17290293 -0.12847663 0.07533194
000120 a0 93 7b be e4 34 29 be bb 7d 74 3e bd 3a 70 be
       -0.24568033 -0.16524082 0.23876087 -0.23459907
000130 01 40 21 3e 5d 81 17 3e 41 5f ce bc d3 10 20 3d
       0.15747072 0.14795442 -0.025191905 0.039078545
000140 80 7c 06 3e 3e 5b b3 3d d4 f8 07 3d 01 a4 1e 3e
       0.1313343 0.087576374 0.033196285 0.1549225
000150 74 6b 76 3d f9 62 16 3e a1 1e 5e be 7a 66 1d be
       0.06016107 0.14686193 -0.21691372 -0.15371123
000160 35 46 48 be fb d2 c5 be ee 50 1e bd 96 f9 55 bd
       -0.19558032 -0.38637528 -0.0386514 -0.052239977
000170 1c 2c 99 bd dd 76 c8 be 82 d2 da 3d 55 56 75 3d
       -0.07479116 -0.39153185 0.106846824 0.059896786
000180 a7 33 31 3e d6 87 40 3d 52 4e 76 be 2c 46 3b 3e
       0.1730486 0.047004543 -0.24053314 0.18288487
000190 8c c0 4e bd 0f eb 00 be a8 9b 51 3d ac 79 e8 3e
       -0.050476596 -0.12589668 0.051173836 0.45405328
0001a0 7b b2 83 be 64 1e 98 3d 51 4a 1f 3e b4 08 dd bd
       -0.25722107 0.074276716 0.15555693 -0.107926756
0001b0 74 fa 95 3d 2c 7f 1d be 78 e8 20 3e 7c b2 d7 ba
       0.07323161 -0.15380543 0.1571368 -0.0016456391
0001c0 0e 63 2a bb 64 ae 8b bd 88 63 cc bd 64 54 a9 3d
       -0.0025998983 -0.06820372 -0.099799216 0.08268049
0001d0 4b ca 52 be 76 75 e1 bd 35 86 9d be 1d be 34 3e
       -0.20584981 -0.11008732 -0.30766454 0.17650647
0001e0 1c ec 29 be f8 24 f9 bd 7b a8 db 3c cf 37 db 3e
       -0.16593975 -0.12165254 0.026813736 0.42816016
0001f0 b8 50 cb bd 18 4f ba 3e 00 76 0d 3e 78 d7 98 bd
       -0.09927505 0.3638847 0.13814545 -0.074629724
000200 f7 97 3d bc b9 80 a4 3d 4b 25 6a 3d de 20 ce bd
       -0.011571876 0.080323644 0.05716447 -0.10064863
000210 52 a9 e7 be 46 0c 9e bc a1 c3 07 3e 1a 14 c5 3d
       -0.4524637 -0.019292962 0.1325822 0.09622975
000220 e0 e6 75 bd f2 9e 92 bc 1c 9d 0a 3e 01 fc ba bd
       -0.060034633 -0.017898057 0.13536495 -0.09130097
000230 44 02 d2 bc 89 04 71 3d a7 33 f6 3e b0 4d dd bc
       -0.025635846 0.058842216 0.48086283 -0.027014583
000240 64 01 80 be 41 13 9d bd e7 bf 7a 3e ae 52 18 3e
       -0.2500106 -0.07669688 0.24487267 0.1487529
000250 94 df 17 3e eb b1 46 bd 93 ff 58 3d 36 85 0c be
       0.14831382 -0.04850952 0.05297811 -0.13722691
000260 48 9e 88 bc f3 2b 8c 3d e0 d0 14 be 58 43 48 be
       -0.016677037 0.0684432 -0.14532804 -0.1955694
000270 95 63 fb 3c 48 43 84 be ac 7f 21 be 47 4e 66 bd
       0.030687133 -0.25832582 -0.15771359 -0.056226995
000280 b6 fe 72 3e 40 18 41 3e 07 9c 19 bd 61 b4 d4 3d
       0.23729977 0.18856907 -0.037502315 0.10385967
000290 8f 49 e6 3d eb 86 bf be 46 a5 b3 bd 3d eb 5d bd
       0.11244499 -0.37407622 -0.08771758 -0.05417942
0002a0 ae 67 64 bc fb 81 00 bd d4 2b 60 be 56 6c 63 3c
       -0.013940735 -0.03137396 -0.21891719 0.01388081
0002b0 fb a1 81 3d bc 7b 08 3e 26 59 4a bc 96 f1 4c be
       0.063297234 0.13328451 -0.012350356 -0.20014033
0002c0 52 a0 3b 3e 4a 26 1c 3c ae 27 cf bc 6e a4 ae be
       0.18322876 0.009530613 -0.025287475 -0.34109825
0002d0 e7 4c 57 3d 08 37 cf 3e 68 a3 06 3e 56 3c fe bc
       0.052563574 0.40471673 0.13148272 -0.03103463
0002e0 98 17 31 3e 5c 73 19 be de 53 9e 3e 6f 94 d5 bd
       0.17294157 -0.14985412 0.3092336 -0.10428702
0002f0 d6 3d c4 3e 90 aa 21 be 7e 95 48 3e ea bb b4 3e
       0.38328427 -0.1578772 0.19588277 0.35299617
000300 ba 1d 1a bd 9e 32 47 bc d2 cf e9 bd 4c c9 f5 bd
       -0.037626006 -0.012158064 -0.11416592 -0.12001285
000310 4e 0b 74 3d a0 61 06 3c 4e 5a 0c be 57 dc 9a 3e
       0.059581093 0.008201987 -0.13706324 0.3024623
000320 20 1c c9 bd 0b 70 68 bd 8e 00 01 3b 0e d3 d1 3d
       -0.098198175 -0.056747478 0.0019684169 0.102453336
000330 5e 19 f6 bc 9d 91 a3 be 79 45 95 bd bc 30 37 3c
       -0.030041393 -0.31947032 -0.072886415 0.011181053
000340 c2 de 1d bd 01 44 25 be 02 d7 4c 3c ee a8 88 3e
       -0.038542517 -0.16139223 0.012502434 0.26691383
000350 bf a4 b7 be c5 a9 06 be e5 d9 34 3e 45 0d bc bd
       -0.3586788 -0.131507 0.17661245 -0.091822185
000360 4e ca c8 3d 14 d9 b8 3e fb ec 81 3e 49 5f 73 be
       0.098042116 0.36103117 0.25376114 -0.23766817
000370 c7 0e bf 3d 28 60 e1 3d ae f2 6d 3d 01 ef 7e 3e
       0.093289904 0.110046685 0.058092766 0.2489586
000380 85 de e2 bc 8f a6 b7 3e 47 9c 03 bd 9a 6b ae 3d
       -0.027693996 0.35869262 -0.03213146 0.08516617
000390 8d d7 27 3e 3f 5d 74 be f2 94 83 3e 50 2f 9b 3d
       0.1639082 -0.23863696 0.25699574 0.075773835
0003a0 5e 3a 9e bd ab 5b 3c be 68 85 2c 3d d8 1e 26 bd
       -0.077259764 -0.18394344 0.042119414 -0.04055676
0003b0 36 da b8 bc b2 a9 9f 3e 7e e6 1e 3d 63 07 81 3e
       -0.022564989 0.31184155 0.038794033 0.25200948
0003c0 c4 27 20 be d2 dc cf 3d d3 e6 84 3d c6 e8 1e bd
       -0.1564017 0.1014954 0.06489339 -0.03879621
0003d0 3c ee 14 bf 2a e7 c3 bd 3a 07 21 bd 8f ed 89 bd
       -0.58176017 -0.095655754 -0.039313532 -0.06734764
0003e0 38 19 84 3e 39 09 02 be 84 18 db 3d 6b 8a 61 3e
       0.2580049 -0.1269883 0.10698035 0.22025459
0003f0 f1 21 07 3d 4d a8 7e bc b3 14 44 be 0a f0 1a be
       0.032991353 -0.015543056 -0.19148521 -0.1513063

base.critic.2.bias f4 [64]
000000 ad 67 68 3c 46 9b 4a 3c a4 53 ab bc 41 97 8b bb
       0.0141848745 0.012366122 -0.020913906 -0.004259974
000010 80 23 56 bc 74 00 c4 38 8e 34 29 bc 8c b9 66 bc
       -0.013069987 9.346093e-05 -0.010327471 -0.014082324
000020 77 b1 c8 bb ee 9c 68 bc 88 b6 68 bc 22 f7 0d bc
       -0.006124671 -0.014197571 -0.014203675 -0.008664878
000030 e4 ff 6a 3c 49 01 58 bc 6f b2 ab bc 71 cd 07 3c
       0.014343236 -0.0131839 -0.020959107 0.008288727
000040 c9 9e 9c 3c 64 2d 82 bc 27 cc 2a bc 4d fc 80 b8
       0.019118683 -0.015890785 -0.01042465 -6.15051e-05
000050 db 52 65 bc 9b 31 82 bc f3 6a 4a bc 77 82 1a bc
       -0.013996805 -0.015892794 -0.0123546 -0.009430519
000060 93 ec 5d 3c 5e 22 77 3c 0e aa 79 3a 25 b9 81 3c
       0.013545173 0.015083877 0.00095239363 0.015835354
000070 08 4a 9f 3c 49 82 06 3c 42 ba 13 3c 43 63 69 bc
       0.01944448 0.008209773 0.009016575 -0.014244857
000080 a2 0d 65 bc 49 4a 32 3c f8 a6 4c 3c d0 6e 80 3c
       -0.013980301 0.010881969 0.01249098 0.01567784
000090 b3 a1 f1 bb d7 90 09 bc 87 81 98 bc 1a 1d 4e bc
       -0.0073740124 -0.008396349 -0.018616451 -0.012580181
0000a0 0d 69 9c 3c 80 ea 3e bc 52 8c e3 3b 79 da 63 bc
       0.01909306 -0.011652589 0.0069442177 -0.013907068
0000b0 24 f2 8f 3c 61 1b 4c bc 51 b3 3d bc 5f e2 aa 3c
       0.017571516 -0.0124576995 -0.011578397 0.020859895
0000c0 df 22 b6 bc 18 87 21 bc be 37 73 bc 73 68 4a 3c
       -0.022233425 -0.009858869 -0.014844833 0.012354004
0000d0 f1 16 66 bc 41 5a 71 bc f0 91 6d 3c 7e fc 4e bc
       -0.014043556 -0.014730991 0.014500126 -0.012633441
0000e0 b9 65 4f 3c 18 72 21 3c 09 f0 99 b9 cc 73 9f bc
       0.01265853 0.009853862 -0.00029361274 -0.019464396
0000f0 b0 49 8e bc 4d 4c 3b bc d6 b3 1f bb ad e4 5c bc
       -0.017369121 -0.011431766 -0.0024368665 -0.013482255

base.critic_linear.weight f4 [1, 64]
000000 c7 ab 6b be 65 81 2c bd 02 f1 7a be 24 ea 7f 36
       -0.23014747 -0.042115588 -0.24506 3.8134249e-06
000010 b6 83 9b 3d 9c ca 16 be a3 07 10 36 d4 29 0e bd
       0.07593481 -0.14725727 2.1462117e-06 -0.03470786
000020 95 bd 81 3e 31 31 c4 3e 3c f7 32 be ec 9e 9c 3d
       0.25339952 0.3831878 -0.17477125 0.076474994
000030 7f b7 2c be fa e4 c4 3d 97 f3 f6 bd 12 4b 2f bd
       -0.16866873 0.09613986 -0.1205818 -0.042796202
000040 06 d8 0b 3e 92 3e 4f be 4e a9 17 3e 30 43 da 3c
       0.13656625 -0.20238712 0.14810678 0.026643366
000050 bb e1 c5 3d c0 a6 12 be aa 3d 83 bd db 0b 40 3e
       0.09662195 -0.14321423 -0.06408246 0.18754523
000060 aa b4 9f bd 18 a8 fe 3d 38 8a 98 bc f3 82 8f 3d
       -0.07798131 0.12434405 -0.018620595 0.070073985
000070 8e 64 e3 3e 9f a8 2e 3e 81 82 1d 3d ff cd 09 3e
       0.44412655 0.17056511 0.038454536 0.13457488
000080 b9 a5 0d 3e 58 cf 9b bd c6 0a 8d 3c a1 1f dc 3d
       0.1383275 -0.07607907 0.017217051 0.1074822
000090 ca 7a 8b bd 32 99 0b be d4 13 c1 be 39 29 33 be
       -0.068105295 -0.13632658 -0.3771044 -0.17496194
0000a0 20 44 a5 ba 60 36 e5 bd df c0 36 bd c9 0e 56 3e
       -0.0012608804 -0.11192012 -0.04461753 0.20904078
0000b0 ed 4a 19 3e 76 bd 6a 3e 44 e6 36 3d 01 ae d9 38
       0.14969988 0.22923836 0.044653192 0.00010379777
0000c0 f4 b5 80 b4 9f fa 1f be ea 6d b4 3e 63 6a c7 bd
       -2.3974246e-07 -0.15622948 0.35240108 -0.097370885
0000d0 ee 70 12 3e 44 b9 ac 3e 80 ef 9b be a2 a4 0d bd
       0.14300892 0.33735096 -0.30456161 -0.034580834
0000e0 4b af 25 be 49 ee 19 3e 8f 5a f9 3c 35 31 5c be
       -0.1618015 0.15032305 0.03043869 -0.21503146
0000f0 29 47 9d bd 21 21 5c 3d 5d eb f1 37 47 c7 06 3e
       -0.07679588 0.05374253 2.8839038e-05 0.13161956

dist.dst_type_linears.0.weight f4 [3, 64]
000000 ee 16 2a 3d f3 01 2b 3d b9 06 be bc e7 68 51 3d
       0.041525774 0.041749906 -0.023196565 0.051125433
000010 1a 46 b7 3c db c5 00 bd 34 69 e3 bc ac 59 02 3d
       0.022372294 -0.03143869 -0.027760126 0.0318238
000020 04 a1 12 bd 80 1e 09 3a 9e 4e fe bc a4 19 3f bd
       -0.035798088 0.000523068 -0.031043347 -0.046655312
000030 7a a5 01 3d 11 6a 41 3d 81 38 03 3d e1 79 09 bb
       0.03165195 0.047220293 0.03203631 -0.0020977187
000040 d3 92 0a 3d 52 e2 28 bd f2 d5 f3 3c 60 bc 1c bd
       0.03383143 -0.04123146 0.029765103 -0.038265586
000050 5a 99 31 3d 83 8b 39 3d 01 26 94 3d f9 e6 1e bd
       0.043359138 0.045299064 0.07233811 -0.03879449
000060 30 04 33 bd 5e 63 39 bd dd a5 3e bd 5d 2d 13 3d
       -0.043705165 -0.04526078 -0.0465449 0.035931934
000070 88 84 fc 3c 76 3b 25 bd 63 fa 83 3d 4b 18 83 bd
       0.030824915 -0.04033991 0.06444242 -0.06401118
000080 4f db 1d bd 19 65 fb bc 8a e3 11 3d 02 43 48 bd
       -0.038539227 -0.030687856 0.03561739 -0.04889203
000090 41 4e f9 bc 0b b9 23 bd 3d ca 4d bd 7a 4a 04 3d
       -0.030432822 -0.039971393 -0.050241698 0.03229759
0000a0 4c ce 3f bd 53 cf 5c 3d fb f6 09 3d d2 66 36 bd
       -0.0468276 0.053908657 0.033682805 -0.04453165
0000b0 b6 4e 1a bd 2c 1a 2a 3d a6 cc 47 bd c5 7f 01 3d
       -0.03767272 0.041528866 -0.048779152 0.03161599
0000c0 6b 21 49 3d e7 cf 11 3d f1 2b 3b 3d ff 5d 02 3d
       0.049104135 0.03559866 0.045696203 0.031827923
0000d0 43 b4 f1 bb eb e8 05 3d e1 1c c1 3c c6 62 15 bd
       -0.007376225 0.03269283 0.02357334 -0.03647115
0000e0 32 4e 3c 3d 71 69 16 3d c7 4c 44 3d 15 2f 2c 3d
       0.04597301 0.03672165 0.047924783 0.04203709
0000f0 13 38 48 bd 42 a9 47 3d ee 71 5f bd 66 13 3f bd
       -0.0488816 0.0487454 -0.05455201 -0.04664936
000100 1d da 28 3c 90 2c 57 3c 8f a4 4c bc bf af 57 3c
       0.0103059085 0.013133183 -0.012490406 0.01316446
000110 6f a0 a9 3c 8d 21 5a bc 0e cb 51 bc 8c 87 87 3c
       0.020706384 -0.013313663 -0.01280476 0.016544126
000120 1c b3 b3 bc 29 a3 76 3c 60 4e 45 bc 3e f1 be bb
       -0.021935992 0.015053549 -0.012042612 -0.005827098
000130 20 6b 82 3c 6a 78 0c 3c 47 2c 54 3c b5 0a 64 bc
       0.015920222 0.008573631 0.01295001 -0.013918568
000140 1a 06 40 3c 87 82 21 bc f4 62 30 3c ac c4 a4 bc
       0.011720205 -0.00985778 0.01076578 -0.020113312
000150 54 26 0a 3c 6e d8 8e 3c 49 7b 3d 3c 8a 6e 81 bc
       0.00843199 0.017437186 0.011565038 -0.01579978
000160 a9 cd 89 bc 25 61 c6 bb 39 07 d8 bb 9f c2 44 3c
       -0.0168217 -0.006054061 -0.006592658 0.012009292
000170 0e 69 a4 3c d4 f2 c5 bc b4 35 44 3b 5f d4 33 3b
       0.020069625 -0.024163641 0.0029939236 0.0027439815
000180 40 45 46 bc 6d b4 5a bc a2 ba c4 3c a3 71 2c bc
       -0.012101471 -0.013348681 0.024014775 -0.01052514
000190 50 f0 5c bc 85 8e b1 bc 87 72 e3 bb ab 8a 28 3c
       -0.013485029 -0.021674404 -0.006941143 0.010286967
0001a0 f9 4d a3 bc cb 23 1a 3c a5 62 44 3c 46 f1 2d bc
       -0.019934641 0.009407948 0.011986409 -0.010616606
0001b0 a5 29 b9 bc 8f 54 ce 3b 85 7c 8a bb 0b 96 4d 3c
       -0.022602865 0.0062967013 -0.0042262697 0.01254798
0001c0 4e 55 86 3c 42 24 c7 3c c8 ee 36 3c 3c d0 c6 3c
       0.016398098 0.024309281 0.011165328 0.024269216
0001d0 e0 5e 98 bc 9b d7 80 3c 6e 1a c1 3c c4 9d 37 bc
       -0.018599927 0.015727809 0.023572173 -0.011207048
0001e0 c9 7e d9 3b 2d f7 dd 3b 1a 72 93 3b 5b fe 35 3c
       0.0066374284 0.0067738504 0.004499686 0.011108006
0001f0 e1 f5 e0 bb 1c 57 f5 3b 83 9c 48 3a ef 1b 1c bc
       -0.0068652485 0.007487191 0.00076527166 -0.009528144
000200 10 3b 1d bd 5d 62 00 bd 99 00 21 3d 88 79 3e bd
       -0.038386405 -0.031343807 0.03930721 -0.04650262
000210 07 8c 21 bd 61 55 01 3d 0f 2c 00 3d 1f 48 3c bd
       -0.03944018 0.031575564 0.031292018 -0.045967218
000220 21 49 06 3d ac 13 f2 bc 1d 2f ff 3c a4 99 19 3d
       0.032784585 -0.029550396 0.031150395 0.03750004
000230 58 4b 05 bd 6d 45 11 bd ff c7 05 bd fa 7d c5 3c
       -0.032542557 -0.0354666 -0.032661434 0.024107922
000240 39 d7 09 bd e2 2b 0e 3d 83 31 06 bd ee a3 6b 3d
       -0.033652518 0.03470982 -0.03276206 0.057529382
000250 b2 dd 19 bd 6b 4f 1d bd 03 37 5c bd dd 98 0f 3d
       -0.03756494 -0.038405817 -0.0537634 0.03505789
000260 61 6b 54 3d b9 42 15 3d 57 18 19 3d 32 c5 12 bd
       0.051860217 0.036440585 0.037376728 -0.03583259
000270 08 e1 3e bd d7 55 7f 3d da 6f 69 bd cb 0f 5d 3d
       -0.046601325 0.062337723 -0.056991436 0.05397014
000280 f5 b4 15 3d 3f 27 ef 3c a6 e6 13 bd c5 e3 58 3d
       0.036549527 0.029193519 -0.036108635 0.052951593
000290 aa 23 00 3d bb 2f 74 3d 2c 1b 54 3d 82 ce 10 bd
       0.031284012 0.05961583 0.051783726 -0.03535319
0002a0 77 21 20 3d 3c 64 54 bd 6f ad 03 bd d9 be 09 3d
       0.039094415 -0.051853403 -0.03214782 0.033629272
0002b0 1d d1 6d 3d 2c e7 22 bd 89 1e 1d 3d a2 d2 02 bd
       0.058060754 -0.039771244 0.0383592 -0.031939156
0002c0 fc 5b 7f bd 2c 7d 5a bd 9a 75 54 bd 21 35 1a bd
       -0.062343583 -0.05334203 -0.051869966 -0.037648324
0002d0 0a 27 f6 3c d4 af 39 bd 62 95 50 bd ed fb 0a 3d
       0.030047912 -0.0453337 -0.050923713 0.03393166
0002e0 0d c0 16 bd 18 c6 18 bd d0 d9 30 bd 55 a2 17 bd
       -0.036804248 -0.037298292 -0.043176472 -0.037020046
0002f0 da eb 15 3d 8c 43 15 bd 72 ee 35 3d c3 41 48 3d
       0.03660188 -0.03644137 0.044416852 0.04889084

dist.dst_type_linears.0.bias f4 [3]
000000 92 b6 f5 bc 67 66 5a bc 34 ab 01 3d
       -0.029994283 -0.013330079 0.031657413

dist.dst_type_linears.1.weight f4 [3, 64]
000000 36 18 01 3d cb 79 0c 3d 6d c5 69 bd 05 f7 e3 3b
       0.03151723 0.03429584 -0.057073046 0.0069569373
000010 c7 8f 5b 3d 94 37 ca bc 96 14 e2 bc af c1 5a 3d
       0.053603914 -0.024684705 -0.027597707 0.053407367
000020 a3 bf ed 3b c9 26 52 3d 01 9c d6 bc c2 ed f5 bc
       0.007255511 0.05130652 -0.026197435 -0.030020598
000030 be 2d df 3c 71 70 0b 3d e1 3f df 3c b4 e8 8c bc
       0.027243491 0.03404278 0.02725214 -0.017200805
000040 f7 ab e3 3c 9c 67 e9 bc a4 c4 d5 3c 92 c5 31 bd
       0.02779196 -0.028491788 0.026094742 -0.04340131
000050 58 61 00 3d f2 a5 4f bb fd 53 c7 3b e1 da f7 bc
       0.031342834 -0.0031684604 0.00608301 -0.030255737
000060 72 cb 47 bd eb 7e 05 bd 89 19 f6 bc e7 b2 f0 3c
       -0.048778005 -0.03259174 -0.030041473 0.029382182
000070 5f 17 58 3d c0 a2 07 bd 33 9b 34 3c 02 22 d5 3a
       0.052756663 -0.033114195 0.0110233305 0.0016260745
000080 b4 74 d9 bc 44 0b cd bc 3d 25 2a bb 70 19 c4 bc
       -0.026544906 -0.025029786 -0.0025962137 -0.02393791
000090 15 52 e3 bc 90 f7 fe bc 51 f0 00 bd 94 9f d1 3c
       -0.0277491 -0.031123906 -0.031479184 0.025588788
0000a0 7e e2 49 3b 90 79 67 3c 12 0f fa 3c 34 e7 02 bd
       0.0030805166 0.014128104 0.030524764 -0.031958774
0000b0 6c 14 25 bd bf 74 75 bc 8b ad ee bc a0 e8 e6 3c
       -0.04030268 -0.014981448 -0.029135486 0.028187096
0000c0 56 d3 d9 3c 0c b4 28 3c d5 01 d3 3c 6e 5b d7 bb
       0.02659003 0.010296833 0.02575771 -0.0065721786
0000d0 fd 99 6c bd 9e 4f 24 3c 99 bc 49 3d 4f 09 d7 bc
       -0.057764042 0.010028748 0.049252126 -0.026249556
0000e0 d4 6e ed 3c b8 e5 5e bc 65 3b 65 3d a1 8e f6 3c
       0.028983511 -0.013604574 0.055964846 0.030097308
0000f0 58 ee 03 bd 11 61 03 3d 81 61 38 bd 57 04 91 bb
       -0.032209724 0.03207499 -0.045014862 -0.004425566
000100 b8 43 5c bd 8c 7a 66 bd f9 0f 7d 3d 59 60 1c bd
       -0.05377552 -0.056269214 0.06178281 -0.03817782
000110 f7 9b 78 bd e3 e0 62 3d 91 b7 61 3d 93 34 7f bd
       -0.060695615 0.05539025 0.055106703 -0.062305998
000120 09 04 e7 3c d0 af 43 bd 10 81 64 3d 81 f9 59 3d
       0.028200166 -0.04777509 0.055787146 0.05321646
000130 41 57 61 bd 69 cb 72 bd dc c1 5f bd 35 17 1c 3d
       -0.055014852 -0.05927602 -0.054628238 0.03810807
000140 1c e3 69 bd c3 e1 5a 3d 02 a8 5e bd b7 04 71 3d
       -0.057101354 0.05343796 -0.054359443 0.058842387
000150 53 1e 79 bd 7a 6c 02 bd be ca 06 bd 68 6c 4c 3d
       -0.060819935 -0.031841733 -0.032908194 0.04990807
000160 41 98 8a 3d 23 90 73 3d 0a 28 65 3d 2c 68 5e bd
       0.067673214 0.05946363 0.055946387 -0.054298565
000170 2b 40 7e bd 62 f7 53 3d 54 dd d9 bc a9 50 9b 3c
       -0.062072914 0.051749595 -0.026594795 0.01895936
000180 eb ad 69 3d 88 e8 58 3d 16 61 11 bd 3f f3 67 3d
       0.057050627 0.052956134 -0.03549298 0.056628462
000190 6e c6 5c 3d fd 33 52 3d 61 47 67 3d 2d cb 5e bd
       0.053900175 0.05131911 0.056464557 -0.054392982
0001a0 1e 8a 17 3d 13 54 45 bd 30 da 63 bd 71 9e 6a 3d
       0.036996953 -0.048175883 -0.055628 0.057280008
0001b0 4e a4 77 3d 8c 19 03 bd 7f 6b 60 3d 2c 93 59 bd
       0.060459428 -0.032006785 0.054790016 -0.05311887
0001c0 20 c9 49 bd 8d 96 51 bd 0c f0 74 bd 81 78 fe bc
       -0.049264073 -0.051168967 -0.05979924 -0.03106332
0001d0 42 34 70 3d fb f8 2e bd 24 44 6d bd 3f e6 69 3d
       0.058643587 -0.042717915 -0.057926312 0.057104345
0001e0 a6 60 67 bd fa 35 e0 bc eb 8c 92 bd 75 75 6b bd
       -0.056488656 -0.027369488 -0.07155784 -0.057485063
0001f0 94 30 73 3d 00 a1 6c bd 48 0f 7a 3d 01 88 1f 3d
       0.0593725 -0.05777073 0.06104973 0.038948063
000200 34 70 01 3d 74 d5 0b 3d b2 b1 9f bc 6e 10 1f 3d
       0.031601146 0.03413911 -0.019493911 0.038834028
000210 c8 4e c0 3c 68 bd fa bc 3f bf 04 bd 8d c9 e0 3c
       0.023475066 -0.030607894 -0.03240895 0.027439857
000220 2f 61 1e bd 6b 8c 28 3c bc 64 fe bc 44 e7 12 bd
       -0.0386669 0.0102873845 -0.031053893 -0.035865083
000230 2c b5 fb 3c bf a5 08 3d 93 7e fe 3c 3c 9f ff bc
       0.030726038 0.033361193 0.031066215 -0.031203859
000240 31 d2 02 3d 41 7f f7 bc 42 9c f1 3c a8 e6 1c bd
       0.031938735 -0.030212047 0.029493455 -0.03830591
000250 fd 6c 05 3d d4 36 43 3d ba 66 0e 3d 78 61 eb bc
       0.032574642 0.04765971 0.034765936 -0.028733
000260 88 59 0c bd 75 75 05 bd 02 87 fd bc 89 7d 08 3d
       -0.03426507 -0.03258272 -0.030948166 0.033322845
000270 98 68 db 3c 39 d3 12 bd 26 d6 23 3d 7d cb 38 bd
       0.026783273 -0.03584597 0.03999915 -0.045115937
000280 75 70 07 bd 7a 00 fa bc 2a e2 57 3d c1 6f 6d bd
       -0.03306623 -0.030517805 0.05270592 -0.057967905
000290 ed d2 f9 bc d2 59 01 bd 1e 39 5d bd 0e 2f fd 3c
       -0.030496085 -0.0315798 -0.05400955 0.030906226
0002a0 84 e3 42 bd 73 47 4c 3d ba 47 01 3d b2 3b 01 bd
       -0.047580257 0.049872827 0.031562544 -0.03155107
0002b0 5a 6a 30 bd e0 49 5c 3d ac 19 00 bd 83 8e f5 3c
       -0.043070175 0.05378139 -0.031274483 0.029975181
0002c0 5a 64 1f 3d 23 55 54 3d 47 11 6b 3d fa b8 26 3d
       0.038914062 0.051839005 0.057389524 0.04070375
0002d0 aa bb 9c bb c2 32 41 3d e4 4a dc 3c 84 0f f6 bc
       -0.0047831135 0.047167547 0.02689118 -0.030036695
0002e0 b8 cd 08 3d 94 0f 57 3d 0d 2d 06 3d 65 dc fd 3c
       0.033399314 0.05250509 0.032757808 0.030988881
0002f0 cf bd 04 bd 79 6b 01 3d 64 f3 2c bd 6e 36 64 bd
       -0.032407578 0.031596635 -0.042224303 -0.05571597

dist.dst_type_linears.1.bias f4 [3]
000000 92 07 d2 bc ba 63 5b 3d 62 b3 f7 bc
       -0.025638375 0.053561904 -0.030236904
