route_dev/drl-or/model/test/agent5.pth (torch, 225285 bytes, 31 tensors)

base.actor.0.weight f4 [64, 343]
0.07437958 -0.052194204 -0.027147802 -0.027246673 -0.052298717 -0.0740301 0.088262685 -0.0053869192
0.082735255 -0.082040735 0.0415579 6.023617e-05 -0.11352249 0.021061668 -0.007440364 -0.064805016
-0.019582761 0.0361933 -0.026726753 -0.08161501 0.15130973 -0.05323717 0.1020711 -0.08784892
-0.16462593 0.0046925433 0.028967768 0.018212453 -0.0010955199 -0.06210104 -0.121301755 -0.062129892
-0.03516441 0.03710522 -0.070325695 -0.05014366 0.0442476 0.08001348 -0.06903399 -0.0043080472
-0.12517254 -0.05718811 -0.17797236 -0.05183464 0.024956515 0.04849105 0.05308868 -0.0047189263
0.047421068 -0.029977517 -0.12924375 -0.11567922 0.060855877 -0.021810412 0.043786496 -0.008446087
0.07307531 0.025078302 -0.029353863 -0.15286925 0.034831163 0.0051662666 0.006656038 -0.03248021
-0.09010167 0.010947462 0.09860922 -0.023237761 0.005949266 -0.03204242 -0.049393468 0.038950033
-0.05238283 -0.02671136 0.008872997 -0.019829325 0.14332321 0.07301177 0.038849033 0.02883568
-0.0775124 0.020059733 0.11434209 0.09771967 0.012555234 -0.044921264 -0.18686269 0.17253934
-0.0219715 -0.012617834 -0.14936782 -0.011559966 -0.12563601 0.028191593 -0.049063057 -0.06053624
-0.10533229 0.17466958 -0.15200697 -0.0991611 0.080990836 -0.13024509 0.035318952 -0.014220895
-0.052369285 -0.04174598 0.10876851 -0.10066134 -0.02313798 -0.022150638 0.032329965 -0.15605646
0.07723977 0.018964648 0.03922912 -0.07099662 0.077514425 -0.13557836 -0.009118456 0.013125159
-0.0015358856 0.17093867 -0.054472134 -0.0016949323 -0.00143471 0.093990535 -0.013782052 -0.12955752
-0.11486658 -0.033318486 0.05747234 -0.10127456 -0.060361274 -0.039484013 -0.10087211 0.07623604
-0.022597037 -0.02284936 0.20530024 0.020137105 0.006834529 -0.023482598 -0.028899878 0.109261036
0.0037792136 0.057557795 -0.013433885 -0.00664409 -0.029205654 -0.0350684 0.01793785 -0.099696375
0.028055245 -0.020915933 -0.0025095905 -0.070255645 -0.07647495 0.050179828 0.0032389495 -0.006585385
0.019289358 -0.063855484 -0.092029326 -0.08653749 -0.025433993 -0.10779208 0.090207584 -0.007833176
-0.0319818 0.10518039 0.040862583 -0.023170361 0.053139593 0.052114014 0.02141087 -0.083084516
0.035857707 0.0037540516 0.012162117 0.08446639 0.06789251 -0.10267199 0.043356914 0.02763003
0.01641757 -0.0007529294 0.18331367 0.09138294 0.04014142 0.07220468 0.06774881 0.07508947
-0.047236394 0.079884596 0.0342136 -0.060111787 -0.05586142 -0.0068007708 -0.0024284036 -0.017512707
-0.022661453 -0.042033665 0.011243201 -0.0076736244 -0.12531209 0.06524445 0.009630603 -0.027355857
0.16248684 -0.13863418 -0.045303684 -0.0782387 -0.16438437 -0.14114088 0.04021404 -0.061061285
-0.07077004 -0.06135572 0.05439676 0.04716496 -0.025300441 0.09636941 -0.08195642 -0.069715925
-0.065907374 -0.012389186 0.029948348 0.09645424 -0.091340825 -0.013032481 -0.09040013 -0.08440182
0.09594775 0.10883666 -0.038799778 0.04725629 -0.039243057 -0.01575926 0.03373341 0.09208159
0.0573124 -0.002901369 -0.06035966 0.07775667 0.024511194 -0.009016601 -0.06338999 -0.061166614
-0.028613552 -0.032381076 -0.13644564 -0.03976165 0.058985468 -0.049348623 -0.09431946 0.04254505
00000000: 5254 983d 97c9 55bd 1165 debc 6a34 dfbc
00000010: 2e37 56bd 189d 97bd 11c3 b43d c184 b0bb
00000020: 1a71 a93d f904 a8bd 9e38 2a3d 18a6 7c38
00000030: 7b7e e8bd 8589 ac3c 4cce f3bb 7eb8 84bd
00000040: 076c a0bc 6d3f 143d 10f2 dabc c525 a7bd
00000050: f0f0 1a3e 380f 5abd a70a d13d 22ea b3bd
00000060: b393 28be e8c3 993b d04d ed3c 4832 953c
00000070: 8c97 8fba a95d 7ebd 0e6d f8bd ea7b 7ebd
00000080: 8e08 10bd a5fb 173d eb06 90bd 7063 4dbd
00000090: f93c 353d 1bde a33d b161 8dbd 852a 8dbb
000000a0: 3b2d 00be 143e 6abd 633e 36be 8f50 54bd
000000b0: 9b71 cc3c 8d9e 463d 8473 593d 39a1 9abb
000000c0: 983c 423d 6993 f5bc 7958 04be 3ae9 ecbd
000000d0: 0344 793d c0ab b2bc 7859 333d 7561 0abc
000000e0: 82a8 953d 0371 cd3c 8377 f0bc c289 1cbe
000000f0: 1fab 0e3d c949 a93b e51a da3b f809 05bd
00000100: 3987 b8bd fc5c 333c a1f3 c93d 1e5d bebc
00000110: 0ff2 c23b ea3e 03bd ce50 4abd 128a 1f3d
00000120: 618f 56bd c8d1 dabc 0c60 113c 1c71 a2bc
00000130: 52c3 123e 3287 953d 2a20 1f3d ce38 ec3c
00000140: d2be 9ebd 4f54 a43c 302c ea3d 4021 c83d
00000150: 78b4 4d3c 5cff 37bd ef58 3fbe 27ae 303e
00000160: 93fd b3bc 08bb 4ebc e1f3 18be 0366 3dbc
00000170: baa6 00be 0ef2 e63c 58f6 48bd d9f4 77bd
00000180: 75b8 d7bd 95dc 323e b7a7 1bbe fa14 cbbd
00000190: 86de a53d f85e 05be 9baa 103d c2fe 68bc
000001a0: 2d81 56bd d5fd 2abd 06c2 de3d 8827 cebd
000001b0: dc8b bdbc 4175 b5bc 6d6c 043d 44cd 1fbe
000001c0: e22f 9e3d c05b 9b3c b7ae 203d ad66 91bd
000001d0: e2bf 9e3d 0ed5 0abe 9465 15bc e80a 573c
000001e0: c54f c9ba 8c0a 2f3e 2c1e 5fbd 7e28 deba
000001f0: e10c bcba 1c7e c03d 1ece 61bc baaa 04be
00000200: 2b3f ebbd f778 08bd 1e68 6b3d 0969 cfbd
00000210: 623d 77bd fdb9 21bd 0996 cebd a421 9c3d
00000220: 6c1d b9bc 952e bbbc 3a3a 523e 92f6 a43c
00000230: 2ff4 df3b 945e c0bc 70bf ecbc 40c4 df3d
00000240: afac 773b b9c1 6b3d cc19 5cbc abb6 d9bb
00000250: b240 efbc e2a3 0fbd 66f2 923c 9d2d ccbd
00000260: 1dd4 e53c e457 abbc f177 24bb 31e2 8fbd
00000270: e69e 9cbd 5d89 4d3d 8e44 543b 37ca d7bb
00000280: b704 9e3c aac6 82bd df79 bcbd 913a b1bd
00000290: f35a d0bc 18c2 dcbd c1be b83d b956 00bc
000002a0: 59ff 02bd d168 d73d 865f 273d c5cf bdbc
000002b0: e7a8 593d 8175 553d d965 af3c 3728 aabd
000002c0: 88df 123d 8906 763b 9e43 473c b7fc ac3d
000002d0: 3a0b 8b3d b145 d2bd 0597 313d 5f58 e23c
000002e0: 247e 863c 3d60 45ba 94b6 3b3e fb26 bb3d
000002f0: 546b 243d 0ce0 933d e3bf 8a3d 82c8 993d
00000300: f37a 41bd 899a a33d 8f23 0c3d c737 76bd
00000310: f2ce 64bd 00d9 debb da25 1fbb cf76 8fbc
00000320: 83a4 b9bc 7e2b 2cbd 6735 383c 0773 fbbb
00000330: d051 00be e29e 853d adc9 1d3c 6419 e0bc
00000340: f362 263e 1ef6 0dbe 5b90 39bd 9d3b a0bd
00000350: 6054 28be 3c87 10be 7ab7 243d 661b 7abd
00000360: e2ef 90bd 2350 7bbd 23cf 5e3d 0c30 413d
00000370: df42 cfbc 535d c53d c4d8 a7bd 39c7 8ebd
00000380: 72fa 86bd 03fc 4abc 3d56 f53c cd89 c53d
00000390: e610 bbbd 3086 55bc b423 b9bd ddda acbd
000003a0: 4180 c43d c1e5 de3d 84ec 1ebd d08f 413d
000003b0: 54bd 20bd 9019 81bc 0b2c 0a3d 4695 bc3d
000003c0: 68c0 6a3d e524 3ebb b13b 77bd e43e 9f3d
000003d0: b3cb c83c 5eba 13bc 9cd2 81bd d889 7abd
000003e0: f866 eabc 05a2 04bd 68b8 0bbe 1ddd 22bd
000003f0: bf9a 713d c821 4abd 902a c1bd b843 2e3d

base.actor.0.bias f4 [64]
0.0 0.0 0.0 0.0 0.0 0.0 0.0 0.0
0.0 0.0 0.0 0.0 0.0 0.0 0.0 0.0
0.0 0.0 0.0 0.0 0.0 0.0 0.0 0.0
0.0 0.0 0.0 0.0 0.0 0.0 0.0 0.0
0.0 0.0 0.0 0.0 0.0 0.0 0.0 0.0
0.0 0.0 0.0 0.0 0.0 0.0 0.0 0.0
0.0 0.0 0.0 0.0 0.0 0.0 0.0 0.0
0.0 0.0 0.0 0.0 0.0 0.0 0.0 0.0
00000000: 0000 0000 0000 0000 0000 0000 0000 0000
00000010: 0000 0000 0000 0000 0000 0000 0000 0000
00000020: 0000 0000 0000 0000 0000 0000 0000 0000
00000030: 0000 0000 0000 0000 0000 0000 0000 0000
00000040: 0000 0000 0000 0000 0000 0000 0000 0000
00000050: 0000 0000 0000 0000 0000 0000 0000 0000
00000060: 0000 0000 0000 0000 0000 0000 0000 0000
00000070: 0000 0000 0000 0000 0000 0000 0000 0000
00000080: 0000 0000 0000 0000 0000 0000 0000 0000
00000090: 0000 0000 0000 0000 0000 0000 0000 0000
000000a0: 0000 0000 0000 0000 0000 0000 0000 0000
000000b0: 0000 0000 0000 0000 0000 0000 0000 0000
000000c0: 0000 0000 0000 0000 0000 0000 0000 0000
000000d0: 0000 0000 0000 0000 0000 0000 0000 0000
000000e0: 0000 0000 0000 0000 0000 0000 0000 0000
000000f0: 0000 0000 0000 0000 0000 0000 0000 0000

base.actor.2.weight f4 [64, 64]
0.12748171 -0.056809586 -0.15058039 -0.18632497 0.06543726 0.078664795 -0.029756185 -0.48323303
-0.12767436 0.11053547 0.18176119 0.17736675 -0.08014393 -0.18609051 0.33299708 -0.14116628
0.01175532 0.027411085 -0.122087255 0.1207363 0.23385353 0.2250896 -0.04422987 -0.16222404
-0.04752357 -0.13302557 0.12718484 -0.24652448 0.06615843 -0.117872864 0.3359874 0.01261761
0.042266738 0.316265 -0.117725305 -0.32991534 0.04017252 -0.04695266 -0.10894923 -0.17034014
0.26319456 -0.030013597 -0.047158834 -0.36659366 0.33179957 -0.044807717 0.19205953 -0.15387748
-0.18057664 -0.19828941 -0.0854862 0.19896753 -0.06477867 0.1935729 0.13137306 -0.10802877
-0.07492377 0.2608438 0.21793284 -0.20628278 -0.25143853 -0.020656323 -0.12056743 -0.007183959
-0.2416256 0.068466365 -0.11543157 0.072393954 0.10033668 0.27652562 0.21114576 0.22278976
0.0069815894 -0.10235836 -0.4351818 0.089474656 0.16203544 0.17401493 0.00024166831 -0.1184507
-0.080809094 0.01929307 0.38866 -0.20302081 0.28060752 -0.26866657 -0.012899772 -0.10390331
0.0556136 -0.5599604 -0.22723421 -0.04093308 -0.009270656 0.20935076 0.078070015 -0.05829827
-0.010065857 0.022443978 -0.3483008 0.14361912 0.025558475 0.10137877 0.006065762 -0.04286363
0.11298875 -0.20707807 -0.026635364 -0.27770424 -0.12074756 0.10736708 0.17814687 -0.04992068
-0.080863014 -0.10759224 -0.16195357 -0.35010695 0.13244966 -0.044456527 0.07408165 -0.13017629
0.11293757 0.3459208 -0.07124682 0.04978568 0.009218095 -0.020396635 0.18243209 0.017649751
0.22581153 0.24614453 0.3574102 0.10575439 -0.037334174 -0.02100722 -0.20219526 0.14282311
0.051268235 -0.17733955 -0.012237274 -0.060737845 0.2482475 0.14041065 -0.14635818 -0.18144111
0.24655756 0.3824399 -0.49209523 -0.18644124 0.11678741 0.16094287 -0.08677599 -0.5099262
-0.09254678 -0.16258158 0.11186931 0.07781275 -0.023701185 -0.19025251 0.072006226 -0.06652236
0.105911024 -0.036410622 -0.18081091 -0.11548971 0.15930496 -0.17611994 -0.1621289 -0.026132854
0.032249503 0.070163354 0.19747218 -0.086543344 0.17202635 0.14450595 0.01580623 -0.02118809
-0.09803645 0.068707876 -0.11177621 0.23502871 -0.18675163 -0.08530291 -0.16709636 0.26084727
0.17466941 0.07385364 -0.31446463 0.07496667 0.079660766 0.33069772 0.14041866 -0.051964846
-0.2520359 -0.06849925 -0.3259983 0.17077188 -0.18132003 -0.17127034 0.4115281 0.3023365
-0.1055703 -0.196612 0.11698663 -0.073421836 -0.21611892 -0.11495502 -0.057071086 0.16417435
0.19155462 0.007841563 0.14137253 0.032949854 -0.074685544 0.01638931 -0.1239291 0.2633825
0.0063575776 -0.2486259 0.14208248 0.010211442 0.095352195 -0.030794019 0.25818315 0.07622634
-0.10400685 0.3273606 0.07645702 -0.26755407 0.26375756 -0.087797426 0.04310657 0.18795897
0.13731915 0.25328407 0.19096208 0.14567213 0.10262897 -2.298013e-05 0.2280408 0.4041735
-0.012419432 0.15342976 0.2639567 -0.14880748 -0.06193777 -0.013916241 0.22498879 0.31301063
0.105679885 0.08714634 -0.05901067 -0.13622844 0.060065743 0.16759841 0.20131719 0.16686586
00000000: 918a 023e 2bb1 68bd bf31 1abe f9cb 3ebe
00000010: f803 863d 021b a13d 3ec3 f3bc 526a f7be
00000020: 11bd 02be 6c60 e23d 9b1f 3a3e a19f 353e
00000030: 8022 a4bd 838e 3ebe 987e aa3e e58d 10be
00000040: 6399 403c 368d e03c e208 fabd 9844 f73d
00000050: 4d77 6f3e e37d 663e 612a 35bd 0f1e 26be
00000060: 13a8 42bd db37 08be be3c 023e ea70 7cbe
00000070: 127e 873d 5467 f1bd 8a06 ac3e 18ba 4e3c
00000080: e31f 2d3d 7ced a13e f719 f1bd aaea a8be
00000090: f18b 243d 6f51 40bd c620 dfbd a56d 2ebe
000000a0: 70c1 863e 13df f5bc 9f29 41bd 2ab2 bbbe
000000b0: a2e1 a93e 4c88 37bd 41ab 443e 0f92 1dbe
000000c0: 15e9 38be 610c 4bbe 6413 afbd 25be 4b3e
000000d0: aeaa 84bd f937 463e a986 063e 303e ddbd
000000e0: a271 99bd 528d 853e c929 5f3e cb3b 53be
000000f0: 8dbc 80be 7337 a9bc 0fec f6bd 6a67 ebbb
00000100: b46c 77be 1838 8c3d 6367 ecbd 4843 943d
00000110: 517d cd3d c494 8d3e 9836 583e 0023 643e
00000120: d1c5 e43b 43a1 d1bd 26d0 debe 7d3e b73d
00000130: 9eec 253e f830 323e 5868 7d39 4896 f2bd
00000140: 3d7f a5bd 800c 9e3c 72fe c63e b0e4 4fbe
00000150: caab 8f3e aa8e 89be 9159 53bc 42cb d4bd
00000160: 16cb 633d 9159 0fbf 16b0 68be 72a9 27bd
00000170: f3e3 17bc 0c60 563e 2ce3 9f3d 2bca 6ebd
00000180: 44eb 24bc 6fdc b73c 7c54 b2be e410 133e
00000190: 0260 d13c ac9f cf3d 4dc3 c63b c691 2fbd
000001a0: a566 e73d 460c 54be 6832 dabc 402f 8ebe
000001b0: 7f4a f7bd 46e3 db3d 226c 363e a079 4cbd
000001c0: 829b a5bd 5259 dcbd 28d7 25be 3841 b3be
000001d0: e2a0 073e 0c18 36bd 1fb8 973d ef4c 05be
000001e0: d04b e73d 881c b13e dae9 91bd 12ec 4b3d
000001f0: 7e07 173c d816 a7bc 7acf 3a3e 3696 903c
00000200: 233b 673e 500d 7c3e 78fe b63e c295 d83d
00000210: b8eb 18bd 5517 acbc 460c 4fbe 3940 123e
00000220: a4fe 513d 8098 35be d97e 48bc 3fc8 78bd
00000230: 9834 7e3e cfc7 0f3e ebde 15be b3cb 39be
00000240: 9679 7c3e 2acf c33e e8f3 fbbe 74ea 3ebe
00000250: 3d2e ef3d 35ce 243e 9cb7 b1bd 868a 02bf
00000260: 2b89 bdbd c97b 26be bd1b e53d 4b5c 9f3d
00000270: fd28 c2bc 8ed1 42be 0078 933d e03c 88bd
00000280: e1e7 d83d 4e23 15bd 7f26 39be de85 ecbd
00000290: d720 233e c958 34be 1e05 26be 9114 d6bc
000002a0: 0e18 043d ceb1 8f3d 2636 4a3e a33d b1bd
000002b0: ad27 303e 5ef9 133e 117c 813c a592 adbc
000002c0: 56c7 c8bd b7b6 8c3d edea e4bd 5eab 703e
000002d0: d23b 3fbe 4bb3 aebd 4f1b 2bbe c68d 853e
000002e0: 8adc 323e 9440 973d 8201 a1be 2088 993d
000002f0: 2f25 a33d 3651 a93e e9c9 0f3e 17d9 54bd
00000300: d90a 81be 5649 8cbd 40e9 a6be d3de 2e3e
00000310: f5ab 39be 7e61 2fbe d0b3 d23e dacb 9a3e
00000320: 3e35 d8bd a854 49be b096 ef3d 305e 96bd
00000330: 474e 5dbe 8a6d ebbd 5fc3 69bd 521d 283e
00000340: e526 443e e679 003c f6c3 103e 6df6 063d
00000350: bcf4 98bd e042 863c 8ace fdbd 12da 863e
00000360: 3a53 d03b ca97 7ebe 127e 113e e44d 273c
00000370: 0348 c33d bd43 fcbc 9530 843e 8e1c 9c3d
00000380: 8b01 d5bd cf9b a73e 8095 9c3d d9fc 88be
00000390: 3b0b 873e 23cf b3bd 8490 303d 5178 403e
000003a0: 649d 0c3e 73ae 813e 908b 433e 132b 153e
000003b0: 232f d23d 74c5 c0b7 8783 693e d4ef ce3e
000003c0: e07a 4bbc b11c 1d3e 5525 873e fd60 18be
000003d0: 76b2 7dbd f200 64bc 7663 663e ee42 a03e
000003e0: b26e d83d c879 b23d 2cb5 71bd 787f 0bbe
000003f0: 7f07 763d eb9e 2b3e 1826 4e3e e2de 2a3e

base.actor.2.bias f4 [64]
-0.019396238 0.015996657 -0.018846905 0.030537304 -0.04124258 -0.015701398 0.008837494 -0.02951904
-0.01946382 -0.038940936 0.015016801 -0.01704249 -0.012982734 0.029936766 -0.013973216 -0.04248529
-0.017179212 0.04056573 -0.017907111 0.03605043 0.02499902 -0.04267431 -0.018673675 -0.014149256
-0.037964158 -0.017265534 -0.03556043 0.041621022 -0.017877402 0.01765348 0.03330029 0.034071375
-0.04146314 -0.033268563 -0.017687727 0.016592115 -0.013960522 0.041999206 -0.028778568 -0.013542101
-0.0033358608 -0.04281556 -0.041911963 -0.032022778 0.044191305 0.018126173 -0.018924523 -0.020721626
0.04352733 -0.033483446 0.03948932 -0.04164028 -0.015427378 0.03379819 -0.015257017 0.01582157
0.015868992 -0.015936887 -0.043834988 0.03850001 0.039123587 0.020258132 0.0135422675 0.009705811
00000000: dce4 9ebc 6c0b 833c d364 9abc 5e29 fa3c
00000010: fbed 28bd 38a0 80bc 23cb 103c ead1 f1bc
00000020: 9772 9fbc 8880 1fbd 0709 763c b19c 8bbc
00000030: 88b5 54bc f33d f53c eaef 64bc 0e05 2ebd
00000040: 6bbb 8cbc 4028 263d efb1 92bc 9ea9 133d
00000050: bfca cc3c 42cb 2ebd 89f9 98bc 48d2 67bc
00000060: 4e80 1bbd 7370 8dbc d0a7 11bd ce7a 2a3d
00000070: a173 92bc 089e 903c e365 083d 6d8e 0b3d
00000080: 41d5 29bd 9e44 08bd dae5 90bc 30ec 873c
00000090: acba 64bc 5c07 2c3d 08c1 ebbc b0df 5dbc
000000a0: 759e 5abb 5e5f 2fbd e1ab 2bbd 512a 03bd
000000b0: f101 353d 577d 943c 9a07 9bbc 66c0 a9bc
000000c0: b749 323d f025 09bd 8ebf 213d 008f 2abd
000000d0: 1dc3 7cbc f96f 0a3d 91f8 79bc 3d9c 813c
000000e0: b0ff 813c 138e 82bc 518c 33bd 30b2 1d3d
000000f0: 0e40 203d 62f4 a53c 63e0 5d3c 1f05 1f3c

base.critic.0.weight f4 [64, 332]
-0.10956107 -0.058926966 -0.013778953 0.032793343 -0.0695053 -0.055813257 0.026347391 -0.08533952
-0.059958354 -0.047010727 -0.19220328 0.07944045 0.024099665 0.10281033 -0.0020085163 -0.022664143
0.012101667 -0.031026449 -0.025572445 -0.020167066 -0.07798703 -0.029446205 -0.10491345 -0.001964031
0.027137075 -0.015696967 0.03977801 -0.022411238 0.010376097 -0.05499609 0.0572842 -0.049837682
0.035581026 -0.16046284 0.025554609 -0.124544874 0.038545914 -0.07754274 0.03481105 -0.05651269
-0.039618492 0.021731958 -0.016230151 0.040897455 -0.05477827 0.051756017 0.025283033 -0.10909743
-0.06493889 0.023830647 -0.09797899 0.063997656 -0.037305333 0.07672693 0.0920573 -0.075117305
0.104458064 0.069780685 0.009038754 -0.084817275 -0.103166424 -0.103347674 -0.119290605 0.11524187
0.044068944 -0.084801234 -0.15290697 0.22738245 0.06402934 -0.16668634 -0.0270554 0.077940084
-0.0078076343 -0.05591216 0.1639957 0.0498759 0.043644525 -0.018963436 0.15696248 -0.16315371
0.061323896 0.062695466 -0.034826405 -0.039070174 0.02841246 0.007739821 -0.11321973 -0.094747916
-0.037946377 -0.016639877 -0.102185845 -0.07180848 -0.038879097 -0.12128756 -0.024707641 5.1195702e-06
-0.10662715 -0.0879052 -0.048706144 -0.038542274 0.10776183 0.10892861 0.06932144 0.034257304
0.019840604 -0.018841187 0.051988762 -0.08524338 0.105757855 -0.025354818 0.13411197 0.0034884722
0.09141187 0.07418433 0.012265042 -0.11251696 0.1448681 0.04055328 0.031174095 -0.06270624
0.05182739 0.057161056 -0.13872488 -0.015851337 0.09176385 -0.09747054 -0.039690286 0.090379424
-0.038459595 -0.142977 0.121957 -0.008519166 0.054038055 -0.04134071 -0.024259733 -0.047777005
-0.021503758 -0.059213586 -0.0028241908 0.012736099 0.17691791 0.07195884 0.0045652566 0.08439183
0.065663174 -0.06944476 0.10790324 0.1002482 0.096102975 0.11187452 -0.09337837 -0.0010429015
-0.07959293 0.09957215 0.058107644 0.038513992 -0.047091726 -0.11570021 -0.052671615 0.1598653
-0.037865143 0.05431598 -0.058417827 -0.089101374 0.028832512 0.13020068 0.0040481933 -0.0010161289
0.057164248 0.047848325 0.02141561 0.041329063 -0.045640178 -0.07834423 0.13894343 -0.09057209
0.001989546 -0.06223623 -0.08068933 -0.029816942 0.04222078 0.10184695 0.017218657 0.0022269192
-0.010508461 0.1592846 -0.10084387 -0.1323986 -0.1108793 0.05776397 0.1238275 0.010376993
0.0512242 0.09030969 0.0036049723 0.01960474 0.04851199 -0.038244188 0.09128555 0.043109067
-0.04238417 0.04897194 0.040893137 0.0375968 0.023208246 0.20720772 0.050842326 0.27070826
-0.23925495 -0.07317404 0.064420775 0.052659314 -0.042346556 -0.03507558 -0.043946717 0.0052613784
-0.033776578 -0.008628905 0.029328909 0.020498168 -0.13021916 -0.03776581 0.0075484444 0.036845054
-0.022351598 -0.08307467 -0.002158156 0.06549893 0.10051409 -0.12332442 0.09797076 -0.010973654
0.08676964 -0.10063589 -0.11029773 0.08890317 -0.15594435 0.028538289 -0.02932527 -0.023921126
-0.008300553 0.043155905 -0.090587586 -0.02547198 -0.062856615 0.038827274 0.13030447 -0.001433259
0.047534533 0.009864401 -0.06024835 -0.020677796 -0.12180987 0.010465826 0.06470237 -0.12550145
00000000: 8e61 e0bd 675d 71bd 1ec1 61bc 5052 063d
00000010: cb58 8ebd 719c 64bd 7cd6 d73c 7cc6 aebd
00000020: e496 75bd 528e 40bd f0d0 44be adb1 a23d
00000030: a96c c53c 398e d23d 50a1 03bb 27aa b9bc
00000040: 1246 463c 2e2b febc 4e7d d1bc 6735 a5bc
00000050: aab7 9fbd 2b39 f1bc dddc d6bd f9b6 00bb
00000060: 924e de3c ed96 80bc 44ee 223d c697 b7bc
00000070: 8100 2a3c 9443 61bd d6a2 6a3d 9922 4cbd
00000080: 69bd 113d 5f50 24be e657 d13c 6211 ffbd
00000090: 52e2 1d3d bace 9ebd 0896 0e3d da79 67bd
000000a0: 0047 22bd 3807 b23c 18f5 84bc 1784 273d
000000b0: 2e5f 60bd 1efe 533d 5d1e cf3c 796e dfbd
000000c0: aefe 84bd 7d38 c33c 35a9 c8bd 3411 833d
000000d0: 7acd 18bd 0223 9d3d 8a88 bc3d 1ad7 99bd
000000e0: 1cee d53d 2de9 8e3d 4817 143c aeb4 adbd
000000f0: eb48 d3bd f2a7 d3bd a24e f4bd ee03 ec3d
00000100: a381 343d 45ac adbd a593 1cbe f2d6 683e
00000110: d121 833d d3af 2abe 49a3 ddbc 0d9f 9f3d
00000120: 2fd7 ffbb 2604 65bd 7dee 273e ac4a 4c3d
00000130: 9ac4 323d 3559 9bbc c6ba 203e c411 27be
00000140: c42e 7b3d 7b66 803d 22a6 0ebd 0c08 20bd
00000150: 3fc1 e83c 539e fd3b bfdf e7bd 320b c2bd
00000160: a96d 1bbd 5a50 88bc d046 d1bd 5310 93bd
00000170: b03f 1fbd 9d65 f8bd ae67 cabc c6c8 ab36
00000180: 565f dabd a407 b4bd 1880 47bd 81de 1dbd
00000190: 3cb2 dc3d f715 df3d 66f8 8d3d 6351 0c3d
000001a0: c388 a23c d558 9abc 2bf2 543d 1594 aebd
000001b0: 9397 d83d e8b4 cfbc a654 093e da9e 643b
000001c0: 2636 bb3d f4ed 973d 51f3 483c 4b6f e6bd
000001d0: 4e58 143e 321b 263d d160 ff3c 216c 80bd
000001e0: f548 543d b621 6a3d e50d 0ebe aada 81bc
000001f0: afee bb3d a29e c7bd 4892 22bd d918 b93d
00000200: cf87 1dbd 9068 12be 97c4 f93d f993 0bbc
00000210: 0257 5d3d e054 29bd 59bc c6bc d2b1 43bd
00000220: a628 b0bc f289 72bd 0f16 39bb 12ab 503c
00000230: f829 353e 285f 933d 2698 953b a0d5 ac3d
00000240: 6a7a 863d 0e39 8ebd 60fc dc3d ee4e cd3d
00000250: a3d1 c43d 781e e53d 293d bfbd f8b1 88ba
00000260: 9e01 a3bd 7cec cb3d 4802 6e3d d9c0 1d3d
00000270: 41e3 40bd 3bf4 ecbd 31be 57bd bbb3 233e
00000280: 7b18 1bbd 6f7a 5e3d 8847 6fbd c87a b6bd
00000290: 2932 ec3c 5453 053e b5a6 843b a12f 85ba
000002a0: 0f25 6a3d 9bfc 433d ca6f af3c aa48 293d
000002b0: 32f1 3abd f172 a0bd 3047 0e3e dc7d b9bd
000002c0: 0b63 023b 6beb 7ebd 7340 a5bd a942 f4bc
000002d0: b2ef 2c3d 2295 d03d 240e 8d3c 81f1 113b
000002e0: ae2b 2cbc 811b 233e 3b87 cebd 8093 07be
000002f0: b014 e3bd ea99 6c3d 4699 fd3d 4304 2a3c
00000300: 77d0 513d 49f4 b83d 6641 6c3b 1f9a a03c
00000310: 82b4 463d f0a5 1cbd ebf3 ba3d 2293 303d
00000320: 069b 2dbd cd96 483d 907f 273d 1aff 193d
00000330: 381f be3c 432e 543e 0b40 503d 469a 8a3e
00000340: 40ff 74be 45dc 95bd 0aef 833d 4bb1 573d
00000350: 9573 2dbd 69ab 0fbd 7901 34bd a467 ac3b
00000360: 4f59 0abd 4060 0dbc 2e43 f03c c6eb a73c
00000370: 2c58 05be 52b0 1abd f158 f73b d7ea 163d
00000380: b31a b7bc 0d23 aabd d96f 0dbb 4e24 863d
00000390: 55da cd3d 8391 fcbd e5a4 c83d d7ca 33bc
000003a0: 48b4 b13d 311a cebd c7e3 e1bd dd12 b63d
000003b0: e0af 1fbe 21c9 e93c 8c3b f0bc 3df6 c3bc
000003c0: 0bff 07bc 3fc4 303d fc85 b9bd 9daa d0bc
000003d0: f8ba 80bd 5909 1f3d 896e 053e 31dc bbba
000003e0: 92b3 423d 4c9e 213c f9c6 76bd 7b64 a9bc
000003f0: 7477 f9bd db78 2b3c ad82 843d 7483 00be

base.critic.0.bias f4 [64]
0.0 0.0 0.0 0.0 0.0 0.0 0.0 0.0
0.0 0.0 0.0 0.0 0.0 0.0 0.0 0.0
0.0 0.0 0.0 0.0 0.0 0.0 0.0 0.0
0.0 0.0 0.0 0.0 0.0 0.0 0.0 0.0
0.0 0.0 0.0 0.0 0.0 0.0 0.0 0.0
2.149815e-09 0.0 0.0 0.0 0.0 0.0 0.0 0.0
0.0 0.0 0.0 0.0 0.0 0.0 0.0 0.0
0.0 0.0 0.0 0.0 0.0 0.0 0.0 0.0
00000000: 0000 0000 0000 0000 0000 0000 0000 0000
00000010: 0000 0000 0000 0000 0000 0000 0000 0000
00000020: 0000 0000 0000 0000 0000 0000 0000 0000
00000030: 0000 0000 0000 0000 0000 0000 0000 0000
00000040: 0000 0000 0000 0000 0000 0000 0000 0000
00000050: 0000 0000 0000 0000 0000 0000 0000 0000
00000060: 0000 0000 0000 0000 0000 0000 0000 0000
00000070: 0000 0000 0000 0000 0000 0000 0000 0000
00000080: 0000 0000 0000 0000 0000 0000 0000 0000
00000090: 0000 0000 0000 0000 0000 0000 0000 0000
000000a0: f2bb 1331 0000 0000 0000 0000 0000 0000
000000b0: 0000 0000 0000 0000 0000 0000 0000 0000
000000c0: 0000 0000 0000 0000 0000 0000 0000 0000
000000d0: 0000 0000 0000 0000 0000 0000 0000 0000
000000e0: 0000 0000 0000 0000 0000 0000 0000 0000
000000f0: 0000 0000 0000 0000 0000 0000 0000 0000

base.critic.2.weight f4 [64, 64]
0.117709 -0.0036089811 0.17580271 -0.2580464 0.068337165 -0.24521819 -0.24167925 -0.06492119
-0.13603903 -0.020674273 -0.3998299 -0.077067964 -0.04328672 0.051633053 0.044198573 0.09199161
0.1734393 0.030391686 0.28098765 -0.047485773 0.05338424 -0.0050334088 -0.17740694 -0.07161881
0.524911 -0.09083601 0.28130683 0.104028456 -0.12661816 0.37424994 0.06125745 -0.030596564
0.0969362 -0.011278478 -0.087851144 0.08751897 -0.1983988 -0.09208641 0.028149761 0.22141555
-0.020502612 -0.002016178 0.31259578 0.03599464 -0.019754145 0.043199178 0.25901112 0.048119593
-0.099865995 0.046170563 -0.0165896 -0.09769047 -0.3970176 -0.3175841 0.21485847 -0.24154288
0.006388404 -0.12349982 -0.25217912 0.30965835 0.15683544 -0.18163309 0.078769915 0.021378063
-0.14335038 -0.002743435 0.06683558 -0.088510975 -0.12904477 -0.14633133 0.13113834 0.0340616
0.09984089 0.15072866 0.03904051 -0.32910004 -0.14129561 0.46983585 0.22254609 -0.24181722
0.21002136 0.060064036 -0.20476817 0.22260903 0.008243353 -0.35942793 -0.05543031 0.03448863
-0.124587886 0.14985828 -0.21367092 0.04453216 0.1478851 -0.082113385 0.10291995 -0.21587019
-0.104224905 -0.061505225 -0.1746019 0.2671701 -0.14158176 0.23602755 0.20279391 -0.04399744
-0.20253326 0.14636956 0.32251477 -0.06509507 0.07073351 0.17692043 0.20417853 0.012121632
0.25454652 0.051913697 0.17622413 -0.36829847 -0.14236955 0.058329288 0.001640543 0.14877523
0.22698744 -0.17663176 0.09127354 0.10619001 -0.3507449 -0.11477501 -0.012980774 -0.016955089
0.10722856 -0.08278639 -0.18662776 -0.006071295 0.13263145 0.032955986 0.029490462 -0.015872987
-0.11889911 -0.109210625 -0.1607924 0.035539582 -0.2475949 0.027292522 -0.0727184 0.027980803
-0.09905391 -0.29710168 -0.091512956 -0.07594133 0.2572524 -0.085267395 -0.27943867 0.3356306
-0.013714781 -0.3580051 0.19324356 0.27870983 -0.014566379 -0.046058796 -0.12336882 -0.11374403
-0.15515384 -0.46518418 -0.13244505 -0.20993055 -0.021268738 -0.024458082 0.15772386 0.15270022
-0.2939268 0.19039984 0.15669955 -0.016227705 0.08440233 -0.2803631 -0.036975794 -0.061511703
-0.29110125 0.096045144 0.31755698 0.096450545 -0.03073533 0.1873154 -0.14249612 -0.05740875
0.11531546 0.21091147 -0.03782219 -0.1649752 -0.28115672 0.3658424 0.058613393 0.06356582
0.15727592 0.039165244 0.25231326 0.19241557 0.0067081177 -0.13201725 -0.051797904 -0.082432434
-0.12845309 -0.14623527 0.1552018 -0.103102475 0.16084129 0.117102 0.17685814 -0.07931794
0.25814682 -0.030658264 -0.08888286 -0.12661827 -0.17470624 0.2644968 0.011559305 -0.026978184
-0.22200795 -0.067368865 -0.16875355 -0.0070734317 0.13225037 0.102265015 -0.05146946 -0.24047449
0.16791911 -0.29351333 0.16746587 -0.118484885 0.032335714 0.077078775 -0.086489454 0.12205568
-0.1438365 -0.2033167 -0.13509256 -0.18934916 -0.0054632095 -0.2869681 0.18243665 -0.3990593
-0.2036411 0.26408672 -0.029017873 0.28772852 0.079308525 -0.1938723 0.41929764 0.08131082
0.08951917 -0.43006572 -0.03848899 -0.18571474 -0.16590469 -0.1809527 0.0030169322 0.19441602
00000000: 6b11 f13d a884 6cbb a005 343e a81e 84be
00000010: 5bf4 8b3d 7a1a 7bbe c47a 77be 67f5 84bd
00000020: d14d 0bbe 185d a9bc 81b6 ccbe cfd5 9dbd
00000030: 6a4d 31bd 2e7d 533d 9009 353d 1966 bc3d
00000040: 129a 313e fcf7 f83c 9ddd 8f3e 7180 42bd
00000050: 6fa9 5a3d 4bef a4bb 2aaa 35be e2ac 92bd
00000060: 9160 063f 3b08 babd 7307 903e df0c d53d
00000070: 31a8 01be b09d bf3e 18e9 7a3d a5a5 fabc
00000080: 7d86 c63d 5ec9 38bc 4deb b3bd 253d b33d
00000090: 0e29 4bbe cd97 bcbd 549a e63c c2ba 623e
000000a0: 18f5 a7bc db21 04bb 8e0c a03e 1e6f 133d
000000b0: 72d3 a1bc 9ff1 303d 1b9d 843e 0d19 453d
000000c0: 8b86 ccbd 581d 3d3d eae6 87bc f111 c8bd
000000d0: e445 cbbe 629a a2be dc03 5c3e 0457 77be
000000e0: d155 d13b 79ed fcbd 9f1d 81be 8a8b 9e3e
000000f0: 7899 203e 06fe 39be 1f52 a13d 0c21 af3c
00000100: 71ca 12be 34cb 33bb 18e1 883d 3e45 b5bd
00000110: 5024 04be e1d7 15be 2149 063e 2d84 0b3d
00000120: 6179 cc3d 9d58 1a3e f1e8 1f3d cd7f a8be
00000130: ccaf 10be 538e f03e 1fe3 633e ef9e 77be
00000140: d70f 573e b505 763d bfae 51be 9ff3 633e
00000150: 210f 073c f006 b8be e50a 63bd f343 0d3d
00000160: ef27 ffbd 7374 193e 8dcc 5abe 5b67 363d
00000170: 316f 173e 102b a8bd b2c7 d23d 130d 5dbe
00000180: de73 d5bd e7ec 7bbd d7ca 32be 85ca 883e
00000190: cffa 10be 35b1 713e 35a9 4f3e a936 34bd
000001a0: e164 4fbe e7e1 153e a820 a53e 9050 85bd
000001b0: bbdc 903d a12a 353e 2d14 513e cf99 463c
000001c0: ec53 823e 75a3 543d 1974 343e 9e91 bcbe
000001d0: 53c9 11be b1ea 6e3d 7d07 d73a 8958 183e
000001e0: 656f 683e f5de 34be 9fed ba3d 267a d93d
000001f0: d694 b3be 290f ebbd 50ad 54bc 66e5 8abc
00000200: a69a db3d e98b a9bd 591b 3fbe b7f1 c6bb
00000210: 8ad0 073e dbfc 063d fb95 f13c 1108 82bc
00000220: 6081 f3bd d2a9 dfbd c3a6 24be f491 113d
00000230: 8489 7dbe 9194 df3c 62ed 94bd ff37 e53c
00000240: c7dc cabd b61d 98be 256b bbbd 2187 9bbd
00000250: 96b6 833e aca0 aebd 9612 8fbe c6d7 ab3e
00000260: f6b3 60bc 724c b7be a4e1 453e 0eb3 8e3e
00000270: d2a7 6ebc 26a8 3cbd cba8 fcbd a1f2 e8bd
00000280: a6e0 1ebe 9f2c eebe ad9f 07be 09f8 56be
00000290: c73b aebc 515c c8bc 5d82 213e 725d 1c3e
000002a0: 937d 96be 2df8 423e d975 203e f7ef 84bc
000002b0: 21db ac3d c18b 8fbe ee73 17bd b2f3 7bbd
000002c0: 390b 95be 51b3 c43d d496 a23e dd87 c53d
000002d0: a9c8 fbbc 9ccf 3f3e 81ea 11be 7025 6bbd
000002e0: 832a ec3d 2df9 573e 71eb 1abd 42ef 28be
000002f0: c6f3 8fbe b24f bb3e 9914 703d cc2e 823d
00000300: f00c 213e bc6b 203d 342f 813e 9608 453e
00000310: c5cf db3b 882f 07be 0a2a 54bd 56d2 a8bd
00000320: 3589 03be b3be 15be 38ed 1e3e 6427 d3bd
00000330: 94b3 243e 2cd3 ef3d 4d1a 353e 7271 a2bd
00000340: d22b 843e 0a27 fbbc 3808 b6bd 38a8 01be
00000350: 31e6 32be 206c 873e 3d63 3d3c 5a01 ddbc
00000360: 0d56 63be b0f8 89bd bbcd 2cbe 3fc8 e7bb
00000370: a46c 073e 5270 d13d a4d1 52bd f23e 76be
00000380: fdf2 2b3e 6147 96be 2c7c 2b3e 34a8 f2bd
00000390: 7472 043d 7adb 9d3d 6221 b1bd 54f8 f93d
000003a0: e049 13be 4132 50be b455 0abe bfe4 41be
000003b0: b904 b3bb 7ced 92be acd0 3a3e 8051 ccbe
000003c0: 4b87 50be 6036 873e e4b6 edbc 2751 933e
000003d0: 826c a23d 7686 46be 2eae d63e 4a86 a63d
000003e0: d455 b73d 9331 dcbe a2a6 1dbd 012c 3ebe
000003f0: ebe2 29be aa4b 39be b9b7 453b fe14 473e

base.critic.2.bias f4 [64]
0.015674988 0.013166143 -0.0043838657 0.0108579295 0.01020255 -0.007304491 -0.008732021 0.015622898
-0.010945084 0.009548999 0.01720873 -0.022227807 -0.011544109 0.014599308 0.011127098 0.008927874
-0.005897043 -0.01082345 0.0003238492 -0.01149602 -0.016312655 -0.011435209 0.016229395 0.007141496
0.012846642 0.010935984 0.005029488 0.010773946 -0.015436763 -0.01669773 0.014767417 0.011135216
0.036658958 0.003166066 -0.00011958746 0.0071331807 -0.0036174876 -0.010849397 0.010680133 0.010919304
-0.015946653 -0.016818272 -0.017141078 -0.005335519 0.000851527 0.011194615 0.01664358 0.006958865
-0.01671597 0.011237036 -0.017034668 0.003337583 -0.011384012 -0.010041168 -0.008497164 -0.0112506
-0.013138639 0.011126369 0.006141364 0.002039469 0.011302516 0.0034564072 0.011269564 -0.010858302
00000000: d568 803c ceb6 573c 88a6 8fbb 75e5 313c
00000010: 9928 273c 835a efbb c010 0fbc 2ff7 7f3c
00000020: 0253 33bc 6873 1c3c 53f9 8c3c 1717 b6bc
00000030: 8123 3dbc f031 6f3c 6f4e 363c 3846 123c
00000040: fb3b c1bb d754 31bc 4eca a939 cd59 3cbc
00000050: 1ea2 85bc be5a 3bbc 82f3 843c 3603 ea3b
00000060: b97a 523c d72c 333c 67ce a43b 3485 303c
00000070: 7aea 7cbc aec9 88bc 09f3 713c 7b70 363c
00000080: b427 163d c67d 4f3b 07cb fab8 75bd e93b
00000090: 5f13 6dbb abc1 31bc b9fb 2e3c e1e6 323c
000000a0: 8ea2 82bc 79c6 89bc 726b 8cbc 94d5 aebb
000000b0: 0239 5f3a 9e69 373c 1e58 883c 3107 e43b
000000c0: eeef 88bc 8c1b 383c 4a8c 8bbc 5abb 5a3b
000000d0: 0284 3abc b683 24bc b037 0bbc 7054 38bc
000000e0: 7243 57bc 604b 363c 7f3d c93b 9da8 053b
000000f0: 302e 393c e484 623b faa3 383c 05e7 31bc

base.critic_linear.weight f4 [1, 64]
0.20995429 0.15679109 0.018087665 -4.2898968e-08 -0.071126744 0.06078602 -0.041370608 0.10728994
0.112574264 -0.058042787 0.35190907 -2.270849e-07 0.2126673 0.06048211 -0.29518357 -0.12514025
0.046422355 0.077163786 -0.013165228 0.20110515 -0.12223477 0.24250634 0.15631177 -0.09871475
0.11357991 -0.13771708 -0.13345973 -0.14095517 -0.08406421 -0.23724699 0.14113499 -0.14815062
-7.88755e-05 -0.15216629 -0.008882599 -0.018741481 -9.155973e-08 0.12726726 -0.07237406 -0.17854881
-0.114746116 -0.28356332 -0.29659253 0.020556163 0.06663036 -0.17027451 0.2116239 -0.03200996
-0.21908988 -0.17967792 -0.3261602 -0.0072202967 0.1956061 0.05585868 0.024052104 0.2759936
-0.06564867 -0.21405685 0.11692433 -0.01665257 -0.3784741 0.36636218 -0.1186809 0.12740888
00000000: 42fe 563e d88d 203e 952c 943c ea3f 38b3
00000010: e6aa 91bd c3fa 783d 3a74 29bd d4ba db3d
00000020: 568d e63d 46be 6dbd 6d2d b43e 9fd4 73b4
00000030: 75c5 593e 17bc 773d 4d22 97be c424 00be
00000040: 5e25 3e3d 0c08 9e3d f8b2 57bc 82ee 4d3e
00000050: 3956 fabd 9553 783e 3110 203e f52a cabd
00000060: 959c e83d b505 0dbe aba9 08be 8d56 10be
00000070: db29 acbd e0f0 72be b185 103e ccb4 17be
00000080: f669 a5b8 7bd1 1bbe 5288 11bc bc87 99bc
00000090: 7e9f c4b3 5952 023e da38 94bd 80d5 36be
000000a0: 0300 ebbd 362f 91be fada 97be 6665 a83c
000000b0: 8075 883d 715c 2ebe f0b3 583e e01c 03bd
000000c0: 1959 60be 7dfd 37be 78fe a6be 3d98 ecbb
000000d0: f74c 483e 12cc 643d eb08 c53c 084f 8d3e
000000e0: cf72 86bd b831 5bbe 0676 ef3d f86a 88bc
000000f0: 5bc7 c1be d393 bb3e f90e f3bd 7977 023e

dist.dst_type_linears.0.weight f4 [3, 64]
0.06012342 -0.05799176 0.053102132 -0.05919193 0.033644374 0.054384537 -0.05317138 0.07576984
0.054281518 0.03737654 -0.058566585 0.058144156 0.048409294 -0.049541328 0.060216106 0.021376254
0.05574007 -0.03425874 0.056373857 -0.04632019 -0.024416128 0.024498582 0.061231155 0.059104837
0.012356208 0.06022758 0.019688288 -0.03084694 0.051698238 -0.06366398 -0.054925606 -0.018088384
0.021406028 0.011150778 0.051303208 -0.050872765 0.054538984 -0.038399808 0.06724074 0.05746649
-0.019925263 0.034075435 0.03645555 0.013878 -0.030320873 -0.06313724 0.058030847 0.044102956
-0.03019373 0.064515516 -0.04520386 0.027388051 0.056729533 -0.056625076 0.05593692 -0.055825733
-0.055048745 0.05597494 0.027620066 -0.017925162 -0.051601373 -0.003964821 -0.056204185 -0.034580223
-0.018292185 0.020983873 -0.020976769 0.0036151642 -0.0052292976 -0.015134019 0.019247042 -0.01759189
-0.020545501 -0.002713893 0.016562311 -0.02077854 -0.01144892 0.008253773 -0.018687567 -0.0049246103
-0.021934455 0.008910034 -0.019205617 0.0005169846 0.014067956 -0.0060379356 -0.020731041 -0.019309046
-0.007716044 -0.018043088 -0.001749278 0.015681783 -0.020183139 0.019642005 0.0047226455 0.0022490125
-0.007369452 -0.0017751269 -0.022869157 0.020740038 -0.021231307 0.004772622 -0.009671396 -0.01726913
0.02517591 -0.0059419596 -0.004452577 -0.004508396 0.0114274835 0.020759718 -0.018092165 -0.022444153
0.011338945 -0.006358756 0.00558462 -0.012607022 -0.016452055 0.0064846487 -0.020552645 0.019432563
0.019230748 -0.022635799 -0.0122137 0.0009188052 0.0042259614 0.015479001 0.020741422 0.015895844
-0.01809311 0.017150657 -0.014856407 0.019475942 -0.014389643 -0.015876856 0.013151802 -0.02422166
-0.01722764 -0.014931311 0.017616251 -0.014865686 -0.016551152 0.01235186 -0.017534792 0.0030672792
-0.013352034 0.013158193 -0.014837287 0.02203926 0.0012850944 0.0022826332 -0.01551684 -0.015837729
0.004298413 -0.015385881 0.0053889044 -0.0010025705 -0.013474797 0.017011685 0.023922788 -0.0054852935
0.0043452056 0.007201849 -0.0143056195 0.0133652985 -0.017183758 0.01735877 -0.020069353 -0.016147638
-0.0063726967 0.00012923821 -0.017399274 0.0059178686 0.0027841753 0.018032087 -0.015887214 -0.00016744764
-0.0010795186 -0.019384043 0.02127318 0.0009627214 -0.01673107 0.022619741 -0.014734078 0.015548837
0.0141003365 -0.017587177 0.0019386748 -0.0025463265 0.022591287 -0.00963555 0.014422537 0.0019860312
00000000: fa43 763d c588 6dbd 9f81 593d 3d73 72bd
00000010: afce 093d 52c2 5e3d 3cca 59bd 382d 9b3d
00000020: 4c56 5e3d 2518 193d 84e3 6fbd 9128 6e3d
00000030: d348 463d d9eb 4abd 2aa5 763d 411d af3c
00000040: b34f 643d e452 0cbd 46e8 663d 3dba 3dbd
00000050: 5504 c8bc 40b1 c83c 85cd 7a3d ea17 723d
00000060: b171 4a3c 32b1 763d 5549 a13c b9b2 fcbc
00000070: 88c1 533d 4362 82bd acf9 60bd 172e 94bc
00000080: b25b af3c c1b1 363c 5023 523d f65f 50bd
00000090: 4564 5f3d 1e49 1dbd 83b5 893d fb61 6b3d
000000a0: 4e3a a3bc af92 0b3d 6a52 153d 8d60 633c
000000b0: 7b63 f8bc 194e 81bd c1b1 6d3d 4da5 343d
000000c0: d758 f7bc b620 843d af27 39bd e85c e03c
000000d0: 3a5d 683d b2ef 67bd 1d1e 653d 86a9 64bd
000000e0: cb7a 61bd fb45 653d 7a43 e23c cad7 92bc
000000f0: f65b 53bd 54eb 81bb 5c36 66bd fea3 0dbd
00000100: 7ed9 95bc 5fe6 ab3c 79d7 abbc 64ec 6c3b
00000110: 875a abbb adf4 77bc f9ab 9d3c de1c 90bc
00000120: 0a4f a8bc 92db 31bb afad 873c c237 aabc
00000130: 4094 3bbc d53a 073c ab16 99bc a05e a1bb
00000140: e3af b3bc 64fb 113c 1955 9dbc 4086 073a
00000150: 497d 663c e0d9 c5bb 25d4 a9bc 012e 9ebc
00000160: ded6 fcbb 19cf 93bc 0848 e5ba 1577 803c
00000170: 1c57 a5bc 45e8 a03c 6cc0 9a3b 2b64 133b
00000180: 727b f1bb 60ab e8ba 1958 bbbc 03e7 a93c
00000190: 47ed adbc a863 9c3b c674 1ebc fe77 8dbc
000001a0: b63d ce3c c5b4 c2bb ece6 91bb 2bbb 93bb
000001b0: 573a 3b3c 4910 aa3c 0536 94bc cddc b7bc
000001c0: fbc6 393c 1d5d d0bb 30ff b63b af8d 4ebc
000001d0: 76c6 86bc 2d7d d43b 055e a8bc 0a31 9f3c
000001e0: cd89 9d3c b66e b9bc f91b 48bc f9db 703a
000001f0: ef79 8a3b a39b 7d3c eae9 a93c 0038 823c
00000200: 0038 94bc 897f 8c3c 4a68 73bc 038c 9f3c
00000210: 8ac2 6bbc 2e10 82bc a87a 573c 816c c6bc
00000220: fb20 8dbc 75a2 74bc f54f 903c 358f 73bc
00000230: 4896 87bc 755f 4a3c 20a5 8fbc 6804 493b
00000240: 7dc2 5abc 7695 573c 1818 73bc ae8b b43c
00000250: 9d70 a83a 3b98 153b 583a 7ebc 20be 81bc
00000260: b4d9 8c3b 1015 7cbc 6895 b03b af68 83ba
00000270: 65c5 5cbc 175c 8b3c b9f9 c33c fabd b3bb
00000280: 3a62 8e3b 7dfd eb3b 1e62 6abc 20fa 5a3c
00000290: f4c4 8cbc fb33 8e3c 7c68 a4bc 0d48 84bc
000002a0: 0ed2 d0bb 1e84 0739 ec88 8ebc aeea c13b
000002b0: b676 363b 07b8 933c e725 82bc e294 2fb9
000002c0: a27e 8dba 49cb 9ebc 1845 ae3c 245f 7c3a
000002d0: 990f 89bc 094d b93c 3467 71bc 8dc0 7e3c
000002e0: 1905 673c fc12 90bc 221b fe3a 45e0 26bb
000002f0: 5d11 b93c 6dde 1dbc 814c 6c3c 1328 023b

dist.dst_type_linears.0.bias f4 [3]
-0.052986853 0.019660052 0.014580856
00000000: be08 59bd 1e0e a13c 8be4 6e3c

dist.dst_type_linears.1.weight f4 [3, 64]
0.017141515 -0.015366988 0.01078204 -0.014072721 0.01606524 0.022821832 -0.016386405 0.0046945047
0.01641419 0.01735333 -0.015185353 0.012904532 0.020259202 -0.03929766 0.013943206 0.040668476
0.013276322 -0.0129936775 0.013664831 -0.012846001 -0.029977059 0.04155678 0.014745538 0.0138158975
0.036685005 0.014112935 0.043169726 -0.031928375 0.013664474 -0.01341833 -0.008713197 -0.050475433
0.040270858 0.0468183 0.012339675 -0.011925445 0.0123493485 -0.014161527 0.016158963 0.015902326
-0.006110506 0.041750178 0.015627181 0.04798163 -0.0348403 -0.014264706 0.013217956 0.019524472
-0.03046304 0.017772697 -0.010993568 0.028031144 0.014415076 -0.003325326 0.0136227645 -0.013339045
-0.013216657 0.012835626 0.028557643 -0.04483407 -0.01507316 -0.033995025 -0.015157589 -0.037276782
0.02116499 -0.018553805 0.012427451 -0.04516884 0.033999994 0.02200074 -0.011313899 0.031918757
0.011907627 0.036420982 -0.01761451 0.01562324 0.026376672 -0.04561797 0.019843383 0.04565134
0.012916123 -0.035276957 0.013755646 -0.034867264 -0.019362181 0.04583377 0.014038575 0.017171515
0.043275062 0.0181553 0.040903773 -0.040692955 0.011356112 -0.017053483 -0.03585739 -0.040448304
0.04461482 0.035507794 0.011225911 -0.012308298 0.0096870335 -0.03799629 0.03742609 0.022580981
-0.0010724819 0.04971326 0.03377911 0.03557795 -0.050037693 -0.016668694 0.012056016 0.03336951
-0.048823893 0.050239835 -0.033159327 0.03984037 0.02127794 -0.033299502 0.011505795 -0.014148232
-0.012239637 0.012731143 0.04442755 -0.046526227 -0.028777106 -0.00025123695 -0.014848986 -0.015162569
-0.042308453 0.038267218 -0.03564079 0.061247937 -0.04636123 -0.05002042 0.03483939 -0.048242785
-0.03450221 -0.050745558 0.0382373 -0.03668591 -0.050611477 0.077465236 -0.039617404 -0.06099684
-0.034282543 0.04612504 -0.035375908 0.049973298 0.039986543 -0.063127965 -0.03928607 -0.03762225
-0.051424667 -0.039309535 -0.06313811 0.051866714 -0.03250224 0.038512412 0.047361698 0.05944187
-0.05991123 -0.055597898 -0.03477916 0.03326678 -0.03278189 0.047718644 -0.05565025 -0.04102645
0.01482559 -0.067217745 -0.0481137 -0.058773335 0.06627974 0.03707585 -0.038170695 -0.0544321
0.06331208 -0.06685881 0.04483966 -0.05198718 -0.042627316 0.048440203 -0.03623178 0.034958765
0.036809534 -0.034603532 -0.057582885 0.063711755 0.0463005 0.018794142 0.03543864 0.054568663
00000000: 5d6c 8c3c d2c5 7bbc 27a7 303c 4591 66bc
00000010: 409b 833c daf4 ba3c c83c 86bc 5cd4 993b
00000020: 0d77 863c 9228 8e3c fdcb 78bc 886d 533c
00000030: a0f6 a53c 95f6 20bd 0b72 643c fd93 263d
00000040: ee84 593c 6fe3 54bc 75e2 5f3c 0978 52bc
00000050: 7392 f5bc 7137 2a3d 4597 713c 135c 623c
00000060: 0443 163d f139 673c bdd2 303d 54c7 02bd
00000070: f5e0 5f3c 8ed8 5bbc ccc1 0ebc 54bf 4ebd
00000080: 0ef3 243d 8cc4 3f3d 592c 4a3c f162 43bc
00000090: ec54 4a3c c005 68bc cd5f 843c 9845 823c
000000a0: a43a c8bb 3c02 2b3d 9304 803c 6388 443d
000000b0: b4b4 0ebd 83b6 69bc 2090 583c c9f1 9f3c
000000c0: a08d f9bc 0c98 913c 5e1e 34bc 92a1 e53c
000000d0: 362d 6c3c b6ed 59bb 0432 5f3c 038c 5abc
000000e0: ad8a 58bc 844c 523c b8f1 e93c eea3 37bd
000000f0: 6af5 76bc 5e3e 0bbd 8957 78bc 8aaf 18bd
00000100: 3362 ad3c 26fe 97bc 829c 4b3c f602 39bd
00000110: 9443 0b3d e53a b43c ef5d 39bc 3ebd 023d
00000120: 3518 433c 2b2e 153d 4e4c 90bc 9ef8 7f3c
00000130: e413 d83c e9d9 3abd 978e a23c e6fc 3a3d
00000140: 259e 533c 927e 10bd 5c5f 613c fad0 0ebd
00000150: 709d 9ebc 31bc 3b3d 0d02 663c 47ab 8c3c
00000160: 3141 313d 6cba 943c b78a 273d a8ad 26bd
00000170: fc0e 3a3c bfb3 8bbc 33df 12bd 1fad 25bd
00000180: 08be 363d 9f70 113d e2ec 373c bea8 49bc
00000190: 5db6 1e3c ffa1 1bbd 1a4c 193d c0fb b83c
000001a0: 8592 8cba 22a0 4b3d f75b 0a3d 2fba 113d
000001b0: 53f4 4cbd c98c 88bc 9986 453c 78ae 083d
000001c0: 90fb 47bd 49c8 4d3d 13d2 07bd a82f 233d
000001d0: 134f ae3c 0f65 08bd cd82 3c3c fccd 67bc
000001e0: c288 48bc 4996 503c aaf9 353d 4992 3ebd
000001f0: f7bd ebbc 74b8 83b9 2949 73bc 6c6c 78bc
00000200: a14b 2dbd 16be 1c3d 14fc 11bd 1edf 7a3d
00000210: 46e5 3dbd 36e2 4cbd c0b3 0e3d 3a9a 45bd
00000220: 3052 0dbd 93da 4fbd b79e 1c3d f743 16bd
00000230: fb4d 4fbd 18a6 9e3d dc45 22bd d3d7 79bd
00000240: da6b 0cbd 9ced 3c3d 54e6 10bd cdb0 4c3d
00000250: eec8 233d 3c49 81bd 6eea 20bd ca19 1abd
00000260: aca2 52bd 0903 21bd 8e4e 81bd 3172 543d
00000270: 1221 05bd 31bf 1d3d 57fe 413d 5179 733d
00000280: 7a65 75bd 9fba 63bd 9874 0ebd bf42 083d
00000290: 4e46 06bd a074 433d 84f1 63bd 5a0b 28bd
000002a0: 08e7 723c 75a9 89bd df12 45bd 4fbc 70bd
000002b0: acbd 873d d9dc 173d e058 1cbd 32f4 5ebd
000002c0: c4a9 813d 46ed 88bd cba9 373d 82f0 54bd
000002d0: fb99 2ebd 3c69 463d c667 14bd ec30 0f3d
000002e0: 98c5 163d 6fbc 0dbd 08dc 6bbd 4f7b 823d
000002f0: 98a5 3d3d 2cf6 993c 1b28 113d 6483 5f3d

dist.dst_type_linears.1.bias f4 [3]
-0.012994431 -0.011589538 0.033851955
00000000: 98e6 54bc 0ce2 3dbc 59a8 0a3d

dist.dst_type_linears.2.weight f4 [3, 64]
-0.07256188 0.08107919 -0.06943187 0.10040162 -0.05534221 -0.056024883 0.06674146 -0.07772046
-0.06858946 -0.07192589 0.081860945 -0.07808839 -0.055008333 0.03633951 -0.07643096 -0.044892903
-0.068164945 0.057885006 -0.06868899 0.08459401 0.021450562 -0.05268697 -0.07625579 -0.08023175
-0.013856462 -0.081432946 -0.050760392 0.06942892 -0.06871982 0.079411924 0.07996612 0.04908588
-0.05148464 -0.028064009 -0.06493224 0.06663664 -0.06658019 0.057972025 -0.06680834 -0.0793212
-0.0005160867 -0.032732416 -0.053637933 -0.042257354 0.0323016 0.077770405 -0.07288219 -0.017641868
0.061888196 -0.093636066 0.06416227 -0.057141602 -0.08346293 0.085039124 -0.07065258 0.07350672
0.072100885 -0.06696204 -0.06259075 0.021406969 0.06397713 -0.012935432 0.06883938 0.012609614
0.04420645 -0.047611374 0.036249813 -0.067916185 0.021206144 0.032093763 -0.034829624 0.053198915
0.036117423 0.04641308 -0.04875035 0.045468282 0.030870242 -0.038707066 0.045927178 0.030077448
0.03672001 -0.021890508 0.038671438 -0.057167407 0.0033012056 0.034808803 0.044259164 0.04645314
0.013311149 0.047734313 0.028317375 -0.039793696 0.03445798 -0.048632283 -0.048164655 -0.023453316
0.02831762 0.011551372 0.037381373 -0.035099808 0.037526127 -0.024285527 0.04155389 0.045577653
0.006886559 0.028810203 0.02485237 0.018583288 -0.0259356 -0.048911136 0.042788044 0.010364945
-0.04646485 0.069961496 -0.035750464 0.02841762 0.048560105 -0.04656904 0.0418275 -0.04007465
-0.04085958 0.039253622 0.03874444 -0.019788925 -0.03880784 0.024813283 -0.039843023 0.0008299428
0.05708877 -0.060510345 0.04977808 -0.06582231 0.058174424 0.04546403 -0.050671175 0.055276398
0.050914623 0.060473442 -0.06051427 0.05671797 0.050212223 -0.0062343315 0.058226712 0.027370697
0.048342858 -0.05413914 0.050357502 -0.065577134 -0.026402982 0.026213016 0.056582198 0.059793852
0.0021497747 0.059591986 0.031051211 -0.043624256 0.051539194 -0.059824556 -0.06589009 -0.031649865
0.032572627 0.017403865 0.049010113 -0.049055614 0.05049807 -0.059118375 0.046929844 0.062864654
-0.009574041 0.008449112 0.055733733 0.026305249 -0.006643479 -0.057923462 0.050911758 0.01102744
-0.03309438 0.05268691 -0.060275603 0.032905463 0.065680444 -0.06783334 0.054522466 -0.05385801
-0.05408075 0.05033425 0.036184352 -0.0031458 -0.052243154 -0.0052842624 -0.050029084 -0.020185325
00000000: 539b 94bd d90c a63d 4c32 8ebd 5d9f cd3d
00000010: 83ae 62bd 597a 65bd bfaf 883d e82b 9fbd
00000020: a178 8cbd e24d 93bd b6a6 a73d ceec 9fbd
00000030: 6b50 61bd bdd8 143d d687 9cbd 9fe1 37bd
00000040: 109a 8bbd d418 6d3d d0ac 8cbd a03f ad3d
00000050: 17b9 af3c 4bce 57bd ff2b 9cbd 8b50 a4bd
00000060: 3706 63bc 51c6 a6bd 21ea 4fbd c030 8e3d
00000070: fabc 8cbd b8a2 a23d 47c5 a33d 470e 493d
00000080: 8fe1 52bd 7ee6 e5bc 32fb 84bd ca78 883d
00000090: 325b 88bd 1374 6d3d d0d2 88bd 2773 a2bd
000000a0: fe49 07ba 6d12 06bd 73b3 5bbd 0c16 2dbd
000000b0: af4e 043d 1746 9f3d 4243 95bd ae85 90bc
000000c0: 7a7e 7d3d 44c4 bfbd 8267 833d 500d 6abd
000000d0: 9dee aabd fe28 ae3d 4db2 90bd b18a 963d
000000e0: a1a9 933d 6523 89bd 942f 80bd ab5d af3c
000000f0: 7106 833d 22ef 53bc a9fb 8c3d 8e98 4e3c
00000100: d311 353d 2504 43bd af7a 143d a417 8bbd
00000110: 82b8 ad3c c074 033d 82a9 0ebd 1be7 593d
00000120: ddef 133d a41b 3e3d 72ae 47bd f33c 3a3d
00000130: 97e3 fc3c 4d8b 1ebd 231e 3c3d fb64 f63c
00000140: b967 163d b953 b3bc f165 1e3d 5f28 6abd
00000150: 0a59 583b ad93 0e3d 1949 353d a645 3e3d
00000160: 0117 5a3c 0e85 433d d7f9 e73c b7fe 22bd
00000170: d023 0d3d a532 47bd 4d48 45bd 2b21 c0bc
00000180: 5afa e73c f741 3d3c 361d 193d d1c4 0fbd
00000190: ffb4 193d 71f2 c6bc 6934 2a3d a2af 3a3d
000001a0: a5a8 e13b 6003 ec3c 3397 cb3c fb3b 983c
000001b0: e576 d4bc 0b57 48bd 8442 2f3d bbd1 293c
000001c0: ed51 3ebd f947 8f3d 146f 12bd 12cc e83c
000001d0: f6e6 463d 2dbf 3ebd 5053 2b3d 5125 24bd
000001e0: 605c 27bd 68c8 203d 7db2 1e3d 621c a2bc
000001f0: f8f4 1ebd 3a45 cb3c 7032 23bd 8590 593a
00000200: ead5 693d b2d9 77bd 1ae4 4b3d d9cd 86bd
00000210: 4e48 6e3d 7e38 3a3d 948c 4fbd 8169 623d
00000220: da8b 503d 00b3 773d d0dd 77bd 1a51 683d
00000230: 55ab 4d3d 5d49 ccbb 227f 6e3d 8338 e03c
00000240: 2903 463d 01c1 5dbd ab43 4e3d 4e4d 86bd
00000250: 114b d8bc aebc d63c bcc2 673d 66ea 743d
00000260: 3ce3 0c3b ba16 743d 1c5f fe3c 59af 32bd
00000270: c31a 533d 980a 75bd 62f1 86bd 4aa3 01bd
00000280: e06a 053d 8d92 8e3c d4be 483d 8aee 48bd
00000290: 10d7 4e3d 1c26 72bd 8239 403d 2fbf 803d
000002a0: 70dc 1cbc 256e 0a3c 0e49 643d 1b7e d73c
000002b0: 8bb1 d9bb 2741 6dbd d988 503d 70ac 343c
000002c0: f98d 07bd 3bce 573d 8de3 76bd e1c7 063d
000002d0: 7883 863d 35ec 8abd f352 5f3d 379a 5cbd
000002e0: c783 5dbd 492b 4e3d 0b36 143d c429 4ebb
000002f0: ebfc 55bd 9b27 adbb 4ceb 4cbd b25b a5bc

dist.dst_type_linears.2.bias f4 [3]
0.06715382 -0.035562366 -0.049299676
00000000: f187 893d d8a9 11bd 75ee 49bd
